fn (%input: Tensor[(1, 3, 128, 128), int8], %v0_weight: Tensor[(16, 3, 3, 3), int8], %v0_bias: Tensor[(16), int32], %v0_zero_x: Tensor[(1), int8], %v0_zero_y: Tensor[(1), int8], %v0_scale: Tensor[(16), float32], %v1_conv_0_weight: Tensor[(16, 1, 3, 3), int8], %v1_conv_0_bias: Tensor[(16), int32], %v1_conv_0_zero_x: Tensor[(1), int8], %v1_conv_0_zero_y: Tensor[(1), int8], %v1_conv_0_scale: Tensor[(16), float32], %v1_conv_1_weight: Tensor[(8, 16, 1, 1), int8], %v1_conv_1_bias: Tensor[(8), int32], %v1_conv_1_zero_x: Tensor[(1), int8], %v1_conv_1_zero_y: Tensor[(1), int8], %v1_conv_1_scale: Tensor[(8), float32], %v2_conv_0_weight: Tensor[(32, 8, 1, 1), int8], %v2_conv_0_bias: Tensor[(32), int32], %v2_conv_0_zero_x: Tensor[(1), int8], %v2_conv_0_zero_y: Tensor[(1), int8], %v2_conv_0_scale: Tensor[(32), float32], %v2_conv_1_weight: Tensor[(32, 1, 3, 3), int8], %v2_conv_1_bias: Tensor[(32), int32], %v2_conv_1_zero_x: Tensor[(1), int8], %v2_conv_1_zero_y: Tensor[(1), int8], %v2_conv_1_scale: Tensor[(32), float32], %v2_conv_2_weight: Tensor[(16, 32, 1, 1), int8], %v2_conv_2_bias: Tensor[(16), int32], %v2_conv_2_zero_x: Tensor[(1), int8], %v2_conv_2_zero_y: Tensor[(1), int8], %v2_conv_2_scale: Tensor[(16), float32], %v3_conv_0_weight: Tensor[(48, 16, 1, 1), int8], %v3_conv_0_bias: Tensor[(48), int32], %v3_conv_0_zero_x: Tensor[(1), int8], %v3_conv_0_zero_y: Tensor[(1), int8], %v3_conv_0_scale: Tensor[(48), float32], %v3_conv_1_weight: Tensor[(48, 1, 3, 3), int8], %v3_conv_1_bias: Tensor[(48), int32], %v3_conv_1_zero_x: Tensor[(1), int8], %v3_conv_1_zero_y: Tensor[(1), int8], %v3_conv_1_scale: Tensor[(48), float32], %v3_conv_2_weight: Tensor[(16, 48, 1, 1), int8], %v3_conv_2_bias: Tensor[(16), int32], %v3_conv_2_zero_x: Tensor[(1), int8], %v3_conv_2_zero_y: Tensor[(1), int8], %v3_conv_2_scale: Tensor[(16), float32], %v3_qadd_zero_x1: Tensor[(1), int8], %v3_qadd_zero_x2: Tensor[(1), int8], %v3_qadd_scale_x1: Tensor[(1), float32], %v3_qadd_scale_x2: Tensor[(1), float32], %v3_qadd_zero_y: Tensor[(1), int8], %v3_qadd_scale_y: Tensor[(1), float32], %v4_conv_0_weight: Tensor[(48, 16, 1, 1), int8], %v4_conv_0_bias: Tensor[(48), int32], %v4_conv_0_zero_x: Tensor[(1), int8], %v4_conv_0_zero_y: Tensor[(1), int8], %v4_conv_0_scale: Tensor[(48), float32], %v4_conv_1_weight: Tensor[(48, 1, 7, 7), int8], %v4_conv_1_bias: Tensor[(48), int32], %v4_conv_1_zero_x: Tensor[(1), int8], %v4_conv_1_zero_y: Tensor[(1), int8], %v4_conv_1_scale: Tensor[(48), float32], %v4_conv_2_weight: Tensor[(24, 48, 1, 1), int8], %v4_conv_2_bias: Tensor[(24), int32], %v4_conv_2_zero_x: Tensor[(1), int8], %v4_conv_2_zero_y: Tensor[(1), int8], %v4_conv_2_scale: Tensor[(24), float32], %v5_conv_0_weight: Tensor[(120, 24, 1, 1), int8], %v5_conv_0_bias: Tensor[(120), int32], %v5_conv_0_zero_x: Tensor[(1), int8], %v5_conv_0_zero_y: Tensor[(1), int8], %v5_conv_0_scale: Tensor[(120), float32], %v5_conv_1_weight: Tensor[(120, 1, 3, 3), int8], %v5_conv_1_bias: Tensor[(120), int32], %v5_conv_1_zero_x: Tensor[(1), int8], %v5_conv_1_zero_y: Tensor[(1), int8], %v5_conv_1_scale: Tensor[(120), float32], %v5_conv_2_weight: Tensor[(24, 120, 1, 1), int8], %v5_conv_2_bias: Tensor[(24), int32], %v5_conv_2_zero_x: Tensor[(1), int8], %v5_conv_2_zero_y: Tensor[(1), int8], %v5_conv_2_scale: Tensor[(24), float32], %v5_qadd_zero_x1: Tensor[(1), int8], %v5_qadd_zero_x2: Tensor[(1), int8], %v5_qadd_scale_x1: Tensor[(1), float32], %v5_qadd_scale_x2: Tensor[(1), float32], %v5_qadd_zero_y: Tensor[(1), int8], %v5_qadd_scale_y: Tensor[(1), float32], %v6_conv_0_weight: Tensor[(120, 24, 1, 1), int8], %v6_conv_0_bias: Tensor[(120), int32], %v6_conv_0_zero_x: Tensor[(1), int8], %v6_conv_0_zero_y: Tensor[(1), int8], %v6_conv_0_scale: Tensor[(120), float32], %v6_conv_1_weight: Tensor[(120, 1, 3, 3), int8], %v6_conv_1_bias: Tensor[(120), int32], %v6_conv_1_zero_x: Tensor[(1), int8], %v6_conv_1_zero_y: Tensor[(1), int8], %v6_conv_1_scale: Tensor[(120), float32], %v6_conv_2_weight: Tensor[(40, 120, 1, 1), int8], %v6_conv_2_bias: Tensor[(40), int32], %v6_conv_2_zero_x: Tensor[(1), int8], %v6_conv_2_zero_y: Tensor[(1), int8], %v6_conv_2_scale: Tensor[(40), float32], %v7_conv_0_weight: Tensor[(160, 40, 1, 1), int8], %v7_conv_0_bias: Tensor[(160), int32], %v7_conv_0_zero_x: Tensor[(1), int8], %v7_conv_0_zero_y: Tensor[(1), int8], %v7_conv_0_scale: Tensor[(160), float32], %v7_conv_1_weight: Tensor[(160, 1, 7, 7), int8], %v7_conv_1_bias: Tensor[(160), int32], %v7_conv_1_zero_x: Tensor[(1), int8], %v7_conv_1_zero_y: Tensor[(1), int8], %v7_conv_1_scale: Tensor[(160), float32], %v7_conv_2_weight: Tensor[(40, 160, 1, 1), int8], %v7_conv_2_bias: Tensor[(40), int32], %v7_conv_2_zero_x: Tensor[(1), int8], %v7_conv_2_zero_y: Tensor[(1), int8], %v7_conv_2_scale: Tensor[(40), float32], %v7_qadd_zero_x1: Tensor[(1), int8], %v7_qadd_zero_x2: Tensor[(1), int8], %v7_qadd_scale_x1: Tensor[(1), float32], %v7_qadd_scale_x2: Tensor[(1), float32], %v7_qadd_zero_y: Tensor[(1), int8], %v7_qadd_scale_y: Tensor[(1), float32], %v8_conv_0_weight: Tensor[(160, 40, 1, 1), int8], %v8_conv_0_bias: Tensor[(160), int32], %v8_conv_0_zero_x: Tensor[(1), int8], %v8_conv_0_zero_y: Tensor[(1), int8], %v8_conv_0_scale: Tensor[(160), float32], %v8_conv_1_weight: Tensor[(160, 1, 5, 5), int8], %v8_conv_1_bias: Tensor[(160), int32], %v8_conv_1_zero_x: Tensor[(1), int8], %v8_conv_1_zero_y: Tensor[(1), int8], %v8_conv_1_scale: Tensor[(160), float32], %v8_conv_2_weight: Tensor[(48, 160, 1, 1), int8], %v8_conv_2_bias: Tensor[(48), int32], %v8_conv_2_zero_x: Tensor[(1), int8], %v8_conv_2_zero_y: Tensor[(1), int8], %v8_conv_2_scale: Tensor[(48), float32], %v9_conv_0_weight: Tensor[(144, 48, 1, 1), int8], %v9_conv_0_bias: Tensor[(144), int32], %v9_conv_0_zero_x: Tensor[(1), int8], %v9_conv_0_zero_y: Tensor[(1), int8], %v9_conv_0_scale: Tensor[(144), float32], %v9_conv_1_weight: Tensor[(144, 1, 3, 3), int8], %v9_conv_1_bias: Tensor[(144), int32], %v9_conv_1_zero_x: Tensor[(1), int8], %v9_conv_1_zero_y: Tensor[(1), int8], %v9_conv_1_scale: Tensor[(144), float32], %v9_conv_2_weight: Tensor[(48, 144, 1, 1), int8], %v9_conv_2_bias: Tensor[(48), int32], %v9_conv_2_zero_x: Tensor[(1), int8], %v9_conv_2_zero_y: Tensor[(1), int8], %v9_conv_2_scale: Tensor[(48), float32], %v9_qadd_zero_x1: Tensor[(1), int8], %v9_qadd_zero_x2: Tensor[(1), int8], %v9_qadd_scale_x1: Tensor[(1), float32], %v9_qadd_scale_x2: Tensor[(1), float32], %v9_qadd_zero_y: Tensor[(1), int8], %v9_qadd_scale_y: Tensor[(1), float32], %v10_conv_0_weight: Tensor[(192, 48, 1, 1), int8], %v10_conv_0_bias: Tensor[(192), int32], %v10_conv_0_zero_x: Tensor[(1), int8], %v10_conv_0_zero_y: Tensor[(1), int8], %v10_conv_0_scale: Tensor[(192), float32], %v10_conv_1_weight: Tensor[(192, 1, 3, 3), int8], %v10_conv_1_bias: Tensor[(192), int32], %v10_conv_1_zero_x: Tensor[(1), int8], %v10_conv_1_zero_y: Tensor[(1), int8], %v10_conv_1_scale: Tensor[(192), float32], %v10_conv_2_weight: Tensor[(48, 192, 1, 1), int8], %v10_conv_2_bias: Tensor[(48), int32], %v10_conv_2_zero_x: Tensor[(1), int8], %v10_conv_2_zero_y: Tensor[(1), int8], %v10_conv_2_scale: Tensor[(48), float32], %v10_qadd_zero_x1: Tensor[(1), int8], %v10_qadd_zero_x2: Tensor[(1), int8], %v10_qadd_scale_x1: Tensor[(1), float32], %v10_qadd_scale_x2: Tensor[(1), float32], %v10_qadd_zero_y: Tensor[(1), int8], %v10_qadd_scale_y: Tensor[(1), float32], %v11_conv_0_weight: Tensor[(240, 48, 1, 1), int8], %v11_conv_0_bias: Tensor[(240), int32], %v11_conv_0_zero_x: Tensor[(1), int8], %v11_conv_0_zero_y: Tensor[(1), int8], %v11_conv_0_scale: Tensor[(240), float32], %v11_conv_1_weight: Tensor[(240, 1, 7, 7), int8], %v11_conv_1_bias: Tensor[(240), int32], %v11_conv_1_zero_x: Tensor[(1), int8], %v11_conv_1_zero_y: Tensor[(1), int8], %v11_conv_1_scale: Tensor[(240), float32], %v11_conv_2_weight: Tensor[(96, 240, 1, 1), int8], %v11_conv_2_bias: Tensor[(96), int32], %v11_conv_2_zero_x: Tensor[(1), int8], %v11_conv_2_zero_y: Tensor[(1), int8], %v11_conv_2_scale: Tensor[(96), float32], %v12_conv_0_weight: Tensor[(384, 96, 1, 1), int8], %v12_conv_0_bias: Tensor[(384), int32], %v12_conv_0_zero_x: Tensor[(1), int8], %v12_conv_0_zero_y: Tensor[(1), int8], %v12_conv_0_scale: Tensor[(384), float32], %v12_conv_1_weight: Tensor[(384, 1, 5, 5), int8], %v12_conv_1_bias: Tensor[(384), int32], %v12_conv_1_zero_x: Tensor[(1), int8], %v12_conv_1_zero_y: Tensor[(1), int8], %v12_conv_1_scale: Tensor[(384), float32], %v12_conv_2_weight: Tensor[(96, 384, 1, 1), int8], %v12_conv_2_bias: Tensor[(96), int32], %v12_conv_2_zero_x: Tensor[(1), int8], %v12_conv_2_zero_y: Tensor[(1), int8], %v12_conv_2_scale: Tensor[(96), float32], %v12_qadd_zero_x1: Tensor[(1), int8], %v12_qadd_zero_x2: Tensor[(1), int8], %v12_qadd_scale_x1: Tensor[(1), float32], %v12_qadd_scale_x2: Tensor[(1), float32], %v12_qadd_zero_y: Tensor[(1), int8], %v12_qadd_scale_y: Tensor[(1), float32], %v13_conv_0_weight: Tensor[(384, 96, 1, 1), int8], %v13_conv_0_bias: Tensor[(384), int32], %v13_conv_0_zero_x: Tensor[(1), int8], %v13_conv_0_zero_y: Tensor[(1), int8], %v13_conv_0_scale: Tensor[(384), float32], %v13_conv_1_weight: Tensor[(384, 1, 5, 5), int8], %v13_conv_1_bias: Tensor[(384), int32], %v13_conv_1_zero_x: Tensor[(1), int8], %v13_conv_1_zero_y: Tensor[(1), int8], %v13_conv_1_scale: Tensor[(384), float32], %v13_conv_2_weight: Tensor[(96, 384, 1, 1), int8], %v13_conv_2_bias: Tensor[(96), int32], %v13_conv_2_zero_x: Tensor[(1), int8], %v13_conv_2_zero_y: Tensor[(1), int8], %v13_conv_2_scale: Tensor[(96), float32], %v13_qadd_zero_x1: Tensor[(1), int8], %v13_qadd_zero_x2: Tensor[(1), int8], %v13_qadd_scale_x1: Tensor[(1), float32], %v13_qadd_scale_x2: Tensor[(1), float32], %v13_qadd_zero_y: Tensor[(1), int8], %v13_qadd_scale_y: Tensor[(1), float32], %v14_conv_0_weight: Tensor[(576, 96, 1, 1), int8], %v14_conv_0_bias: Tensor[(576), int32], %v14_conv_0_zero_x: Tensor[(1), int8], %v14_conv_0_zero_y: Tensor[(1), int8], %v14_conv_0_scale: Tensor[(576), float32], %v14_conv_1_weight: Tensor[(576, 1, 3, 3), int8], %v14_conv_1_bias: Tensor[(576), int32], %v14_conv_1_zero_x: Tensor[(1), int8], %v14_conv_1_zero_y: Tensor[(1), int8], %v14_conv_1_scale: Tensor[(576), float32], %v14_conv_2_weight: Tensor[(160, 576, 1, 1), int8], %v14_conv_2_bias: Tensor[(160), int32], %v14_conv_2_zero_x: Tensor[(1), int8], %v14_conv_2_zero_y: Tensor[(1), int8], %v14_conv_2_scale: Tensor[(160), float32], %v15_weight: Tensor[(5, 160, 1, 1), int8], %v15_bias: Tensor[(5), int32], %v15_zero_x: Tensor[(1), int8], %v15_zero_y: Tensor[(1), int8], %v15_scale: Tensor[(5), float32], %label: Tensor[(1, 5), float32]) -> (float32, Tensor[(5), int32], Tensor[(5, 160, 1, 1), int8], Tensor[(160), int32], Tensor[(576), int32], Tensor[(576), int32], Tensor[(96), int32], Tensor[(384), int32], Tensor[(384), int32], Tensor[(96), int32], Tensor[(384), int32], Tensor[(384), int32], Tensor[(96), int32], Tensor[(240), int32], Tensor[(240), int32], Tensor[(240, 24, 1, 1), int8], Tensor[(48), int32], Tensor[(192), int32], Tensor[(192), int32], Tensor[(192, 24, 1, 1), int8], Tensor[(48), int32], Tensor[(144), int32], Tensor[(144), int32], Tensor[(144, 12, 1, 1), int8], Tensor[(48), int32], Tensor[(160), int32]) {
  %0 = nn.mcuconv2d(%input, %v0_weight, %v0_bias, %v0_zero_x, %v0_zero_y, %v0_scale, strides=[2, 2], padding=[1, 1, 1, 1]) /* from_string */ /* ty=Tensor[(1, 16, 64, 64), int32] */;
  %1 = nn.mcutruncate(%0) /* from_string */ /* ty=Tensor[(1, 16, 64, 64), int8] */;
  %2 = nn.mcuconv2d(%1, %v1_conv_0_weight, %v1_conv_0_bias, %v1_conv_0_zero_x, %v1_conv_0_zero_y, %v1_conv_0_scale, padding=[1, 1, 1, 1], groups=16) /* from_string */ /* ty=Tensor[(1, 16, 64, 64), int32] */;
  %3 = nn.mcutruncate(%2) /* from_string */ /* ty=Tensor[(1, 16, 64, 64), int8] */;
  %4 = nn.mcuconv2d(%3, %v1_conv_1_weight, %v1_conv_1_bias, %v1_conv_1_zero_x, %v1_conv_1_zero_y, %v1_conv_1_scale, padding=[0, 0, 0, 0]) /* from_string */ /* ty=Tensor[(1, 8, 64, 64), int32] */;
  %5 = nn.mcutruncate(%4) /* from_string */ /* ty=Tensor[(1, 8, 64, 64), int8] */;
  %6 = nn.mcuconv2d(%5, %v2_conv_0_weight, %v2_conv_0_bias, %v2_conv_0_zero_x, %v2_conv_0_zero_y, %v2_conv_0_scale, padding=[0, 0, 0, 0]) /* from_string */ /* ty=Tensor[(1, 32, 64, 64), int32] */;
  %7 = nn.mcutruncate(%6) /* from_string */ /* ty=Tensor[(1, 32, 64, 64), int8] */;
  %8 = nn.mcuconv2d(%7, %v2_conv_1_weight, %v2_conv_1_bias, %v2_conv_1_zero_x, %v2_conv_1_zero_y, %v2_conv_1_scale, strides=[2, 2], padding=[1, 1, 1, 1], groups=32) /* from_string */ /* ty=Tensor[(1, 32, 32, 32), int32] */;
  %9 = nn.mcutruncate(%8) /* from_string */ /* ty=Tensor[(1, 32, 32, 32), int8] */;
  %10 = nn.mcuconv2d(%9, %v2_conv_2_weight, %v2_conv_2_bias, %v2_conv_2_zero_x, %v2_conv_2_zero_y, %v2_conv_2_scale, padding=[0, 0, 0, 0]) /* from_string */ /* ty=Tensor[(1, 16, 32, 32), int32] */;
  %11 = nn.mcutruncate(%10) /* from_string */ /* ty=Tensor[(1, 16, 32, 32), int8] */;
  %12 = nn.mcuconv2d(%11, %v3_conv_0_weight, %v3_conv_0_bias, %v3_conv_0_zero_x, %v3_conv_0_zero_y, %v3_conv_0_scale, padding=[0, 0, 0, 0]) /* from_string */ /* ty=Tensor[(1, 48, 32, 32), int32] */;
  %13 = nn.mcutruncate(%12) /* from_string */ /* ty=Tensor[(1, 48, 32, 32), int8] */;
  %14 = nn.mcuconv2d(%13, %v3_conv_1_weight, %v3_conv_1_bias, %v3_conv_1_zero_x, %v3_conv_1_zero_y, %v3_conv_1_scale, padding=[1, 1, 1, 1], groups=48) /* from_string */ /* ty=Tensor[(1, 48, 32, 32), int32] */;
  %15 = nn.mcutruncate(%14) /* from_string */ /* ty=Tensor[(1, 48, 32, 32), int8] */;
  %16 = nn.mcuconv2d(%15, %v3_conv_2_weight, %v3_conv_2_bias, %v3_conv_2_zero_x, %v3_conv_2_zero_y, %v3_conv_2_scale, padding=[0, 0, 0, 0]) /* from_string */ /* ty=Tensor[(1, 16, 32, 32), int32] */;
  %17 = nn.mcutruncate(%16) /* from_string */ /* ty=Tensor[(1, 16, 32, 32), int8] */;
  %18 = nn.mcuadd(%11, %17, %v3_qadd_zero_x1, %v3_qadd_zero_x2, %v3_qadd_scale_x1, %v3_qadd_scale_x2, %v3_qadd_zero_y, %v3_qadd_scale_y, axis=0) /* from_string */ /* ty=Tensor[(1, 16, 32, 32), int8] */;
  %19 = nn.mcutruncate(%18) /* from_string */ /* ty=Tensor[(1, 16, 32, 32), int8] */;
  %20 = nn.mcuconv2d(%19, %v4_conv_0_weight, %v4_conv_0_bias, %v4_conv_0_zero_x, %v4_conv_0_zero_y, %v4_conv_0_scale, padding=[0, 0, 0, 0]) /* from_string */ /* ty=Tensor[(1, 48, 32, 32), int32] */;
  %21 = nn.mcutruncate(%20) /* from_string */ /* ty=Tensor[(1, 48, 32, 32), int8] */;
  %22 = nn.mcuconv2d(%21, %v4_conv_1_weight, %v4_conv_1_bias, %v4_conv_1_zero_x, %v4_conv_1_zero_y, %v4_conv_1_scale, strides=[2, 2], padding=[3, 3, 3, 3], groups=48) /* from_string */ /* ty=Tensor[(1, 48, 16, 16), int32] */;
  %23 = nn.mcutruncate(%22) /* from_string */ /* ty=Tensor[(1, 48, 16, 16), int8] */;
  %24 = nn.mcuconv2d(%23, %v4_conv_2_weight, %v4_conv_2_bias, %v4_conv_2_zero_x, %v4_conv_2_zero_y, %v4_conv_2_scale, padding=[0, 0, 0, 0]) /* from_string */ /* ty=Tensor[(1, 24, 16, 16), int32] */;
  %25 = nn.mcutruncate(%24) /* from_string */ /* ty=Tensor[(1, 24, 16, 16), int8] */;
  %26 = nn.mcuconv2d(%25, %v5_conv_0_weight, %v5_conv_0_bias, %v5_conv_0_zero_x, %v5_conv_0_zero_y, %v5_conv_0_scale, padding=[0, 0, 0, 0]) /* from_string */ /* ty=Tensor[(1, 120, 16, 16), int32] */;
  %27 = nn.mcutruncate(%26) /* from_string */ /* ty=Tensor[(1, 120, 16, 16), int8] */;
  %28 = nn.mcuconv2d(%27, %v5_conv_1_weight, %v5_conv_1_bias, %v5_conv_1_zero_x, %v5_conv_1_zero_y, %v5_conv_1_scale, padding=[1, 1, 1, 1], groups=120) /* from_string */ /* ty=Tensor[(1, 120, 16, 16), int32] */;
  %29 = nn.mcutruncate(%28) /* from_string */ /* ty=Tensor[(1, 120, 16, 16), int8] */;
  %30 = nn.mcuconv2d(%29, %v5_conv_2_weight, %v5_conv_2_bias, %v5_conv_2_zero_x, %v5_conv_2_zero_y, %v5_conv_2_scale, padding=[0, 0, 0, 0]) /* from_string */ /* ty=Tensor[(1, 24, 16, 16), int32] */;
  %31 = nn.mcutruncate(%30) /* from_string */ /* ty=Tensor[(1, 24, 16, 16), int8] */;
  %32 = nn.mcuadd(%25, %31, %v5_qadd_zero_x1, %v5_qadd_zero_x2, %v5_qadd_scale_x1, %v5_qadd_scale_x2, %v5_qadd_zero_y, %v5_qadd_scale_y, axis=0) /* from_string */ /* ty=Tensor[(1, 24, 16, 16), int8] */;
  %33 = nn.mcutruncate(%32) /* from_string */ /* ty=Tensor[(1, 24, 16, 16), int8] */;
  %34 = nn.mcuconv2d(%33, %v6_conv_0_weight, %v6_conv_0_bias, %v6_conv_0_zero_x, %v6_conv_0_zero_y, %v6_conv_0_scale, padding=[0, 0, 0, 0]) /* from_string */ /* ty=Tensor[(1, 120, 16, 16), int32] */;
  %35 = nn.mcutruncate(%34) /* from_string */ /* ty=Tensor[(1, 120, 16, 16), int8] */;
  %36 = nn.mcuconv2d(%35, %v6_conv_1_weight, %v6_conv_1_bias, %v6_conv_1_zero_x, %v6_conv_1_zero_y, %v6_conv_1_scale, strides=[2, 2], padding=[1, 1, 1, 1], groups=120) /* from_string */ /* ty=Tensor[(1, 120, 8, 8), int32] */;
  %37 = nn.mcutruncate(%36) /* from_string */ /* ty=Tensor[(1, 120, 8, 8), int8] */;
  %38 = nn.mcuconv2d(%37, %v6_conv_2_weight, %v6_conv_2_bias, %v6_conv_2_zero_x, %v6_conv_2_zero_y, %v6_conv_2_scale, padding=[0, 0, 0, 0]) /* from_string */ /* ty=Tensor[(1, 40, 8, 8), int32] */;
  %39 = nn.mcutruncate(%38) /* from_string */ /* ty=Tensor[(1, 40, 8, 8), int8] */;
  %40 = nn.mcuconv2d(%39, %v7_conv_0_weight, %v7_conv_0_bias, %v7_conv_0_zero_x, %v7_conv_0_zero_y, %v7_conv_0_scale, padding=[0, 0, 0, 0]) /* from_string */ /* ty=Tensor[(1, 160, 8, 8), int32] */;
  %41 = nn.mcutruncate(%40) /* from_string */ /* ty=Tensor[(1, 160, 8, 8), int8] */;
  %42 = nn.mcuconv2d(%41, %v7_conv_1_weight, %v7_conv_1_bias, %v7_conv_1_zero_x, %v7_conv_1_zero_y, %v7_conv_1_scale, padding=[3, 3, 3, 3], groups=160) /* from_string */ /* ty=Tensor[(1, 160, 8, 8), int32] */;
  %43 = nn.mcutruncate(%42) /* from_string */ /* ty=Tensor[(1, 160, 8, 8), int8] */;
  %44 = nn.mcuconv2d(%43, %v7_conv_2_weight, %v7_conv_2_bias, %v7_conv_2_zero_x, %v7_conv_2_zero_y, %v7_conv_2_scale, padding=[0, 0, 0, 0]) /* from_string */ /* ty=Tensor[(1, 40, 8, 8), int32] */;
  %45 = nn.mcutruncate(%44) /* from_string */ /* ty=Tensor[(1, 40, 8, 8), int8] */;
  %46 = nn.mcuadd(%39, %45, %v7_qadd_zero_x1, %v7_qadd_zero_x2, %v7_qadd_scale_x1, %v7_qadd_scale_x2, %v7_qadd_zero_y, %v7_qadd_scale_y, axis=0) /* from_string */ /* ty=Tensor[(1, 40, 8, 8), int8] */;
  %47 = nn.mcutruncate(%46) /* from_string */ /* ty=Tensor[(1, 40, 8, 8), int8] */;
  %48 = nn.mcuconv2d(%47, %v8_conv_0_weight, %v8_conv_0_bias, %v8_conv_0_zero_x, %v8_conv_0_zero_y, %v8_conv_0_scale, padding=[0, 0, 0, 0]) /* from_string */ /* ty=Tensor[(1, 160, 8, 8), int32] */;
  %49 = nn.mcutruncate(%48) /* from_string */ /* ty=Tensor[(1, 160, 8, 8), int8] */;
  %50 = nn.mcuconv2d(%49, %v8_conv_1_weight, %v8_conv_1_bias, %v8_conv_1_zero_x, %v8_conv_1_zero_y, %v8_conv_1_scale, padding=[2, 2, 2, 2], groups=160) /* from_string */ /* ty=Tensor[(1, 160, 8, 8), int32] */;
  %51 = nn.mcutruncate(%50) /* from_string */ /* ty=Tensor[(1, 160, 8, 8), int8] */;
  %52 = nn.mcuconv2d(%51, %v8_conv_2_weight, %v8_conv_2_bias, %v8_conv_2_zero_x, %v8_conv_2_zero_y, %v8_conv_2_scale, padding=[0, 0, 0, 0]) /* from_string */ /* ty=Tensor[(1, 48, 8, 8), int32] */;
  %53 = nn.mcutruncate(%52) /* from_string */ /* ty=Tensor[(1, 48, 8, 8), int8] */;
  %54 = nn.mcuconv2d(%53, %v9_conv_0_weight, %v9_conv_0_bias, %v9_conv_0_zero_x, %v9_conv_0_zero_y, %v9_conv_0_scale, padding=[0, 0, 0, 0]) /* from_string */ /* ty=Tensor[(1, 144, 8, 8), int32] */;
  %55 = nn.mcutruncate(%54) /* from_string */ /* ty=Tensor[(1, 144, 8, 8), int8] */;
  %56 = nn.mcuconv2d(%55, %v9_conv_1_weight, %v9_conv_1_bias, %v9_conv_1_zero_x, %v9_conv_1_zero_y, %v9_conv_1_scale, padding=[1, 1, 1, 1], groups=144) /* from_string */ /* ty=Tensor[(1, 144, 8, 8), int32] */;
  %57 = nn.mcutruncate(%56) /* from_string */ /* ty=Tensor[(1, 144, 8, 8), int8] */;
  %58 = nn.mcuconv2d(%57, %v9_conv_2_weight, %v9_conv_2_bias, %v9_conv_2_zero_x, %v9_conv_2_zero_y, %v9_conv_2_scale, padding=[0, 0, 0, 0]) /* from_string */ /* ty=Tensor[(1, 48, 8, 8), int32] */;
  %59 = nn.mcutruncate(%58) /* from_string */ /* ty=Tensor[(1, 48, 8, 8), int8] */;
  %60 = nn.mcuadd(%53, %59, %v9_qadd_zero_x1, %v9_qadd_zero_x2, %v9_qadd_scale_x1, %v9_qadd_scale_x2, %v9_qadd_zero_y, %v9_qadd_scale_y, axis=0) /* from_string */ /* ty=Tensor[(1, 48, 8, 8), int8] */;
  %61 = nn.mcutruncate(%60) /* from_string */ /* ty=Tensor[(1, 48, 8, 8), int8] */;
  %62 = nn.mcuconv2d(%61, %v10_conv_0_weight, %v10_conv_0_bias, %v10_conv_0_zero_x, %v10_conv_0_zero_y, %v10_conv_0_scale, padding=[0, 0, 0, 0]) /* from_string */ /* ty=Tensor[(1, 192, 8, 8), int32] */;
  %63 = nn.mcutruncate(%62) /* from_string */ /* ty=Tensor[(1, 192, 8, 8), int8] */;
  %64 = nn.mcuconv2d(%63, %v10_conv_1_weight, %v10_conv_1_bias, %v10_conv_1_zero_x, %v10_conv_1_zero_y, %v10_conv_1_scale, padding=[1, 1, 1, 1], groups=192) /* from_string */ /* ty=Tensor[(1, 192, 8, 8), int32] */;
  %65 = nn.mcutruncate(%64) /* from_string */ /* ty=Tensor[(1, 192, 8, 8), int8] */;
  %66 = nn.mcuconv2d(%65, %v10_conv_2_weight, %v10_conv_2_bias, %v10_conv_2_zero_x, %v10_conv_2_zero_y, %v10_conv_2_scale, padding=[0, 0, 0, 0]) /* from_string */ /* ty=Tensor[(1, 48, 8, 8), int32] */;
  %67 = nn.mcutruncate(%66) /* from_string */ /* ty=Tensor[(1, 48, 8, 8), int8] */;
  %68 = nn.mcuadd(%61, %67, %v10_qadd_zero_x1, %v10_qadd_zero_x2, %v10_qadd_scale_x1, %v10_qadd_scale_x2, %v10_qadd_zero_y, %v10_qadd_scale_y, axis=0) /* from_string */ /* ty=Tensor[(1, 48, 8, 8), int8] */;
  %69 = nn.mcutruncate(%68) /* from_string */ /* ty=Tensor[(1, 48, 8, 8), int8] */;
  %70 = nn.mcuconv2d(%69, %v11_conv_0_weight, %v11_conv_0_bias, %v11_conv_0_zero_x, %v11_conv_0_zero_y, %v11_conv_0_scale, padding=[0, 0, 0, 0]) /* from_string */ /* ty=Tensor[(1, 240, 8, 8), int32] */;
  %71 = nn.mcutruncate(%70) /* from_string */ /* ty=Tensor[(1, 240, 8, 8), int8] */;
  %72 = nn.mcuconv2d(%71, %v11_conv_1_weight, %v11_conv_1_bias, %v11_conv_1_zero_x, %v11_conv_1_zero_y, %v11_conv_1_scale, strides=[2, 2], padding=[3, 3, 3, 3], groups=240) /* from_string */ /* ty=Tensor[(1, 240, 4, 4), int32] */;
  %73 = nn.mcutruncate(%72) /* from_string */ /* ty=Tensor[(1, 240, 4, 4), int8] */;
  %74 = nn.mcuconv2d(%73, %v11_conv_2_weight, %v11_conv_2_bias, %v11_conv_2_zero_x, %v11_conv_2_zero_y, %v11_conv_2_scale, padding=[0, 0, 0, 0]) /* from_string */ /* ty=Tensor[(1, 96, 4, 4), int32] */;
  %75 = nn.mcutruncate(%74) /* from_string */ /* ty=Tensor[(1, 96, 4, 4), int8] */;
  %76 = nn.mcuconv2d(%75, %v12_conv_0_weight, %v12_conv_0_bias, %v12_conv_0_zero_x, %v12_conv_0_zero_y, %v12_conv_0_scale, padding=[0, 0, 0, 0]) /* from_string */ /* ty=Tensor[(1, 384, 4, 4), int32] */;
  %77 = nn.mcutruncate(%76) /* from_string */ /* ty=Tensor[(1, 384, 4, 4), int8] */;
  %78 = nn.mcuconv2d(%77, %v12_conv_1_weight, %v12_conv_1_bias, %v12_conv_1_zero_x, %v12_conv_1_zero_y, %v12_conv_1_scale, padding=[2, 2, 2, 2], groups=384) /* from_string */ /* ty=Tensor[(1, 384, 4, 4), int32] */;
  %79 = nn.mcutruncate(%78) /* from_string */ /* ty=Tensor[(1, 384, 4, 4), int8] */;
  %80 = nn.mcuconv2d(%79, %v12_conv_2_weight, %v12_conv_2_bias, %v12_conv_2_zero_x, %v12_conv_2_zero_y, %v12_conv_2_scale, padding=[0, 0, 0, 0]) /* from_string */ /* ty=Tensor[(1, 96, 4, 4), int32] */;
  %81 = nn.mcutruncate(%80) /* from_string */ /* ty=Tensor[(1, 96, 4, 4), int8] */;
  %82 = nn.mcuadd(%75, %81, %v12_qadd_zero_x1, %v12_qadd_zero_x2, %v12_qadd_scale_x1, %v12_qadd_scale_x2, %v12_qadd_zero_y, %v12_qadd_scale_y, axis=0) /* from_string */ /* ty=Tensor[(1, 96, 4, 4), int8] */;
  %83 = nn.mcutruncate(%82) /* from_string */ /* ty=Tensor[(1, 96, 4, 4), int8] */;
  %84 = nn.mcuconv2d(%83, %v13_conv_0_weight, %v13_conv_0_bias, %v13_conv_0_zero_x, %v13_conv_0_zero_y, %v13_conv_0_scale, padding=[0, 0, 0, 0]) /* from_string */ /* ty=Tensor[(1, 384, 4, 4), int32] */;
  %85 = nn.mcutruncate(%84) /* from_string */ /* ty=Tensor[(1, 384, 4, 4), int8] */;
  %86 = nn.mcuconv2d(%85, %v13_conv_1_weight, %v13_conv_1_bias, %v13_conv_1_zero_x, %v13_conv_1_zero_y, %v13_conv_1_scale, padding=[2, 2, 2, 2], groups=384) /* from_string */ /* ty=Tensor[(1, 384, 4, 4), int32] */;
  %87 = nn.mcutruncate(%86) /* from_string */ /* ty=Tensor[(1, 384, 4, 4), int8] */;
  %88 = nn.mcuconv2d(%87, %v13_conv_2_weight, %v13_conv_2_bias, %v13_conv_2_zero_x, %v13_conv_2_zero_y, %v13_conv_2_scale, padding=[0, 0, 0, 0]) /* from_string */ /* ty=Tensor[(1, 96, 4, 4), int32] */;
  %89 = nn.mcutruncate(%88) /* from_string */ /* ty=Tensor[(1, 96, 4, 4), int8] */;
  %90 = nn.mcuadd(%83, %89, %v13_qadd_zero_x1, %v13_qadd_zero_x2, %v13_qadd_scale_x1, %v13_qadd_scale_x2, %v13_qadd_zero_y, %v13_qadd_scale_y, axis=0) /* from_string */ /* ty=Tensor[(1, 96, 4, 4), int8] */;
  %91 = nn.mcutruncate(%90) /* from_string */ /* ty=Tensor[(1, 96, 4, 4), int8] */;
  %92 = nn.mcuconv2d(%91, %v14_conv_0_weight, %v14_conv_0_bias, %v14_conv_0_zero_x, %v14_conv_0_zero_y, %v14_conv_0_scale, padding=[0, 0, 0, 0]) /* from_string */ /* ty=Tensor[(1, 576, 4, 4), int32] */;
  %93 = nn.mcutruncate(%92) /* from_string */ /* ty=Tensor[(1, 576, 4, 4), int8] */;
  %94 = nn.mcuconv2d(%93, %v14_conv_1_weight, %v14_conv_1_bias, %v14_conv_1_zero_x, %v14_conv_1_zero_y, %v14_conv_1_scale, padding=[1, 1, 1, 1], groups=576) /* from_string */ /* ty=Tensor[(1, 576, 4, 4), int32] */;
  %95 = nn.mcutruncate(%94) /* from_string */ /* ty=Tensor[(1, 576, 4, 4), int8] */;
  %96 = nn.mcuconv2d(%95, %v14_conv_2_weight, %v14_conv_2_bias, %v14_conv_2_zero_x, %v14_conv_2_zero_y, %v14_conv_2_scale, padding=[0, 0, 0, 0]) /* from_string */ /* ty=Tensor[(1, 160, 4, 4), int32] */;
  %97 = nn.mcutruncate(%96) /* from_string */ /* ty=Tensor[(1, 160, 4, 4), int8] */;
  %98 = mcumean(%97, axis=[2, 3], keepdims=True) /* from_string */ /* ty=Tensor[(1, 160, 1, 1), int8] */;
  %99 = nn.mcuconv2d(%98, %v15_weight, %v15_bias, %v15_zero_x, %v15_zero_y, %v15_scale, padding=[0, 0, 0, 0]) /* from_string */ /* ty=Tensor[(1, 5, 1, 1), int32] */;
  %100 = nn.mcutruncate(%99) /* from_string */ /* ty=Tensor[(1, 5, 1, 1), int8] */;
  %101 = reshape(%100, newshape=[0, 0]) /* from_string */ /* ty=Tensor[(1, 5), int8] */;
  %102 = cast(%101, dtype="float32") /* from_string */ /* ty=Tensor[(1, 5), float32] */;
  %103 = nn.log_softmax(%102) /* from_string */ /* ty=Tensor[(1, 5), float32] */;
  %104 = greater_equal(%99, -128 /* ty=int32 */) /* from_string */ /* ty=Tensor[(1, 5, 1, 1), bool] */;
  %105 = less_equal(%99, 127 /* ty=int32 */) /* from_string */ /* ty=Tensor[(1, 5, 1, 1), bool] */;
  %106 = ones(shape=[], dtype="float32") /* from_string */ /* ty=float32 */;
  %107 = negative(%106) /* from_string */ /* ty=float32 */;
  %108 = multiply(%107, %label) /* from_string */ /* ty=Tensor[(1, 5), float32] */;
  %109 = sum(%108, axis=[-1], keepdims=True) /* from_string */ /* ty=Tensor[(1, 1), float32] */;
  %110 = exp(%103) /* from_string */ /* ty=Tensor[(1, 5), float32] */;
  %111 = multiply(%109, %110) /* from_string */ /* ty=Tensor[(1, 5), float32] */;
  %112 = subtract(%108, %111) /* from_string */ /* ty=Tensor[(1, 5), float32] */;
  %113 = multiply(%104, %105) /* from_string */ /* ty=Tensor[(1, 5, 1, 1), bool] */;
  %114 = reshape(%112, newshape=[1, 5, 1, 1]) /* from_string */ /* ty=Tensor[(1, 5, 1, 1), float32] */;
  %115 = zeros(shape=[1, 5, 1, 1], dtype="float32") /* from_string */ /* ty=Tensor[(1, 5, 1, 1), float32] */;
  %116 = where(%113, %114, %115) /* from_string */ /* ty=Tensor[(1, 5, 1, 1), float32] */;
  %117 = cast(%116, dtype="int32") /* from_string */ /* ty=Tensor[(1, 5, 1, 1), int32] */;
  %118 = reshape(%98, newshape=[1, -1, 0, 0]) /* from_string */ /* ty=Tensor[(1, 160, 1, 1), int8] */;
  %119 = tile(%116, reps=[1, 160, 1, 1]) /* from_string */ /* ty=Tensor[(1, 800, 1, 1), float32] */;
  %120 = cast(%118, dtype="float32") /* from_string */ /* ty=Tensor[(1, 160, 1, 1), float32] */;
  %121 = reshape(%119, newshape=[-1, 1, 0, 0]) /* from_string */ /* ty=Tensor[(800, 1, 1, 1), float32] */;
  %122 = nn.conv2d(%120, %121, padding=[0, 0, 0, 0], groups=160, out_dtype="float32") /* from_string */ /* ty=Tensor[(1, 800, 1, 1), float32] */;
  %123 = reshape(%122, newshape=[1, 160, 5, 1, 1]) /* from_string */ /* ty=Tensor[(1, 160, 5, 1, 1), float32] */;
  %124 = sum(%123, axis=[0]) /* from_string */ /* ty=Tensor[(160, 5, 1, 1), float32] */;
  %125 = transpose(%124, axes=[1, 0, 2, 3]) /* from_string */ /* ty=Tensor[(5, 160, 1, 1), float32] */;
  %126 = abs(%125) /* from_string */ /* ty=Tensor[(5, 160, 1, 1), float32] */;
  %127 = max(%126, axis=[1], keepdims=True) /* from_string */ /* ty=Tensor[(5, 1, 1, 1), float32] */;
  %128 = divide(%127, 127f /* ty=float32 */) /* from_string */ /* ty=Tensor[(5, 1, 1, 1), float32] */;
  %129 = divide(%125, %128) /* from_string */ /* ty=Tensor[(5, 160, 1, 1), float32] */;
  %130 = greater_equal(%96, -128 /* ty=int32 */) /* from_string */ /* ty=Tensor[(1, 160, 4, 4), bool] */;
  %131 = less_equal(%96, 127 /* ty=int32 */) /* from_string */ /* ty=Tensor[(1, 160, 4, 4), bool] */;
  %132 = cast(%v15_weight, dtype="float32") /* from_string */ /* ty=Tensor[(5, 160, 1, 1), float32] */;
  %133 = nn.conv2d_transpose(%116, %132, channels=160, kernel_size=[1, 1], padding=[0, 0, 0, 0], kernel_layout="IOHW", out_dtype="float32") /* from_string */ /* ty=Tensor[(1, 160, 1, 1), float32] */;
  %134 = abs(%133) /* from_string */ /* ty=Tensor[(1, 160, 1, 1), float32] */;
  %135 = max(%134, axis=[1], keepdims=True) /* from_string */ /* ty=Tensor[(1, 1, 1, 1), float32] */;
  %136 = divide(%135, 127f /* ty=float32 */) /* from_string */ /* ty=Tensor[(1, 1, 1, 1), float32] */;
  %137 = divide(%133, %136) /* from_string */ /* ty=Tensor[(1, 160, 1, 1), float32] */;
  %138 = cast(%137, dtype="int8") /* from_string */ /* ty=Tensor[(1, 160, 1, 1), int8] */;
  %139 = cast(%138, dtype="float32") /* from_string */ /* ty=Tensor[(1, 160, 1, 1), float32] */;
  %140 = multiply(%139, 0.0625f /* ty=float32 */) /* from_string */ /* ty=Tensor[(1, 160, 1, 1), float32] */;
  %141 = ones(shape=[1, 160, 4, 4], dtype="float32") /* from_string */ /* ty=Tensor[(1, 160, 4, 4), float32] */;
  %142 = multiply(%130, %131) /* from_string */ /* ty=Tensor[(1, 160, 4, 4), bool] */;
  %143 = multiply(%140, %141) /* from_string */ /* ty=Tensor[(1, 160, 4, 4), float32] */;
  %144 = zeros(shape=[1, 160, 4, 4], dtype="float32") /* from_string */ /* ty=Tensor[(1, 160, 4, 4), float32] */;
  %145 = where(%142, %143, %144) /* from_string */ /* ty=Tensor[(1, 160, 4, 4), float32] */;
  %146 = cast(%145, dtype="int32") /* from_string */ /* ty=Tensor[(1, 160, 4, 4), int32] */;
  %147 = greater_equal(%94, -128 /* ty=int32 */) /* from_string */ /* ty=Tensor[(1, 576, 4, 4), bool] */;
  %148 = less_equal(%94, 127 /* ty=int32 */) /* from_string */ /* ty=Tensor[(1, 576, 4, 4), bool] */;
  %149 = cast(%v14_conv_2_weight, dtype="float32") /* from_string */ /* ty=Tensor[(160, 576, 1, 1), float32] */;
  %150 = nn.conv2d_transpose(%145, %149, channels=576, kernel_size=[1, 1], padding=[0, 0, 0, 0], kernel_layout="IOHW", out_dtype="float32") /* from_string */ /* ty=Tensor[(1, 576, 4, 4), float32] */;
  %151 = abs(%150) /* from_string */ /* ty=Tensor[(1, 576, 4, 4), float32] */;
  %152 = max(%151, axis=[1], keepdims=True) /* from_string */ /* ty=Tensor[(1, 1, 4, 4), float32] */;
  %153 = divide(%152, 127f /* ty=float32 */) /* from_string */ /* ty=Tensor[(1, 1, 4, 4), float32] */;
  %154 = divide(%150, %153) /* from_string */ /* ty=Tensor[(1, 576, 4, 4), float32] */;
  %155 = multiply(%147, %148) /* from_string */ /* ty=Tensor[(1, 576, 4, 4), bool] */;
  %156 = cast(%154, dtype="int8") /* from_string */ /* ty=Tensor[(1, 576, 4, 4), int8] */;
  %157 = zeros(shape=[1, 576, 4, 4], dtype="int8") /* from_string */ /* ty=Tensor[(1, 576, 4, 4), int8] */;
  %158 = where(%155, %156, %157) /* from_string */ /* ty=Tensor[(1, 576, 4, 4), int8] */;
  %159 = cast(%158, dtype="int32") /* from_string */ /* ty=Tensor[(1, 576, 4, 4), int32] */;
  %160 = greater_equal(%92, -128 /* ty=int32 */) /* from_string */ /* ty=Tensor[(1, 576, 4, 4), bool] */;
  %161 = less_equal(%92, 127 /* ty=int32 */) /* from_string */ /* ty=Tensor[(1, 576, 4, 4), bool] */;
  %162 = nn.conv2d_transpose(%158, %v14_conv_1_weight, channels=576, kernel_size=[3, 3], padding=[1, 1, 1, 1], groups=576, kernel_layout="IOHW", out_dtype="int32") /* from_string */ /* ty=Tensor[(1, 576, 4, 4), int32] */;
  %163 = abs(%162) /* from_string */ /* ty=Tensor[(1, 576, 4, 4), int32] */;
  %164 = max(%163, axis=[1], keepdims=True) /* from_string */ /* ty=Tensor[(1, 1, 4, 4), int32] */;
  %165 = divide(%164, 127 /* ty=int32 */) /* from_string */ /* ty=Tensor[(1, 1, 4, 4), int32] */;
  %166 = divide(%162, %165) /* from_string */ /* ty=Tensor[(1, 576, 4, 4), int32] */;
  %167 = multiply(%160, %161) /* from_string */ /* ty=Tensor[(1, 576, 4, 4), bool] */;
  %168 = cast(%166, dtype="int8") /* from_string */ /* ty=Tensor[(1, 576, 4, 4), int8] */;
  %169 = zeros(shape=[1, 576, 4, 4], dtype="int8") /* from_string */ /* ty=Tensor[(1, 576, 4, 4), int8] */;
  %170 = where(%167, %168, %169) /* from_string */ /* ty=Tensor[(1, 576, 4, 4), int8] */;
  %171 = cast(%170, dtype="int32") /* from_string */ /* ty=Tensor[(1, 576, 4, 4), int32] */;
  %172 = greater_equal(%88, -128 /* ty=int32 */) /* from_string */ /* ty=Tensor[(1, 96, 4, 4), bool] */;
  %173 = less_equal(%88, 127 /* ty=int32 */) /* from_string */ /* ty=Tensor[(1, 96, 4, 4), bool] */;
  %174 = greater_equal(%90, meta[relay.Constant][0] /* ty=int8 */) /* from_string */ /* ty=Tensor[(1, 96, 4, 4), bool] */;
  %175 = less_equal(%90, meta[relay.Constant][1] /* ty=int8 */) /* from_string */ /* ty=Tensor[(1, 96, 4, 4), bool] */;
  %176 = nn.conv2d_transpose(%170, %v14_conv_0_weight, channels=96, kernel_size=[1, 1], padding=[0, 0, 0, 0], kernel_layout="IOHW", out_dtype="int32") /* from_string */ /* ty=Tensor[(1, 96, 4, 4), int32] */;
  %177 = abs(%176) /* from_string */ /* ty=Tensor[(1, 96, 4, 4), int32] */;
  %178 = max(%177, axis=[1], keepdims=True) /* from_string */ /* ty=Tensor[(1, 1, 4, 4), int32] */;
  %179 = divide(%178, 127 /* ty=int32 */) /* from_string */ /* ty=Tensor[(1, 1, 4, 4), int32] */;
  %180 = divide(%176, %179) /* from_string */ /* ty=Tensor[(1, 96, 4, 4), int32] */;
  %181 = multiply(%174, %175) /* from_string */ /* ty=Tensor[(1, 96, 4, 4), bool] */;
  %182 = cast(%180, dtype="int8") /* from_string */ /* ty=Tensor[(1, 96, 4, 4), int8] */;
  %183 = zeros(shape=[1, 96, 4, 4], dtype="int8") /* from_string */ /* ty=Tensor[(1, 96, 4, 4), int8] */;
  %184 = where(%181, %182, %183) /* from_string */ /* ty=Tensor[(1, 96, 4, 4), int8] */;
  %185 = cast(%184, dtype="float32") /* from_string */ /* ty=Tensor[(1, 96, 4, 4), float32] */;
  %186 = reshape(%v13_qadd_scale_y, newshape=[1, -1, 1, 1]) /* from_string */ /* ty=Tensor[(1, 1, 1, 1), float32] */;
  %187 = divide(%185, %186) /* from_string */ /* ty=Tensor[(1, 96, 4, 4), float32] */;
  %188 = reshape(%v13_qadd_scale_x2, newshape=[1, -1, 1, 1]) /* from_string */ /* ty=Tensor[(1, 1, 1, 1), float32] */;
  %189 = multiply(%187, %188) /* from_string */ /* ty=Tensor[(1, 96, 4, 4), float32] */;
  %190 = multiply(%172, %173) /* from_string */ /* ty=Tensor[(1, 96, 4, 4), bool] */;
  %191 = cast(%189, dtype="int8") /* from_string */ /* ty=Tensor[(1, 96, 4, 4), int8] */;
  %192 = zeros(shape=[1, 96, 4, 4], dtype="int8") /* from_string */ /* ty=Tensor[(1, 96, 4, 4), int8] */;
  %193 = where(%190, %191, %192) /* from_string */ /* ty=Tensor[(1, 96, 4, 4), int8] */;
  %194 = cast(%193, dtype="int32") /* from_string */ /* ty=Tensor[(1, 96, 4, 4), int32] */;
  %195 = greater_equal(%86, -128 /* ty=int32 */) /* from_string */ /* ty=Tensor[(1, 384, 4, 4), bool] */;
  %196 = less_equal(%86, 127 /* ty=int32 */) /* from_string */ /* ty=Tensor[(1, 384, 4, 4), bool] */;
  %197 = nn.conv2d_transpose(%193, %v13_conv_2_weight, channels=384, kernel_size=[1, 1], padding=[0, 0, 0, 0], kernel_layout="IOHW", out_dtype="int32") /* from_string */ /* ty=Tensor[(1, 384, 4, 4), int32] */;
  %198 = abs(%197) /* from_string */ /* ty=Tensor[(1, 384, 4, 4), int32] */;
  %199 = max(%198, axis=[1], keepdims=True) /* from_string */ /* ty=Tensor[(1, 1, 4, 4), int32] */;
  %200 = divide(%199, 127 /* ty=int32 */) /* from_string */ /* ty=Tensor[(1, 1, 4, 4), int32] */;
  %201 = divide(%197, %200) /* from_string */ /* ty=Tensor[(1, 384, 4, 4), int32] */;
  %202 = multiply(%195, %196) /* from_string */ /* ty=Tensor[(1, 384, 4, 4), bool] */;
  %203 = cast(%201, dtype="int8") /* from_string */ /* ty=Tensor[(1, 384, 4, 4), int8] */;
  %204 = zeros(shape=[1, 384, 4, 4], dtype="int8") /* from_string */ /* ty=Tensor[(1, 384, 4, 4), int8] */;
  %205 = where(%202, %203, %204) /* from_string */ /* ty=Tensor[(1, 384, 4, 4), int8] */;
  %206 = cast(%205, dtype="int32") /* from_string */ /* ty=Tensor[(1, 384, 4, 4), int32] */;
  %207 = greater_equal(%84, -128 /* ty=int32 */) /* from_string */ /* ty=Tensor[(1, 384, 4, 4), bool] */;
  %208 = less_equal(%84, 127 /* ty=int32 */) /* from_string */ /* ty=Tensor[(1, 384, 4, 4), bool] */;
  %209 = nn.conv2d_transpose(%205, %v13_conv_1_weight, channels=384, kernel_size=[5, 5], padding=[2, 2, 2, 2], groups=384, kernel_layout="IOHW", out_dtype="int32") /* from_string */ /* ty=Tensor[(1, 384, 4, 4), int32] */;
  %210 = abs(%209) /* from_string */ /* ty=Tensor[(1, 384, 4, 4), int32] */;
  %211 = max(%210, axis=[1], keepdims=True) /* from_string */ /* ty=Tensor[(1, 1, 4, 4), int32] */;
  %212 = divide(%211, 127 /* ty=int32 */) /* from_string */ /* ty=Tensor[(1, 1, 4, 4), int32] */;
  %213 = divide(%209, %212) /* from_string */ /* ty=Tensor[(1, 384, 4, 4), int32] */;
  %214 = multiply(%207, %208) /* from_string */ /* ty=Tensor[(1, 384, 4, 4), bool] */;
  %215 = cast(%213, dtype="int8") /* from_string */ /* ty=Tensor[(1, 384, 4, 4), int8] */;
  %216 = zeros(shape=[1, 384, 4, 4], dtype="int8") /* from_string */ /* ty=Tensor[(1, 384, 4, 4), int8] */;
  %217 = where(%214, %215, %216) /* from_string */ /* ty=Tensor[(1, 384, 4, 4), int8] */;
  %218 = cast(%217, dtype="int32") /* from_string */ /* ty=Tensor[(1, 384, 4, 4), int32] */;
  %219 = greater_equal(%80, -128 /* ty=int32 */) /* from_string */ /* ty=Tensor[(1, 96, 4, 4), bool] */;
  %220 = less_equal(%80, 127 /* ty=int32 */) /* from_string */ /* ty=Tensor[(1, 96, 4, 4), bool] */;
  %221 = greater_equal(%82, meta[relay.Constant][2] /* ty=int8 */) /* from_string */ /* ty=Tensor[(1, 96, 4, 4), bool] */;
  %222 = less_equal(%82, meta[relay.Constant][3] /* ty=int8 */) /* from_string */ /* ty=Tensor[(1, 96, 4, 4), bool] */;
  %223 = nn.conv2d_transpose(%217, %v13_conv_0_weight, channels=96, kernel_size=[1, 1], padding=[0, 0, 0, 0], kernel_layout="IOHW", out_dtype="int32") /* from_string */ /* ty=Tensor[(1, 96, 4, 4), int32] */;
  %224 = abs(%223) /* from_string */ /* ty=Tensor[(1, 96, 4, 4), int32] */;
  %225 = max(%224, axis=[1], keepdims=True) /* from_string */ /* ty=Tensor[(1, 1, 4, 4), int32] */;
  %226 = divide(%225, 127 /* ty=int32 */) /* from_string */ /* ty=Tensor[(1, 1, 4, 4), int32] */;
  %227 = divide(%223, %226) /* from_string */ /* ty=Tensor[(1, 96, 4, 4), int32] */;
  %228 = multiply(%221, %222) /* from_string */ /* ty=Tensor[(1, 96, 4, 4), bool] */;
  %229 = cast(%227, dtype="int8") /* from_string */ /* ty=Tensor[(1, 96, 4, 4), int8] */;
  %230 = zeros(shape=[1, 96, 4, 4], dtype="int8") /* from_string */ /* ty=Tensor[(1, 96, 4, 4), int8] */;
  %231 = where(%228, %229, %230) /* from_string */ /* ty=Tensor[(1, 96, 4, 4), int8] */;
  %232 = cast(%231, dtype="float32") /* from_string */ /* ty=Tensor[(1, 96, 4, 4), float32] */;
  %233 = reshape(%v12_qadd_scale_y, newshape=[1, -1, 1, 1]) /* from_string */ /* ty=Tensor[(1, 1, 1, 1), float32] */;
  %234 = divide(%232, %233) /* from_string */ /* ty=Tensor[(1, 96, 4, 4), float32] */;
  %235 = reshape(%v12_qadd_scale_x2, newshape=[1, -1, 1, 1]) /* from_string */ /* ty=Tensor[(1, 1, 1, 1), float32] */;
  %236 = multiply(%234, %235) /* from_string */ /* ty=Tensor[(1, 96, 4, 4), float32] */;
  %237 = multiply(%219, %220) /* from_string */ /* ty=Tensor[(1, 96, 4, 4), bool] */;
  %238 = cast(%236, dtype="int8") /* from_string */ /* ty=Tensor[(1, 96, 4, 4), int8] */;
  %239 = zeros(shape=[1, 96, 4, 4], dtype="int8") /* from_string */ /* ty=Tensor[(1, 96, 4, 4), int8] */;
  %240 = where(%237, %238, %239) /* from_string */ /* ty=Tensor[(1, 96, 4, 4), int8] */;
  %241 = cast(%240, dtype="int32") /* from_string */ /* ty=Tensor[(1, 96, 4, 4), int32] */;
  %242 = greater_equal(%78, -128 /* ty=int32 */) /* from_string */ /* ty=Tensor[(1, 384, 4, 4), bool] */;
  %243 = less_equal(%78, 127 /* ty=int32 */) /* from_string */ /* ty=Tensor[(1, 384, 4, 4), bool] */;
  %244 = nn.conv2d_transpose(%240, %v12_conv_2_weight, channels=384, kernel_size=[1, 1], padding=[0, 0, 0, 0], kernel_layout="IOHW", out_dtype="int32") /* from_string */ /* ty=Tensor[(1, 384, 4, 4), int32] */;
  %245 = abs(%244) /* from_string */ /* ty=Tensor[(1, 384, 4, 4), int32] */;
  %246 = max(%245, axis=[1], keepdims=True) /* from_string */ /* ty=Tensor[(1, 1, 4, 4), int32] */;
  %247 = divide(%246, 127 /* ty=int32 */) /* from_string */ /* ty=Tensor[(1, 1, 4, 4), int32] */;
  %248 = divide(%244, %247) /* from_string */ /* ty=Tensor[(1, 384, 4, 4), int32] */;
  %249 = multiply(%242, %243) /* from_string */ /* ty=Tensor[(1, 384, 4, 4), bool] */;
  %250 = cast(%248, dtype="int8") /* from_string */ /* ty=Tensor[(1, 384, 4, 4), int8] */;
  %251 = zeros(shape=[1, 384, 4, 4], dtype="int8") /* from_string */ /* ty=Tensor[(1, 384, 4, 4), int8] */;
  %252 = where(%249, %250, %251) /* from_string */ /* ty=Tensor[(1, 384, 4, 4), int8] */;
  %253 = cast(%252, dtype="int32") /* from_string */ /* ty=Tensor[(1, 384, 4, 4), int32] */;
  %254 = greater_equal(%76, -128 /* ty=int32 */) /* from_string */ /* ty=Tensor[(1, 384, 4, 4), bool] */;
  %255 = less_equal(%76, 127 /* ty=int32 */) /* from_string */ /* ty=Tensor[(1, 384, 4, 4), bool] */;
  %256 = nn.conv2d_transpose(%252, %v12_conv_1_weight, channels=384, kernel_size=[5, 5], padding=[2, 2, 2, 2], groups=384, kernel_layout="IOHW", out_dtype="int32") /* from_string */ /* ty=Tensor[(1, 384, 4, 4), int32] */;
  %257 = abs(%256) /* from_string */ /* ty=Tensor[(1, 384, 4, 4), int32] */;
  %258 = max(%257, axis=[1], keepdims=True) /* from_string */ /* ty=Tensor[(1, 1, 4, 4), int32] */;
  %259 = divide(%258, 127 /* ty=int32 */) /* from_string */ /* ty=Tensor[(1, 1, 4, 4), int32] */;
  %260 = divide(%256, %259) /* from_string */ /* ty=Tensor[(1, 384, 4, 4), int32] */;
  %261 = multiply(%254, %255) /* from_string */ /* ty=Tensor[(1, 384, 4, 4), bool] */;
  %262 = cast(%260, dtype="int8") /* from_string */ /* ty=Tensor[(1, 384, 4, 4), int8] */;
  %263 = zeros(shape=[1, 384, 4, 4], dtype="int8") /* from_string */ /* ty=Tensor[(1, 384, 4, 4), int8] */;
  %264 = where(%261, %262, %263) /* from_string */ /* ty=Tensor[(1, 384, 4, 4), int8] */;
  %265 = cast(%264, dtype="int32") /* from_string */ /* ty=Tensor[(1, 384, 4, 4), int32] */;
  %266 = greater_equal(%74, -128 /* ty=int32 */) /* from_string */ /* ty=Tensor[(1, 96, 4, 4), bool] */;
  %267 = less_equal(%74, 127 /* ty=int32 */) /* from_string */ /* ty=Tensor[(1, 96, 4, 4), bool] */;
  %268 = nn.conv2d_transpose(%264, %v12_conv_0_weight, channels=96, kernel_size=[1, 1], padding=[0, 0, 0, 0], kernel_layout="IOHW", out_dtype="int32") /* from_string */ /* ty=Tensor[(1, 96, 4, 4), int32] */;
  %269 = abs(%268) /* from_string */ /* ty=Tensor[(1, 96, 4, 4), int32] */;
  %270 = max(%269, axis=[1], keepdims=True) /* from_string */ /* ty=Tensor[(1, 1, 4, 4), int32] */;
  %271 = divide(%270, 127 /* ty=int32 */) /* from_string */ /* ty=Tensor[(1, 1, 4, 4), int32] */;
  %272 = divide(%268, %271) /* from_string */ /* ty=Tensor[(1, 96, 4, 4), int32] */;
  %273 = multiply(%266, %267) /* from_string */ /* ty=Tensor[(1, 96, 4, 4), bool] */;
  %274 = cast(%272, dtype="int8") /* from_string */ /* ty=Tensor[(1, 96, 4, 4), int8] */;
  %275 = zeros(shape=[1, 96, 4, 4], dtype="int8") /* from_string */ /* ty=Tensor[(1, 96, 4, 4), int8] */;
  %276 = where(%273, %274, %275) /* from_string */ /* ty=Tensor[(1, 96, 4, 4), int8] */;
  %277 = cast(%276, dtype="int32") /* from_string */ /* ty=Tensor[(1, 96, 4, 4), int32] */;
  %278 = greater_equal(%72, -128 /* ty=int32 */) /* from_string */ /* ty=Tensor[(1, 240, 4, 4), bool] */;
  %279 = less_equal(%72, 127 /* ty=int32 */) /* from_string */ /* ty=Tensor[(1, 240, 4, 4), bool] */;
  %280 = nn.conv2d_transpose(%276, %v11_conv_2_weight, channels=240, kernel_size=[1, 1], padding=[0, 0, 0, 0], kernel_layout="IOHW", out_dtype="int32") /* from_string */ /* ty=Tensor[(1, 240, 4, 4), int32] */;
  %281 = abs(%280) /* from_string */ /* ty=Tensor[(1, 240, 4, 4), int32] */;
  %282 = max(%281, axis=[1], keepdims=True) /* from_string */ /* ty=Tensor[(1, 1, 4, 4), int32] */;
  %283 = divide(%282, 127 /* ty=int32 */) /* from_string */ /* ty=Tensor[(1, 1, 4, 4), int32] */;
  %284 = divide(%280, %283) /* from_string */ /* ty=Tensor[(1, 240, 4, 4), int32] */;
  %285 = multiply(%278, %279) /* from_string */ /* ty=Tensor[(1, 240, 4, 4), bool] */;
  %286 = cast(%284, dtype="int8") /* from_string */ /* ty=Tensor[(1, 240, 4, 4), int8] */;
  %287 = zeros(shape=[1, 240, 4, 4], dtype="int8") /* from_string */ /* ty=Tensor[(1, 240, 4, 4), int8] */;
  %288 = where(%285, %286, %287) /* from_string */ /* ty=Tensor[(1, 240, 4, 4), int8] */;
  %289 = cast(%288, dtype="int32") /* from_string */ /* ty=Tensor[(1, 240, 4, 4), int32] */;
  %290 = greater_equal(%70, -128 /* ty=int32 */) /* from_string */ /* ty=Tensor[(1, 240, 8, 8), bool] */;
  %291 = less_equal(%70, 127 /* ty=int32 */) /* from_string */ /* ty=Tensor[(1, 240, 8, 8), bool] */;
  %292 = nn.conv2d_transpose(%288, %v11_conv_1_weight, channels=240, kernel_size=[7, 7], strides=[2, 2], output_padding=[1, 1], padding=[3, 3, 3, 3], groups=240, kernel_layout="IOHW", out_dtype="int32") /* from_string */ /* ty=Tensor[(1, 240, 8, 8), int32] */;
  %293 = abs(%292) /* from_string */ /* ty=Tensor[(1, 240, 8, 8), int32] */;
  %294 = max(%293, axis=[1], keepdims=True) /* from_string */ /* ty=Tensor[(1, 1, 8, 8), int32] */;
  %295 = divide(%294, 127 /* ty=int32 */) /* from_string */ /* ty=Tensor[(1, 1, 8, 8), int32] */;
  %296 = divide(%292, %295) /* from_string */ /* ty=Tensor[(1, 240, 8, 8), int32] */;
  %297 = multiply(%290, %291) /* from_string */ /* ty=Tensor[(1, 240, 8, 8), bool] */;
  %298 = cast(%296, dtype="int8") /* from_string */ /* ty=Tensor[(1, 240, 8, 8), int8] */;
  %299 = zeros(shape=[1, 240, 8, 8], dtype="int8") /* from_string */ /* ty=Tensor[(1, 240, 8, 8), int8] */;
  %300 = where(%297, %298, %299) /* from_string */ /* ty=Tensor[(1, 240, 8, 8), int8] */;
  %301 = cast(%300, dtype="int32") /* from_string */ /* ty=Tensor[(1, 240, 8, 8), int32] */;
  %302 = strided_slice(%69, begin=[0, 0, 0, 0], end=[1, 24, 8, 8], strides=[1], axes=None) /* from_string */ /* ty=Tensor[(1, 24, 8, 8), int8] */;
  %303 = tile(%300, reps=[1, 24, 1, 1]) /* from_string */ /* ty=Tensor[(1, 5760, 8, 8), int8] */;
  %304 = reshape(%302, newshape=[1, -1, 0, 0]) /* from_string */ /* ty=Tensor[(1, 24, 8, 8), int8] */;
  %305 = reshape(%303, newshape=[-1, 1, 0, 0]) /* from_string */ /* ty=Tensor[(5760, 1, 8, 8), int8] */;
  %306 = nn.conv2d(%304, %305, padding=[0, 0, 0, 0], groups=24, out_dtype="int32") /* from_string */ /* ty=Tensor[(1, 5760, 1, 1), int32] */;
  %307 = reshape(%306, newshape=[1, 24, 240, 1, 1]) /* from_string */ /* ty=Tensor[(1, 24, 240, 1, 1), int32] */;
  %308 = sum(%307, axis=[0]) /* from_string */ /* ty=Tensor[(24, 240, 1, 1), int32] */;
  %309 = transpose(%308, axes=[1, 0, 2, 3]) /* from_string */ /* ty=Tensor[(240, 24, 1, 1), int32] */;
  %310 = abs(%309) /* from_string */ /* ty=Tensor[(240, 24, 1, 1), int32] */;
  %311 = max(%310, axis=[1], keepdims=True) /* from_string */ /* ty=Tensor[(240, 1, 1, 1), int32] */;
  %312 = divide(%311, 127 /* ty=int32 */) /* from_string */ /* ty=Tensor[(240, 1, 1, 1), int32] */;
  %313 = divide(%309, %312) /* from_string */ /* ty=Tensor[(240, 24, 1, 1), int32] */;
  %314 = greater_equal(%66, -128 /* ty=int32 */) /* from_string */ /* ty=Tensor[(1, 48, 8, 8), bool] */;
  %315 = less_equal(%66, 127 /* ty=int32 */) /* from_string */ /* ty=Tensor[(1, 48, 8, 8), bool] */;
  %316 = greater_equal(%68, meta[relay.Constant][4] /* ty=int8 */) /* from_string */ /* ty=Tensor[(1, 48, 8, 8), bool] */;
  %317 = less_equal(%68, meta[relay.Constant][5] /* ty=int8 */) /* from_string */ /* ty=Tensor[(1, 48, 8, 8), bool] */;
  %318 = nn.conv2d_transpose(%300, %v11_conv_0_weight, channels=48, kernel_size=[1, 1], padding=[0, 0, 0, 0], kernel_layout="IOHW", out_dtype="int32") /* from_string */ /* ty=Tensor[(1, 48, 8, 8), int32] */;
  %319 = abs(%318) /* from_string */ /* ty=Tensor[(1, 48, 8, 8), int32] */;
  %320 = max(%319, axis=[1], keepdims=True) /* from_string */ /* ty=Tensor[(1, 1, 8, 8), int32] */;
  %321 = divide(%320, 127 /* ty=int32 */) /* from_string */ /* ty=Tensor[(1, 1, 8, 8), int32] */;
  %322 = divide(%318, %321) /* from_string */ /* ty=Tensor[(1, 48, 8, 8), int32] */;
  %323 = multiply(%316, %317) /* from_string */ /* ty=Tensor[(1, 48, 8, 8), bool] */;
  %324 = cast(%322, dtype="int8") /* from_string */ /* ty=Tensor[(1, 48, 8, 8), int8] */;
  %325 = zeros(shape=[1, 48, 8, 8], dtype="int8") /* from_string */ /* ty=Tensor[(1, 48, 8, 8), int8] */;
  %326 = where(%323, %324, %325) /* from_string */ /* ty=Tensor[(1, 48, 8, 8), int8] */;
  %327 = cast(%326, dtype="float32") /* from_string */ /* ty=Tensor[(1, 48, 8, 8), float32] */;
  %328 = reshape(%v10_qadd_scale_y, newshape=[1, -1, 1, 1]) /* from_string */ /* ty=Tensor[(1, 1, 1, 1), float32] */;
  %329 = divide(%327, %328) /* from_string */ /* ty=Tensor[(1, 48, 8, 8), float32] */;
  %330 = reshape(%v10_qadd_scale_x2, newshape=[1, -1, 1, 1]) /* from_string */ /* ty=Tensor[(1, 1, 1, 1), float32] */;
  %331 = multiply(%329, %330) /* from_string */ /* ty=Tensor[(1, 48, 8, 8), float32] */;
  %332 = multiply(%314, %315) /* from_string */ /* ty=Tensor[(1, 48, 8, 8), bool] */;
  %333 = cast(%331, dtype="int8") /* from_string */ /* ty=Tensor[(1, 48, 8, 8), int8] */;
  %334 = zeros(shape=[1, 48, 8, 8], dtype="int8") /* from_string */ /* ty=Tensor[(1, 48, 8, 8), int8] */;
  %335 = where(%332, %333, %334) /* from_string */ /* ty=Tensor[(1, 48, 8, 8), int8] */;
  %336 = cast(%335, dtype="int32") /* from_string */ /* ty=Tensor[(1, 48, 8, 8), int32] */;
  %337 = greater_equal(%64, -128 /* ty=int32 */) /* from_string */ /* ty=Tensor[(1, 192, 8, 8), bool] */;
  %338 = less_equal(%64, 127 /* ty=int32 */) /* from_string */ /* ty=Tensor[(1, 192, 8, 8), bool] */;
  %339 = nn.conv2d_transpose(%335, %v10_conv_2_weight, channels=192, kernel_size=[1, 1], padding=[0, 0, 0, 0], kernel_layout="IOHW", out_dtype="int32") /* from_string */ /* ty=Tensor[(1, 192, 8, 8), int32] */;
  %340 = abs(%339) /* from_string */ /* ty=Tensor[(1, 192, 8, 8), int32] */;
  %341 = max(%340, axis=[1], keepdims=True) /* from_string */ /* ty=Tensor[(1, 1, 8, 8), int32] */;
  %342 = divide(%341, 127 /* ty=int32 */) /* from_string */ /* ty=Tensor[(1, 1, 8, 8), int32] */;
  %343 = divide(%339, %342) /* from_string */ /* ty=Tensor[(1, 192, 8, 8), int32] */;
  %344 = multiply(%337, %338) /* from_string */ /* ty=Tensor[(1, 192, 8, 8), bool] */;
  %345 = cast(%343, dtype="int8") /* from_string */ /* ty=Tensor[(1, 192, 8, 8), int8] */;
  %346 = zeros(shape=[1, 192, 8, 8], dtype="int8") /* from_string */ /* ty=Tensor[(1, 192, 8, 8), int8] */;
  %347 = where(%344, %345, %346) /* from_string */ /* ty=Tensor[(1, 192, 8, 8), int8] */;
  %348 = cast(%347, dtype="int32") /* from_string */ /* ty=Tensor[(1, 192, 8, 8), int32] */;
  %349 = greater_equal(%62, -128 /* ty=int32 */) /* from_string */ /* ty=Tensor[(1, 192, 8, 8), bool] */;
  %350 = less_equal(%62, 127 /* ty=int32 */) /* from_string */ /* ty=Tensor[(1, 192, 8, 8), bool] */;
  %351 = nn.conv2d_transpose(%347, %v10_conv_1_weight, channels=192, kernel_size=[3, 3], padding=[1, 1, 1, 1], groups=192, kernel_layout="IOHW", out_dtype="int32") /* from_string */ /* ty=Tensor[(1, 192, 8, 8), int32] */;
  %352 = abs(%351) /* from_string */ /* ty=Tensor[(1, 192, 8, 8), int32] */;
  %353 = max(%352, axis=[1], keepdims=True) /* from_string */ /* ty=Tensor[(1, 1, 8, 8), int32] */;
  %354 = divide(%353, 127 /* ty=int32 */) /* from_string */ /* ty=Tensor[(1, 1, 8, 8), int32] */;
  %355 = divide(%351, %354) /* from_string */ /* ty=Tensor[(1, 192, 8, 8), int32] */;
  %356 = multiply(%349, %350) /* from_string */ /* ty=Tensor[(1, 192, 8, 8), bool] */;
  %357 = cast(%355, dtype="int8") /* from_string */ /* ty=Tensor[(1, 192, 8, 8), int8] */;
  %358 = zeros(shape=[1, 192, 8, 8], dtype="int8") /* from_string */ /* ty=Tensor[(1, 192, 8, 8), int8] */;
  %359 = where(%356, %357, %358) /* from_string */ /* ty=Tensor[(1, 192, 8, 8), int8] */;
  %360 = cast(%359, dtype="int32") /* from_string */ /* ty=Tensor[(1, 192, 8, 8), int32] */;
  %361 = strided_slice(%61, begin=[0, 0, 0, 0], end=[1, 24, 8, 8], strides=[1], axes=None) /* from_string */ /* ty=Tensor[(1, 24, 8, 8), int8] */;
  %362 = tile(%359, reps=[1, 24, 1, 1]) /* from_string */ /* ty=Tensor[(1, 4608, 8, 8), int8] */;
  %363 = reshape(%361, newshape=[1, -1, 0, 0]) /* from_string */ /* ty=Tensor[(1, 24, 8, 8), int8] */;
  %364 = reshape(%362, newshape=[-1, 1, 0, 0]) /* from_string */ /* ty=Tensor[(4608, 1, 8, 8), int8] */;
  %365 = nn.conv2d(%363, %364, padding=[0, 0, 0, 0], groups=24, out_dtype="int32") /* from_string */ /* ty=Tensor[(1, 4608, 1, 1), int32] */;
  %366 = reshape(%365, newshape=[1, 24, 192, 1, 1]) /* from_string */ /* ty=Tensor[(1, 24, 192, 1, 1), int32] */;
  %367 = sum(%366, axis=[0]) /* from_string */ /* ty=Tensor[(24, 192, 1, 1), int32] */;
  %368 = transpose(%367, axes=[1, 0, 2, 3]) /* from_string */ /* ty=Tensor[(192, 24, 1, 1), int32] */;
  %369 = abs(%368) /* from_string */ /* ty=Tensor[(192, 24, 1, 1), int32] */;
  %370 = max(%369, axis=[1], keepdims=True) /* from_string */ /* ty=Tensor[(192, 1, 1, 1), int32] */;
  %371 = divide(%370, 127 /* ty=int32 */) /* from_string */ /* ty=Tensor[(192, 1, 1, 1), int32] */;
  %372 = divide(%368, %371) /* from_string */ /* ty=Tensor[(192, 24, 1, 1), int32] */;
  %373 = greater_equal(%58, -128 /* ty=int32 */) /* from_string */ /* ty=Tensor[(1, 48, 8, 8), bool] */;
  %374 = less_equal(%58, 127 /* ty=int32 */) /* from_string */ /* ty=Tensor[(1, 48, 8, 8), bool] */;
  %375 = greater_equal(%60, meta[relay.Constant][6] /* ty=int8 */) /* from_string */ /* ty=Tensor[(1, 48, 8, 8), bool] */;
  %376 = less_equal(%60, meta[relay.Constant][7] /* ty=int8 */) /* from_string */ /* ty=Tensor[(1, 48, 8, 8), bool] */;
  %377 = nn.conv2d_transpose(%359, %v10_conv_0_weight, channels=48, kernel_size=[1, 1], padding=[0, 0, 0, 0], kernel_layout="IOHW", out_dtype="int32") /* from_string */ /* ty=Tensor[(1, 48, 8, 8), int32] */;
  %378 = abs(%377) /* from_string */ /* ty=Tensor[(1, 48, 8, 8), int32] */;
  %379 = max(%378, axis=[1], keepdims=True) /* from_string */ /* ty=Tensor[(1, 1, 8, 8), int32] */;
  %380 = divide(%379, 127 /* ty=int32 */) /* from_string */ /* ty=Tensor[(1, 1, 8, 8), int32] */;
  %381 = divide(%377, %380) /* from_string */ /* ty=Tensor[(1, 48, 8, 8), int32] */;
  %382 = multiply(%375, %376) /* from_string */ /* ty=Tensor[(1, 48, 8, 8), bool] */;
  %383 = cast(%381, dtype="int8") /* from_string */ /* ty=Tensor[(1, 48, 8, 8), int8] */;
  %384 = zeros(shape=[1, 48, 8, 8], dtype="int8") /* from_string */ /* ty=Tensor[(1, 48, 8, 8), int8] */;
  %385 = where(%382, %383, %384) /* from_string */ /* ty=Tensor[(1, 48, 8, 8), int8] */;
  %386 = cast(%385, dtype="float32") /* from_string */ /* ty=Tensor[(1, 48, 8, 8), float32] */;
  %387 = reshape(%v9_qadd_scale_y, newshape=[1, -1, 1, 1]) /* from_string */ /* ty=Tensor[(1, 1, 1, 1), float32] */;
  %388 = divide(%386, %387) /* from_string */ /* ty=Tensor[(1, 48, 8, 8), float32] */;
  %389 = reshape(%v9_qadd_scale_x2, newshape=[1, -1, 1, 1]) /* from_string */ /* ty=Tensor[(1, 1, 1, 1), float32] */;
  %390 = multiply(%388, %389) /* from_string */ /* ty=Tensor[(1, 48, 8, 8), float32] */;
  %391 = multiply(%373, %374) /* from_string */ /* ty=Tensor[(1, 48, 8, 8), bool] */;
  %392 = cast(%390, dtype="int8") /* from_string */ /* ty=Tensor[(1, 48, 8, 8), int8] */;
  %393 = zeros(shape=[1, 48, 8, 8], dtype="int8") /* from_string */ /* ty=Tensor[(1, 48, 8, 8), int8] */;
  %394 = where(%391, %392, %393) /* from_string */ /* ty=Tensor[(1, 48, 8, 8), int8] */;
  %395 = cast(%394, dtype="int32") /* from_string */ /* ty=Tensor[(1, 48, 8, 8), int32] */;
  %396 = greater_equal(%56, -128 /* ty=int32 */) /* from_string */ /* ty=Tensor[(1, 144, 8, 8), bool] */;
  %397 = less_equal(%56, 127 /* ty=int32 */) /* from_string */ /* ty=Tensor[(1, 144, 8, 8), bool] */;
  %398 = nn.conv2d_transpose(%394, %v9_conv_2_weight, channels=144, kernel_size=[1, 1], padding=[0, 0, 0, 0], kernel_layout="IOHW", out_dtype="int32") /* from_string */ /* ty=Tensor[(1, 144, 8, 8), int32] */;
  %399 = abs(%398) /* from_string */ /* ty=Tensor[(1, 144, 8, 8), int32] */;
  %400 = max(%399, axis=[1], keepdims=True) /* from_string */ /* ty=Tensor[(1, 1, 8, 8), int32] */;
  %401 = divide(%400, 127 /* ty=int32 */) /* from_string */ /* ty=Tensor[(1, 1, 8, 8), int32] */;
  %402 = divide(%398, %401) /* from_string */ /* ty=Tensor[(1, 144, 8, 8), int32] */;
  %403 = multiply(%396, %397) /* from_string */ /* ty=Tensor[(1, 144, 8, 8), bool] */;
  %404 = cast(%402, dtype="int8") /* from_string */ /* ty=Tensor[(1, 144, 8, 8), int8] */;
  %405 = zeros(shape=[1, 144, 8, 8], dtype="int8") /* from_string */ /* ty=Tensor[(1, 144, 8, 8), int8] */;
  %406 = where(%403, %404, %405) /* from_string */ /* ty=Tensor[(1, 144, 8, 8), int8] */;
  %407 = cast(%406, dtype="int32") /* from_string */ /* ty=Tensor[(1, 144, 8, 8), int32] */;
  %408 = greater_equal(%54, -128 /* ty=int32 */) /* from_string */ /* ty=Tensor[(1, 144, 8, 8), bool] */;
  %409 = less_equal(%54, 127 /* ty=int32 */) /* from_string */ /* ty=Tensor[(1, 144, 8, 8), bool] */;
  %410 = nn.conv2d_transpose(%406, %v9_conv_1_weight, channels=144, kernel_size=[3, 3], padding=[1, 1, 1, 1], groups=144, kernel_layout="IOHW", out_dtype="int32") /* from_string */ /* ty=Tensor[(1, 144, 8, 8), int32] */;
  %411 = abs(%410) /* from_string */ /* ty=Tensor[(1, 144, 8, 8), int32] */;
  %412 = max(%411, axis=[1], keepdims=True) /* from_string */ /* ty=Tensor[(1, 1, 8, 8), int32] */;
  %413 = divide(%412, 127 /* ty=int32 */) /* from_string */ /* ty=Tensor[(1, 1, 8, 8), int32] */;
  %414 = divide(%410, %413) /* from_string */ /* ty=Tensor[(1, 144, 8, 8), int32] */;
  %415 = multiply(%408, %409) /* from_string */ /* ty=Tensor[(1, 144, 8, 8), bool] */;
  %416 = cast(%414, dtype="int8") /* from_string */ /* ty=Tensor[(1, 144, 8, 8), int8] */;
  %417 = zeros(shape=[1, 144, 8, 8], dtype="int8") /* from_string */ /* ty=Tensor[(1, 144, 8, 8), int8] */;
  %418 = where(%415, %416, %417) /* from_string */ /* ty=Tensor[(1, 144, 8, 8), int8] */;
  %419 = cast(%418, dtype="int32") /* from_string */ /* ty=Tensor[(1, 144, 8, 8), int32] */;
  %420 = strided_slice(%53, begin=[0, 0, 0, 0], end=[1, 12, 8, 8], strides=[1], axes=None) /* from_string */ /* ty=Tensor[(1, 12, 8, 8), int8] */;
  %421 = tile(%418, reps=[1, 12, 1, 1]) /* from_string */ /* ty=Tensor[(1, 1728, 8, 8), int8] */;
  %422 = reshape(%420, newshape=[1, -1, 0, 0]) /* from_string */ /* ty=Tensor[(1, 12, 8, 8), int8] */;
  %423 = reshape(%421, newshape=[-1, 1, 0, 0]) /* from_string */ /* ty=Tensor[(1728, 1, 8, 8), int8] */;
  %424 = nn.conv2d(%422, %423, padding=[0, 0, 0, 0], groups=12, out_dtype="int32") /* from_string */ /* ty=Tensor[(1, 1728, 1, 1), int32] */;
  %425 = reshape(%424, newshape=[1, 12, 144, 1, 1]) /* from_string */ /* ty=Tensor[(1, 12, 144, 1, 1), int32] */;
  %426 = sum(%425, axis=[0]) /* from_string */ /* ty=Tensor[(12, 144, 1, 1), int32] */;
  %427 = transpose(%426, axes=[1, 0, 2, 3]) /* from_string */ /* ty=Tensor[(144, 12, 1, 1), int32] */;
  %428 = abs(%427) /* from_string */ /* ty=Tensor[(144, 12, 1, 1), int32] */;
  %429 = max(%428, axis=[1], keepdims=True) /* from_string */ /* ty=Tensor[(144, 1, 1, 1), int32] */;
  %430 = divide(%429, 127 /* ty=int32 */) /* from_string */ /* ty=Tensor[(144, 1, 1, 1), int32] */;
  %431 = divide(%427, %430) /* from_string */ /* ty=Tensor[(144, 12, 1, 1), int32] */;
  %432 = greater_equal(%52, -128 /* ty=int32 */) /* from_string */ /* ty=Tensor[(1, 48, 8, 8), bool] */;
  %433 = less_equal(%52, 127 /* ty=int32 */) /* from_string */ /* ty=Tensor[(1, 48, 8, 8), bool] */;
  %434 = nn.conv2d_transpose(%418, %v9_conv_0_weight, channels=48, kernel_size=[1, 1], padding=[0, 0, 0, 0], kernel_layout="IOHW", out_dtype="int32") /* from_string */ /* ty=Tensor[(1, 48, 8, 8), int32] */;
  %435 = abs(%434) /* from_string */ /* ty=Tensor[(1, 48, 8, 8), int32] */;
  %436 = max(%435, axis=[1], keepdims=True) /* from_string */ /* ty=Tensor[(1, 1, 8, 8), int32] */;
  %437 = divide(%436, 127 /* ty=int32 */) /* from_string */ /* ty=Tensor[(1, 1, 8, 8), int32] */;
  %438 = divide(%434, %437) /* from_string */ /* ty=Tensor[(1, 48, 8, 8), int32] */;
  %439 = multiply(%432, %433) /* from_string */ /* ty=Tensor[(1, 48, 8, 8), bool] */;
  %440 = cast(%438, dtype="int8") /* from_string */ /* ty=Tensor[(1, 48, 8, 8), int8] */;
  %441 = zeros(shape=[1, 48, 8, 8], dtype="int8") /* from_string */ /* ty=Tensor[(1, 48, 8, 8), int8] */;
  %442 = where(%439, %440, %441) /* from_string */ /* ty=Tensor[(1, 48, 8, 8), int8] */;
  %443 = cast(%442, dtype="int32") /* from_string */ /* ty=Tensor[(1, 48, 8, 8), int32] */;
  %444 = greater_equal(%50, -128 /* ty=int32 */) /* from_string */ /* ty=Tensor[(1, 160, 8, 8), bool] */;
  %445 = less_equal(%50, 127 /* ty=int32 */) /* from_string */ /* ty=Tensor[(1, 160, 8, 8), bool] */;
  %446 = nn.conv2d_transpose(%442, %v8_conv_2_weight, channels=160, kernel_size=[1, 1], padding=[0, 0, 0, 0], kernel_layout="IOHW", out_dtype="int32") /* from_string */ /* ty=Tensor[(1, 160, 8, 8), int32] */;
  %447 = abs(%446) /* from_string */ /* ty=Tensor[(1, 160, 8, 8), int32] */;
  %448 = max(%447, axis=[1], keepdims=True) /* from_string */ /* ty=Tensor[(1, 1, 8, 8), int32] */;
  %449 = divide(%448, 127 /* ty=int32 */) /* from_string */ /* ty=Tensor[(1, 1, 8, 8), int32] */;
  %450 = divide(%446, %449) /* from_string */ /* ty=Tensor[(1, 160, 8, 8), int32] */;
  %451 = multiply(%444, %445) /* from_string */ /* ty=Tensor[(1, 160, 8, 8), bool] */;
  %452 = cast(%450, dtype="int8") /* from_string */ /* ty=Tensor[(1, 160, 8, 8), int8] */;
  %453 = zeros(shape=[1, 160, 8, 8], dtype="int8") /* from_string */ /* ty=Tensor[(1, 160, 8, 8), int8] */;
  %454 = where(%451, %452, %453) /* from_string */ /* ty=Tensor[(1, 160, 8, 8), int8] */;
  %455 = cast(%454, dtype="int32") /* from_string */ /* ty=Tensor[(1, 160, 8, 8), int32] */;
  %456 = nn.cross_entropy_with_logits(%103, %label) /* from_string */ /* ty=float32 */;
  %457 = sum(%117, axis=[1], exclude=True) /* from_string */ /* ty=Tensor[(5), int32] */;
  %458 = cast(%129, dtype="int8") /* from_string */ /* ty=Tensor[(5, 160, 1, 1), int8] */;
  %459 = sum(%146, axis=[1], exclude=True) /* from_string */ /* ty=Tensor[(160), int32] */;
  %460 = sum(%159, axis=[1], exclude=True) /* from_string */ /* ty=Tensor[(576), int32] */;
  %461 = sum(%171, axis=[1], exclude=True) /* from_string */ /* ty=Tensor[(576), int32] */;
  %462 = sum(%194, axis=[1], exclude=True) /* from_string */ /* ty=Tensor[(96), int32] */;
  %463 = sum(%206, axis=[1], exclude=True) /* from_string */ /* ty=Tensor[(384), int32] */;
  %464 = sum(%218, axis=[1], exclude=True) /* from_string */ /* ty=Tensor[(384), int32] */;
  %465 = sum(%241, axis=[1], exclude=True) /* from_string */ /* ty=Tensor[(96), int32] */;
  %466 = sum(%253, axis=[1], exclude=True) /* from_string */ /* ty=Tensor[(384), int32] */;
  %467 = sum(%265, axis=[1], exclude=True) /* from_string */ /* ty=Tensor[(384), int32] */;
  %468 = sum(%277, axis=[1], exclude=True) /* from_string */ /* ty=Tensor[(96), int32] */;
  %469 = sum(%289, axis=[1], exclude=True) /* from_string */ /* ty=Tensor[(240), int32] */;
  %470 = sum(%301, axis=[1], exclude=True) /* from_string */ /* ty=Tensor[(240), int32] */;
  %471 = cast(%313, dtype="int8") /* from_string */ /* ty=Tensor[(240, 24, 1, 1), int8] */;
  %472 = sum(%336, axis=[1], exclude=True) /* from_string */ /* ty=Tensor[(48), int32] */;
  %473 = sum(%348, axis=[1], exclude=True) /* from_string */ /* ty=Tensor[(192), int32] */;
  %474 = sum(%360, axis=[1], exclude=True) /* from_string */ /* ty=Tensor[(192), int32] */;
  %475 = cast(%372, dtype="int8") /* from_string */ /* ty=Tensor[(192, 24, 1, 1), int8] */;
  %476 = sum(%395, axis=[1], exclude=True) /* from_string */ /* ty=Tensor[(48), int32] */;
  %477 = sum(%407, axis=[1], exclude=True) /* from_string */ /* ty=Tensor[(144), int32] */;
  %478 = sum(%419, axis=[1], exclude=True) /* from_string */ /* ty=Tensor[(144), int32] */;
  %479 = cast(%431, dtype="int8") /* from_string */ /* ty=Tensor[(144, 12, 1, 1), int8] */;
  %480 = sum(%443, axis=[1], exclude=True) /* from_string */ /* ty=Tensor[(48), int32] */;
  %481 = sum(%455, axis=[1], exclude=True) /* from_string */ /* ty=Tensor[(160), int32] */;
  (%456, %457, %458, %459, %460, %461, %462, %463, %464, %465, %466, %467, %468, %469, %470, %471, %472, %473, %474, %475, %476, %477, %478, %479, %480, %481)
}
