def @main(%input: Tensor[(1, 3, 128, 128), int8], %v0_weight: Tensor[(16, 3, 3, 3), int8], %v0_bias: Tensor[(16), int32], %v0_zero_x: Tensor[(1), int8], %v0_zero_y: Tensor[(1), int8], %v0_scale: Tensor[(16), float32], %v1_conv_0_weight: Tensor[(16, 1, 3, 3), int8], %v1_conv_0_bias: Tensor[(16), int32], %v1_conv_0_zero_x: Tensor[(1), int8], %v1_conv_0_zero_y: Tensor[(1), int8], %v1_conv_0_scale: Tensor[(16), float32], %v1_conv_1_weight: Tensor[(8, 16, 1, 1), int8], %v1_conv_1_bias: Tensor[(8), int32], %v1_conv_1_zero_x: Tensor[(1), int8], %v1_conv_1_zero_y: Tensor[(1), int8], %v1_conv_1_scale: Tensor[(8), float32], %v2_conv_0_weight: Tensor[(24, 8, 1, 1), int8], %v2_conv_0_bias: Tensor[(24), int32], %v2_conv_0_zero_x: Tensor[(1), int8], %v2_conv_0_zero_y: Tensor[(1), int8], %v2_conv_0_scale: Tensor[(24), float32], %v2_conv_1_weight: Tensor[(24, 1, 5, 5), int8], %v2_conv_1_bias: Tensor[(24), int32], %v2_conv_1_zero_x: Tensor[(1), int8], %v2_conv_1_zero_y: Tensor[(1), int8], %v2_conv_1_scale: Tensor[(24), float32], %v2_conv_2_weight: Tensor[(16, 24, 1, 1), int8], %v2_conv_2_bias: Tensor[(16), int32], %v2_conv_2_zero_x: Tensor[(1), int8], %v2_conv_2_zero_y: Tensor[(1), int8], %v2_conv_2_scale: Tensor[(16), float32], %v3_conv_0_weight: Tensor[(48, 16, 1, 1), int8], %v3_conv_0_bias: Tensor[(48), int32], %v3_conv_0_zero_x: Tensor[(1), int8], %v3_conv_0_zero_y: Tensor[(1), int8], %v3_conv_0_scale: Tensor[(48), float32], %v3_conv_1_weight: Tensor[(48, 1, 3, 3), int8], %v3_conv_1_bias: Tensor[(48), int32], %v3_conv_1_zero_x: Tensor[(1), int8], %v3_conv_1_zero_y: Tensor[(1), int8], %v3_conv_1_scale: Tensor[(48), float32], %v3_conv_2_weight: Tensor[(16, 48, 1, 1), int8], %v3_conv_2_bias: Tensor[(16), int32], %v3_conv_2_zero_x: Tensor[(1), int8], %v3_conv_2_zero_y: Tensor[(1), int8], %v3_conv_2_scale: Tensor[(16), float32], %v3_qadd_zero_x1: Tensor[(1), int8], %v3_qadd_zero_x2: Tensor[(1), int8], %v3_qadd_scale_x1: Tensor[(1), float32], %v3_qadd_scale_x2: Tensor[(1), float32], %v3_qadd_zero_y: Tensor[(1), int8], %v3_qadd_scale_y: Tensor[(1), float32], %v4_conv_0_weight: Tensor[(48, 16, 1, 1), int8], %v4_conv_0_bias: Tensor[(48), int32], %v4_conv_0_zero_x: Tensor[(1), int8], %v4_conv_0_zero_y: Tensor[(1), int8], %v4_conv_0_scale: Tensor[(48), float32], %v4_conv_1_weight: Tensor[(48, 1, 7, 7), int8], %v4_conv_1_bias: Tensor[(48), int32], %v4_conv_1_zero_x: Tensor[(1), int8], %v4_conv_1_zero_y: Tensor[(1), int8], %v4_conv_1_scale: Tensor[(48), float32], %v4_conv_2_weight: Tensor[(16, 48, 1, 1), int8], %v4_conv_2_bias: Tensor[(16), int32], %v4_conv_2_zero_x: Tensor[(1), int8], %v4_conv_2_zero_y: Tensor[(1), int8], %v4_conv_2_scale: Tensor[(16), float32], %v5_conv_0_weight: Tensor[(48, 16, 1, 1), int8], %v5_conv_0_bias: Tensor[(48), int32], %v5_conv_0_zero_x: Tensor[(1), int8], %v5_conv_0_zero_y: Tensor[(1), int8], %v5_conv_0_scale: Tensor[(48), float32], %v5_conv_1_weight: Tensor[(48, 1, 3, 3), int8], %v5_conv_1_bias: Tensor[(48), int32], %v5_conv_1_zero_x: Tensor[(1), int8], %v5_conv_1_zero_y: Tensor[(1), int8], %v5_conv_1_scale: Tensor[(48), float32], %v5_conv_2_weight: Tensor[(16, 48, 1, 1), int8], %v5_conv_2_bias: Tensor[(16), int32], %v5_conv_2_zero_x: Tensor[(1), int8], %v5_conv_2_zero_y: Tensor[(1), int8], %v5_conv_2_scale: Tensor[(16), float32], %v5_qadd_zero_x1: Tensor[(1), int8], %v5_qadd_zero_x2: Tensor[(1), int8], %v5_qadd_scale_x1: Tensor[(1), float32], %v5_qadd_scale_x2: Tensor[(1), float32], %v5_qadd_zero_y: Tensor[(1), int8], %v5_qadd_scale_y: Tensor[(1), float32], %v6_conv_0_weight: Tensor[(48, 16, 1, 1), int8], %v6_conv_0_bias: Tensor[(48), int32], %v6_conv_0_zero_x: Tensor[(1), int8], %v6_conv_0_zero_y: Tensor[(1), int8], %v6_conv_0_scale: Tensor[(48), float32], %v6_conv_1_weight: Tensor[(48, 1, 5, 5), int8], %v6_conv_1_bias: Tensor[(48), int32], %v6_conv_1_zero_x: Tensor[(1), int8], %v6_conv_1_zero_y: Tensor[(1), int8], %v6_conv_1_scale: Tensor[(48), float32], %v6_conv_2_weight: Tensor[(16, 48, 1, 1), int8], %v6_conv_2_bias: Tensor[(16), int32], %v6_conv_2_zero_x: Tensor[(1), int8], %v6_conv_2_zero_y: Tensor[(1), int8], %v6_conv_2_scale: Tensor[(16), float32], %v6_qadd_zero_x1: Tensor[(1), int8], %v6_qadd_zero_x2: Tensor[(1), int8], %v6_qadd_scale_x1: Tensor[(1), float32], %v6_qadd_scale_x2: Tensor[(1), float32], %v6_qadd_zero_y: Tensor[(1), int8], %v6_qadd_scale_y: Tensor[(1), float32], %v7_conv_0_weight: Tensor[(48, 16, 1, 1), int8], %v7_conv_0_bias: Tensor[(48), int32], %v7_conv_0_zero_x: Tensor[(1), int8], %v7_conv_0_zero_y: Tensor[(1), int8], %v7_conv_0_scale: Tensor[(48), float32], %v7_conv_1_weight: Tensor[(48, 1, 5, 5), int8], %v7_conv_1_bias: Tensor[(48), int32], %v7_conv_1_zero_x: Tensor[(1), int8], %v7_conv_1_zero_y: Tensor[(1), int8], %v7_conv_1_scale: Tensor[(48), float32], %v7_conv_2_weight: Tensor[(16, 48, 1, 1), int8], %v7_conv_2_bias: Tensor[(16), int32], %v7_conv_2_zero_x: Tensor[(1), int8], %v7_conv_2_zero_y: Tensor[(1), int8], %v7_conv_2_scale: Tensor[(16), float32], %v7_qadd_zero_x1: Tensor[(1), int8], %v7_qadd_zero_x2: Tensor[(1), int8], %v7_qadd_scale_x1: Tensor[(1), float32], %v7_qadd_scale_x2: Tensor[(1), float32], %v7_qadd_zero_y: Tensor[(1), int8], %v7_qadd_scale_y: Tensor[(1), float32], %v8_conv_0_weight: Tensor[(96, 16, 1, 1), int8], %v8_conv_0_bias: Tensor[(96), int32], %v8_conv_0_zero_x: Tensor[(1), int8], %v8_conv_0_zero_y: Tensor[(1), int8], %v8_conv_0_scale: Tensor[(96), float32], %v8_conv_1_weight: Tensor[(96, 1, 7, 7), int8], %v8_conv_1_bias: Tensor[(96), int32], %v8_conv_1_zero_x: Tensor[(1), int8], %v8_conv_1_zero_y: Tensor[(1), int8], %v8_conv_1_scale: Tensor[(96), float32], %v8_conv_2_weight: Tensor[(24, 96, 1, 1), int8], %v8_conv_2_bias: Tensor[(24), int32], %v8_conv_2_zero_x: Tensor[(1), int8], %v8_conv_2_zero_y: Tensor[(1), int8], %v8_conv_2_scale: Tensor[(24), float32], %v9_conv_0_weight: Tensor[(72, 24, 1, 1), int8], %v9_conv_0_bias: Tensor[(72), int32], %v9_conv_0_zero_x: Tensor[(1), int8], %v9_conv_0_zero_y: Tensor[(1), int8], %v9_conv_0_scale: Tensor[(72), float32], %v9_conv_1_weight: Tensor[(72, 1, 5, 5), int8], %v9_conv_1_bias: Tensor[(72), int32], %v9_conv_1_zero_x: Tensor[(1), int8], %v9_conv_1_zero_y: Tensor[(1), int8], %v9_conv_1_scale: Tensor[(72), float32], %v9_conv_2_weight: Tensor[(24, 72, 1, 1), int8], %v9_conv_2_bias: Tensor[(24), int32], %v9_conv_2_zero_x: Tensor[(1), int8], %v9_conv_2_zero_y: Tensor[(1), int8], %v9_conv_2_scale: Tensor[(24), float32], %v9_qadd_zero_x1: Tensor[(1), int8], %v9_qadd_zero_x2: Tensor[(1), int8], %v9_qadd_scale_x1: Tensor[(1), float32], %v9_qadd_scale_x2: Tensor[(1), float32], %v9_qadd_zero_y: Tensor[(1), int8], %v9_qadd_scale_y: Tensor[(1), float32], %v10_conv_0_weight: Tensor[(72, 24, 1, 1), int8], %v10_conv_0_bias: Tensor[(72), int32], %v10_conv_0_zero_x: Tensor[(1), int8], %v10_conv_0_zero_y: Tensor[(1), int8], %v10_conv_0_scale: Tensor[(72), float32], %v10_conv_1_weight: Tensor[(72, 1, 5, 5), int8], %v10_conv_1_bias: Tensor[(72), int32], %v10_conv_1_zero_x: Tensor[(1), int8], %v10_conv_1_zero_y: Tensor[(1), int8], %v10_conv_1_scale: Tensor[(72), float32], %v10_conv_2_weight: Tensor[(24, 72, 1, 1), int8], %v10_conv_2_bias: Tensor[(24), int32], %v10_conv_2_zero_x: Tensor[(1), int8], %v10_conv_2_zero_y: Tensor[(1), int8], %v10_conv_2_scale: Tensor[(24), float32], %v10_qadd_zero_x1: Tensor[(1), int8], %v10_qadd_zero_x2: Tensor[(1), int8], %v10_qadd_scale_x1: Tensor[(1), float32], %v10_qadd_scale_x2: Tensor[(1), float32], %v10_qadd_zero_y: Tensor[(1), int8], %v10_qadd_scale_y: Tensor[(1), float32], %v11_conv_0_weight: Tensor[(72, 24, 1, 1), int8], %v11_conv_0_bias: Tensor[(72), int32], %v11_conv_0_zero_x: Tensor[(1), int8], %v11_conv_0_zero_y: Tensor[(1), int8], %v11_conv_0_scale: Tensor[(72), float32], %v11_conv_1_weight: Tensor[(72, 1, 5, 5), int8], %v11_conv_1_bias: Tensor[(72), int32], %v11_conv_1_zero_x: Tensor[(1), int8], %v11_conv_1_zero_y: Tensor[(1), int8], %v11_conv_1_scale: Tensor[(72), float32], %v11_conv_2_weight: Tensor[(24, 72, 1, 1), int8], %v11_conv_2_bias: Tensor[(24), int32], %v11_conv_2_zero_x: Tensor[(1), int8], %v11_conv_2_zero_y: Tensor[(1), int8], %v11_conv_2_scale: Tensor[(24), float32], %v11_qadd_zero_x1: Tensor[(1), int8], %v11_qadd_zero_x2: Tensor[(1), int8], %v11_qadd_scale_x1: Tensor[(1), float32], %v11_qadd_scale_x2: Tensor[(1), float32], %v11_qadd_zero_y: Tensor[(1), int8], %v11_qadd_scale_y: Tensor[(1), float32], %v12_conv_0_weight: Tensor[(144, 24, 1, 1), int8], %v12_conv_0_bias: Tensor[(144), int32], %v12_conv_0_zero_x: Tensor[(1), int8], %v12_conv_0_zero_y: Tensor[(1), int8], %v12_conv_0_scale: Tensor[(144), float32], %v12_conv_1_weight: Tensor[(144, 1, 5, 5), int8], %v12_conv_1_bias: Tensor[(144), int32], %v12_conv_1_zero_x: Tensor[(1), int8], %v12_conv_1_zero_y: Tensor[(1), int8], %v12_conv_1_scale: Tensor[(144), float32], %v12_conv_2_weight: Tensor[(32, 144, 1, 1), int8], %v12_conv_2_bias: Tensor[(32), int32], %v12_conv_2_zero_x: Tensor[(1), int8], %v12_conv_2_zero_y: Tensor[(1), int8], %v12_conv_2_scale: Tensor[(32), float32], %v13_conv_0_weight: Tensor[(96, 32, 1, 1), int8], %v13_conv_0_bias: Tensor[(96), int32], %v13_conv_0_zero_x: Tensor[(1), int8], %v13_conv_0_zero_y: Tensor[(1), int8], %v13_conv_0_scale: Tensor[(96), float32], %v13_conv_1_weight: Tensor[(96, 1, 5, 5), int8], %v13_conv_1_bias: Tensor[(96), int32], %v13_conv_1_zero_x: Tensor[(1), int8], %v13_conv_1_zero_y: Tensor[(1), int8], %v13_conv_1_scale: Tensor[(96), float32], %v13_conv_2_weight: Tensor[(32, 96, 1, 1), int8], %v13_conv_2_bias: Tensor[(32), int32], %v13_conv_2_zero_x: Tensor[(1), int8], %v13_conv_2_zero_y: Tensor[(1), int8], %v13_conv_2_scale: Tensor[(32), float32], %v13_qadd_zero_x1: Tensor[(1), int8], %v13_qadd_zero_x2: Tensor[(1), int8], %v13_qadd_scale_x1: Tensor[(1), float32], %v13_qadd_scale_x2: Tensor[(1), float32], %v13_qadd_zero_y: Tensor[(1), int8], %v13_qadd_scale_y: Tensor[(1), float32], %v14_conv_0_weight: Tensor[(96, 32, 1, 1), int8], %v14_conv_0_bias: Tensor[(96), int32], %v14_conv_0_zero_x: Tensor[(1), int8], %v14_conv_0_zero_y: Tensor[(1), int8], %v14_conv_0_scale: Tensor[(96), float32], %v14_conv_1_weight: Tensor[(96, 1, 5, 5), int8], %v14_conv_1_bias: Tensor[(96), int32], %v14_conv_1_zero_x: Tensor[(1), int8], %v14_conv_1_zero_y: Tensor[(1), int8], %v14_conv_1_scale: Tensor[(96), float32], %v14_conv_2_weight: Tensor[(32, 96, 1, 1), int8], %v14_conv_2_bias: Tensor[(32), int32], %v14_conv_2_zero_x: Tensor[(1), int8], %v14_conv_2_zero_y: Tensor[(1), int8], %v14_conv_2_scale: Tensor[(32), float32], %v14_qadd_zero_x1: Tensor[(1), int8], %v14_qadd_zero_x2: Tensor[(1), int8], %v14_qadd_scale_x1: Tensor[(1), float32], %v14_qadd_scale_x2: Tensor[(1), float32], %v14_qadd_zero_y: Tensor[(1), int8], %v14_qadd_scale_y: Tensor[(1), float32], %v15_conv_0_weight: Tensor[(96, 32, 1, 1), int8], %v15_conv_0_bias: Tensor[(96), int32], %v15_conv_0_zero_x: Tensor[(1), int8], %v15_conv_0_zero_y: Tensor[(1), int8], %v15_conv_0_scale: Tensor[(96), float32], %v15_conv_1_weight: Tensor[(96, 1, 5, 5), int8], %v15_conv_1_bias: Tensor[(96), int32], %v15_conv_1_zero_x: Tensor[(1), int8], %v15_conv_1_zero_y: Tensor[(1), int8], %v15_conv_1_scale: Tensor[(96), float32], %v15_conv_2_weight: Tensor[(32, 96, 1, 1), int8], %v15_conv_2_bias: Tensor[(32), int32], %v15_conv_2_zero_x: Tensor[(1), int8], %v15_conv_2_zero_y: Tensor[(1), int8], %v15_conv_2_scale: Tensor[(32), float32], %v15_qadd_zero_x1: Tensor[(1), int8], %v15_qadd_zero_x2: Tensor[(1), int8], %v15_qadd_scale_x1: Tensor[(1), float32], %v15_qadd_scale_x2: Tensor[(1), float32], %v15_qadd_zero_y: Tensor[(1), int8], %v15_qadd_scale_y: Tensor[(1), float32], %v16_conv_0_weight: Tensor[(192, 32, 1, 1), int8], %v16_conv_0_bias: Tensor[(192), int32], %v16_conv_0_zero_x: Tensor[(1), int8], %v16_conv_0_zero_y: Tensor[(1), int8], %v16_conv_0_scale: Tensor[(192), float32], %v16_conv_1_weight: Tensor[(192, 1, 7, 7), int8], %v16_conv_1_bias: Tensor[(192), int32], %v16_conv_1_zero_x: Tensor[(1), int8], %v16_conv_1_zero_y: Tensor[(1), int8], %v16_conv_1_scale: Tensor[(192), float32], %v16_conv_2_weight: Tensor[(64, 192, 1, 1), int8], %v16_conv_2_bias: Tensor[(64), int32], %v16_conv_2_zero_x: Tensor[(1), int8], %v16_conv_2_zero_y: Tensor[(1), int8], %v16_conv_2_scale: Tensor[(64), float32], %v17_conv_0_weight: Tensor[(384, 64, 1, 1), int8], %v17_conv_0_bias: Tensor[(384), int32], %v17_conv_0_zero_x: Tensor[(1), int8], %v17_conv_0_zero_y: Tensor[(1), int8], %v17_conv_0_scale: Tensor[(384), float32], %v17_conv_1_weight: Tensor[(384, 1, 7, 7), int8], %v17_conv_1_bias: Tensor[(384), int32], %v17_conv_1_zero_x: Tensor[(1), int8], %v17_conv_1_zero_y: Tensor[(1), int8], %v17_conv_1_scale: Tensor[(384), float32], %v17_conv_2_weight: Tensor[(64, 384, 1, 1), int8], %v17_conv_2_bias: Tensor[(64), int32], %v17_conv_2_zero_x: Tensor[(1), int8], %v17_conv_2_zero_y: Tensor[(1), int8], %v17_conv_2_scale: Tensor[(64), float32], %v17_qadd_zero_x1: Tensor[(1), int8], %v17_qadd_zero_x2: Tensor[(1), int8], %v17_qadd_scale_x1: Tensor[(1), float32], %v17_qadd_scale_x2: Tensor[(1), float32], %v17_qadd_zero_y: Tensor[(1), int8], %v17_qadd_scale_y: Tensor[(1), float32], %v18_conv_0_weight: Tensor[(192, 64, 1, 1), int8], %v18_conv_0_bias: Tensor[(192), int32], %v18_conv_0_zero_x: Tensor[(1), int8], %v18_conv_0_zero_y: Tensor[(1), int8], %v18_conv_0_scale: Tensor[(192), float32], %v18_conv_1_weight: Tensor[(192, 1, 7, 7), int8], %v18_conv_1_bias: Tensor[(192), int32], %v18_conv_1_zero_x: Tensor[(1), int8], %v18_conv_1_zero_y: Tensor[(1), int8], %v18_conv_1_scale: Tensor[(192), float32], %v18_conv_2_weight: Tensor[(64, 192, 1, 1), int8], %v18_conv_2_bias: Tensor[(64), int32], %v18_conv_2_zero_x: Tensor[(1), int8], %v18_conv_2_zero_y: Tensor[(1), int8], %v18_conv_2_scale: Tensor[(64), float32], %v18_qadd_zero_x1: Tensor[(1), int8], %v18_qadd_zero_x2: Tensor[(1), int8], %v18_qadd_scale_x1: Tensor[(1), float32], %v18_qadd_scale_x2: Tensor[(1), float32], %v18_qadd_zero_y: Tensor[(1), int8], %v18_qadd_scale_y: Tensor[(1), float32], %v19_conv_0_weight: Tensor[(192, 64, 1, 1), int8], %v19_conv_0_bias: Tensor[(192), int32], %v19_conv_0_zero_x: Tensor[(1), int8], %v19_conv_0_zero_y: Tensor[(1), int8], %v19_conv_0_scale: Tensor[(192), float32], %v19_conv_1_weight: Tensor[(192, 1, 7, 7), int8], %v19_conv_1_bias: Tensor[(192), int32], %v19_conv_1_zero_x: Tensor[(1), int8], %v19_conv_1_zero_y: Tensor[(1), int8], %v19_conv_1_scale: Tensor[(192), float32], %v19_conv_2_weight: Tensor[(64, 192, 1, 1), int8], %v19_conv_2_bias: Tensor[(64), int32], %v19_conv_2_zero_x: Tensor[(1), int8], %v19_conv_2_zero_y: Tensor[(1), int8], %v19_conv_2_scale: Tensor[(64), float32], %v19_qadd_zero_x1: Tensor[(1), int8], %v19_qadd_zero_x2: Tensor[(1), int8], %v19_qadd_scale_x1: Tensor[(1), float32], %v19_qadd_scale_x2: Tensor[(1), float32], %v19_qadd_zero_y: Tensor[(1), int8], %v19_qadd_scale_y: Tensor[(1), float32], %v20_conv_0_weight: Tensor[(384, 64, 1, 1), int8], %v20_conv_0_bias: Tensor[(384), int32], %v20_conv_0_zero_x: Tensor[(1), int8], %v20_conv_0_zero_y: Tensor[(1), int8], %v20_conv_0_scale: Tensor[(384), float32], %v20_conv_1_weight: Tensor[(384, 1, 7, 7), int8], %v20_conv_1_bias: Tensor[(384), int32], %v20_conv_1_zero_x: Tensor[(1), int8], %v20_conv_1_zero_y: Tensor[(1), int8], %v20_conv_1_scale: Tensor[(384), float32], %v20_conv_2_weight: Tensor[(96, 384, 1, 1), int8], %v20_conv_2_bias: Tensor[(96), int32], %v20_conv_2_zero_x: Tensor[(1), int8], %v20_conv_2_zero_y: Tensor[(1), int8], %v20_conv_2_scale: Tensor[(96), float32], %v21_weight: Tensor[(10, 96, 1, 1), int8], %v21_bias: Tensor[(10), int32], %v21_zero_x: Tensor[(1), int8], %v21_zero_y: Tensor[(1), int8], %v21_scale: Tensor[(10), float32], %label: Tensor[(1, 10), float32]) -> (float32, Tensor[(10), int32], Tensor[(10, 96, 1, 1), int8], Tensor[(96), int32], Tensor[(384), int32], Tensor[(384), int32], Tensor[(384, 64, 1, 1), int8], Tensor[(64), int32], Tensor[(192), int32], Tensor[(192), int32], Tensor[(192, 64, 1, 1), int8], Tensor[(64), int32], Tensor[(192), int32], Tensor[(192), int32], Tensor[(192, 64, 1, 1), int8], Tensor[(64), int32], Tensor[(384), int32], Tensor[(384), int32], Tensor[(384, 32, 1, 1), int8], Tensor[(64), int32], Tensor[(192), int32], Tensor[(192), int32], Tensor[(192, 32, 1, 1), int8], Tensor[(32), int32], Tensor[(96), int32], Tensor[(96), int32], Tensor[(96, 32, 1, 1), int8], Tensor[(32), int32], Tensor[(96), int32], Tensor[(96), int32], Tensor[(96, 32, 1, 1), int8], Tensor[(32), int32], Tensor[(96), int32], Tensor[(96), int32], Tensor[(96, 32, 1, 1), int8], Tensor[(32), int32], Tensor[(144), int32], Tensor[(144), int32], Tensor[(24), int32], Tensor[(72), int32], Tensor[(72), int32], Tensor[(24), int32], Tensor[(72), int32]) {
  %0 = nn.mcuconv2d(%input, %v0_weight, %v0_bias, %v0_zero_x, %v0_zero_y, %v0_scale, strides=[2, 2], padding=[1, 1, 1, 1]) /* ty=Tensor[(1, 16, 64, 64), int32] */;
  %1 = nn.mcutruncate(%0) /* ty=Tensor[(1, 16, 64, 64), int8] */;
  %2 = nn.mcuconv2d(%1, %v1_conv_0_weight, %v1_conv_0_bias, %v1_conv_0_zero_x, %v1_conv_0_zero_y, %v1_conv_0_scale, padding=[1, 1, 1, 1], groups=16) /* ty=Tensor[(1, 16, 64, 64), int32] */;
  %3 = nn.mcutruncate(%2) /* ty=Tensor[(1, 16, 64, 64), int8] */;
  %4 = nn.mcuconv2d(%3, %v1_conv_1_weight, %v1_conv_1_bias, %v1_conv_1_zero_x, %v1_conv_1_zero_y, %v1_conv_1_scale, padding=[0, 0, 0, 0]) /* ty=Tensor[(1, 8, 64, 64), int32] */;
  %5 = nn.mcutruncate(%4) /* ty=Tensor[(1, 8, 64, 64), int8] */;
  %6 = nn.mcuconv2d(%5, %v2_conv_0_weight, %v2_conv_0_bias, %v2_conv_0_zero_x, %v2_conv_0_zero_y, %v2_conv_0_scale, padding=[0, 0, 0, 0]) /* ty=Tensor[(1, 24, 64, 64), int32] */;
  %7 = nn.mcutruncate(%6) /* ty=Tensor[(1, 24, 64, 64), int8] */;
  %8 = nn.mcuconv2d(%7, %v2_conv_1_weight, %v2_conv_1_bias, %v2_conv_1_zero_x, %v2_conv_1_zero_y, %v2_conv_1_scale, strides=[2, 2], padding=[2, 2, 2, 2], groups=24) /* ty=Tensor[(1, 24, 32, 32), int32] */;
  %9 = nn.mcutruncate(%8) /* ty=Tensor[(1, 24, 32, 32), int8] */;
  %10 = nn.mcuconv2d(%9, %v2_conv_2_weight, %v2_conv_2_bias, %v2_conv_2_zero_x, %v2_conv_2_zero_y, %v2_conv_2_scale, padding=[0, 0, 0, 0]) /* ty=Tensor[(1, 16, 32, 32), int32] */;
  %11 = nn.mcutruncate(%10) /* ty=Tensor[(1, 16, 32, 32), int8] */;
  %12 = nn.mcuconv2d(%11, %v3_conv_0_weight, %v3_conv_0_bias, %v3_conv_0_zero_x, %v3_conv_0_zero_y, %v3_conv_0_scale, padding=[0, 0, 0, 0]) /* ty=Tensor[(1, 48, 32, 32), int32] */;
  %13 = nn.mcutruncate(%12) /* ty=Tensor[(1, 48, 32, 32), int8] */;
  %14 = nn.mcuconv2d(%13, %v3_conv_1_weight, %v3_conv_1_bias, %v3_conv_1_zero_x, %v3_conv_1_zero_y, %v3_conv_1_scale, padding=[1, 1, 1, 1], groups=48) /* ty=Tensor[(1, 48, 32, 32), int32] */;
  %15 = nn.mcutruncate(%14) /* ty=Tensor[(1, 48, 32, 32), int8] */;
  %16 = nn.mcuconv2d(%15, %v3_conv_2_weight, %v3_conv_2_bias, %v3_conv_2_zero_x, %v3_conv_2_zero_y, %v3_conv_2_scale, padding=[0, 0, 0, 0]) /* ty=Tensor[(1, 16, 32, 32), int32] */;
  %17 = nn.mcutruncate(%16) /* ty=Tensor[(1, 16, 32, 32), int8] */;
  %18 = nn.mcuadd(%11, %17, %v3_qadd_zero_x1, %v3_qadd_zero_x2, %v3_qadd_scale_x1, %v3_qadd_scale_x2, %v3_qadd_zero_y, %v3_qadd_scale_y, axis=0) /* ty=Tensor[(1, 16, 32, 32), int8] */;
  %19 = nn.mcutruncate(%18) /* ty=Tensor[(1, 16, 32, 32), int8] */;
  %20 = nn.mcuconv2d(%19, %v4_conv_0_weight, %v4_conv_0_bias, %v4_conv_0_zero_x, %v4_conv_0_zero_y, %v4_conv_0_scale, padding=[0, 0, 0, 0]) /* ty=Tensor[(1, 48, 32, 32), int32] */;
  %21 = nn.mcutruncate(%20) /* ty=Tensor[(1, 48, 32, 32), int8] */;
  %22 = nn.mcuconv2d(%21, %v4_conv_1_weight, %v4_conv_1_bias, %v4_conv_1_zero_x, %v4_conv_1_zero_y, %v4_conv_1_scale, strides=[2, 2], padding=[3, 3, 3, 3], groups=48) /* ty=Tensor[(1, 48, 16, 16), int32] */;
  %23 = nn.mcutruncate(%22) /* ty=Tensor[(1, 48, 16, 16), int8] */;
  %24 = nn.mcuconv2d(%23, %v4_conv_2_weight, %v4_conv_2_bias, %v4_conv_2_zero_x, %v4_conv_2_zero_y, %v4_conv_2_scale, padding=[0, 0, 0, 0]) /* ty=Tensor[(1, 16, 16, 16), int32] */;
  %25 = nn.mcutruncate(%24) /* ty=Tensor[(1, 16, 16, 16), int8] */;
  %26 = nn.mcuconv2d(%25, %v5_conv_0_weight, %v5_conv_0_bias, %v5_conv_0_zero_x, %v5_conv_0_zero_y, %v5_conv_0_scale, padding=[0, 0, 0, 0]) /* ty=Tensor[(1, 48, 16, 16), int32] */;
  %27 = nn.mcutruncate(%26) /* ty=Tensor[(1, 48, 16, 16), int8] */;
  %28 = nn.mcuconv2d(%27, %v5_conv_1_weight, %v5_conv_1_bias, %v5_conv_1_zero_x, %v5_conv_1_zero_y, %v5_conv_1_scale, padding=[1, 1, 1, 1], groups=48) /* ty=Tensor[(1, 48, 16, 16), int32] */;
  %29 = nn.mcutruncate(%28) /* ty=Tensor[(1, 48, 16, 16), int8] */;
  %30 = nn.mcuconv2d(%29, %v5_conv_2_weight, %v5_conv_2_bias, %v5_conv_2_zero_x, %v5_conv_2_zero_y, %v5_conv_2_scale, padding=[0, 0, 0, 0]) /* ty=Tensor[(1, 16, 16, 16), int32] */;
  %31 = nn.mcutruncate(%30) /* ty=Tensor[(1, 16, 16, 16), int8] */;
  %32 = nn.mcuadd(%25, %31, %v5_qadd_zero_x1, %v5_qadd_zero_x2, %v5_qadd_scale_x1, %v5_qadd_scale_x2, %v5_qadd_zero_y, %v5_qadd_scale_y, axis=0) /* ty=Tensor[(1, 16, 16, 16), int8] */;
  %33 = nn.mcutruncate(%32) /* ty=Tensor[(1, 16, 16, 16), int8] */;
  %34 = nn.mcuconv2d(%33, %v6_conv_0_weight, %v6_conv_0_bias, %v6_conv_0_zero_x, %v6_conv_0_zero_y, %v6_conv_0_scale, padding=[0, 0, 0, 0]) /* ty=Tensor[(1, 48, 16, 16), int32] */;
  %35 = nn.mcutruncate(%34) /* ty=Tensor[(1, 48, 16, 16), int8] */;
  %36 = nn.mcuconv2d(%35, %v6_conv_1_weight, %v6_conv_1_bias, %v6_conv_1_zero_x, %v6_conv_1_zero_y, %v6_conv_1_scale, padding=[2, 2, 2, 2], groups=48) /* ty=Tensor[(1, 48, 16, 16), int32] */;
  %37 = nn.mcutruncate(%36) /* ty=Tensor[(1, 48, 16, 16), int8] */;
  %38 = nn.mcuconv2d(%37, %v6_conv_2_weight, %v6_conv_2_bias, %v6_conv_2_zero_x, %v6_conv_2_zero_y, %v6_conv_2_scale, padding=[0, 0, 0, 0]) /* ty=Tensor[(1, 16, 16, 16), int32] */;
  %39 = nn.mcutruncate(%38) /* ty=Tensor[(1, 16, 16, 16), int8] */;
  %40 = nn.mcuadd(%33, %39, %v6_qadd_zero_x1, %v6_qadd_zero_x2, %v6_qadd_scale_x1, %v6_qadd_scale_x2, %v6_qadd_zero_y, %v6_qadd_scale_y, axis=0) /* ty=Tensor[(1, 16, 16, 16), int8] */;
  %41 = nn.mcutruncate(%40) /* ty=Tensor[(1, 16, 16, 16), int8] */;
  %42 = nn.mcuconv2d(%41, %v7_conv_0_weight, %v7_conv_0_bias, %v7_conv_0_zero_x, %v7_conv_0_zero_y, %v7_conv_0_scale, padding=[0, 0, 0, 0]) /* ty=Tensor[(1, 48, 16, 16), int32] */;
  %43 = nn.mcutruncate(%42) /* ty=Tensor[(1, 48, 16, 16), int8] */;
  %44 = nn.mcuconv2d(%43, %v7_conv_1_weight, %v7_conv_1_bias, %v7_conv_1_zero_x, %v7_conv_1_zero_y, %v7_conv_1_scale, padding=[2, 2, 2, 2], groups=48) /* ty=Tensor[(1, 48, 16, 16), int32] */;
  %45 = nn.mcutruncate(%44) /* ty=Tensor[(1, 48, 16, 16), int8] */;
  %46 = nn.mcuconv2d(%45, %v7_conv_2_weight, %v7_conv_2_bias, %v7_conv_2_zero_x, %v7_conv_2_zero_y, %v7_conv_2_scale, padding=[0, 0, 0, 0]) /* ty=Tensor[(1, 16, 16, 16), int32] */;
  %47 = nn.mcutruncate(%46) /* ty=Tensor[(1, 16, 16, 16), int8] */;
  %48 = nn.mcuadd(%41, %47, %v7_qadd_zero_x1, %v7_qadd_zero_x2, %v7_qadd_scale_x1, %v7_qadd_scale_x2, %v7_qadd_zero_y, %v7_qadd_scale_y, axis=0) /* ty=Tensor[(1, 16, 16, 16), int8] */;
  %49 = nn.mcutruncate(%48) /* ty=Tensor[(1, 16, 16, 16), int8] */;
  %50 = nn.mcuconv2d(%49, %v8_conv_0_weight, %v8_conv_0_bias, %v8_conv_0_zero_x, %v8_conv_0_zero_y, %v8_conv_0_scale, padding=[0, 0, 0, 0]) /* ty=Tensor[(1, 96, 16, 16), int32] */;
  %51 = nn.mcutruncate(%50) /* ty=Tensor[(1, 96, 16, 16), int8] */;
  %52 = nn.mcuconv2d(%51, %v8_conv_1_weight, %v8_conv_1_bias, %v8_conv_1_zero_x, %v8_conv_1_zero_y, %v8_conv_1_scale, strides=[2, 2], padding=[3, 3, 3, 3], groups=96) /* ty=Tensor[(1, 96, 8, 8), int32] */;
  %53 = nn.mcutruncate(%52) /* ty=Tensor[(1, 96, 8, 8), int8] */;
  %54 = nn.mcuconv2d(%53, %v8_conv_2_weight, %v8_conv_2_bias, %v8_conv_2_zero_x, %v8_conv_2_zero_y, %v8_conv_2_scale, padding=[0, 0, 0, 0]) /* ty=Tensor[(1, 24, 8, 8), int32] */;
  %55 = nn.mcutruncate(%54) /* ty=Tensor[(1, 24, 8, 8), int8] */;
  %56 = nn.mcuconv2d(%55, %v9_conv_0_weight, %v9_conv_0_bias, %v9_conv_0_zero_x, %v9_conv_0_zero_y, %v9_conv_0_scale, padding=[0, 0, 0, 0]) /* ty=Tensor[(1, 72, 8, 8), int32] */;
  %57 = nn.mcutruncate(%56) /* ty=Tensor[(1, 72, 8, 8), int8] */;
  %58 = nn.mcuconv2d(%57, %v9_conv_1_weight, %v9_conv_1_bias, %v9_conv_1_zero_x, %v9_conv_1_zero_y, %v9_conv_1_scale, padding=[2, 2, 2, 2], groups=72) /* ty=Tensor[(1, 72, 8, 8), int32] */;
  %59 = nn.mcutruncate(%58) /* ty=Tensor[(1, 72, 8, 8), int8] */;
  %60 = nn.mcuconv2d(%59, %v9_conv_2_weight, %v9_conv_2_bias, %v9_conv_2_zero_x, %v9_conv_2_zero_y, %v9_conv_2_scale, padding=[0, 0, 0, 0]) /* ty=Tensor[(1, 24, 8, 8), int32] */;
  %61 = nn.mcutruncate(%60) /* ty=Tensor[(1, 24, 8, 8), int8] */;
  %62 = nn.mcuadd(%55, %61, %v9_qadd_zero_x1, %v9_qadd_zero_x2, %v9_qadd_scale_x1, %v9_qadd_scale_x2, %v9_qadd_zero_y, %v9_qadd_scale_y, axis=0) /* ty=Tensor[(1, 24, 8, 8), int8] */;
  %63 = nn.mcutruncate(%62) /* ty=Tensor[(1, 24, 8, 8), int8] */;
  %64 = nn.mcuconv2d(%63, %v10_conv_0_weight, %v10_conv_0_bias, %v10_conv_0_zero_x, %v10_conv_0_zero_y, %v10_conv_0_scale, padding=[0, 0, 0, 0]) /* ty=Tensor[(1, 72, 8, 8), int32] */;
  %65 = nn.mcutruncate(%64) /* ty=Tensor[(1, 72, 8, 8), int8] */;
  %66 = nn.mcuconv2d(%65, %v10_conv_1_weight, %v10_conv_1_bias, %v10_conv_1_zero_x, %v10_conv_1_zero_y, %v10_conv_1_scale, padding=[2, 2, 2, 2], groups=72) /* ty=Tensor[(1, 72, 8, 8), int32] */;
  %67 = nn.mcutruncate(%66) /* ty=Tensor[(1, 72, 8, 8), int8] */;
  %68 = nn.mcuconv2d(%67, %v10_conv_2_weight, %v10_conv_2_bias, %v10_conv_2_zero_x, %v10_conv_2_zero_y, %v10_conv_2_scale, padding=[0, 0, 0, 0]) /* ty=Tensor[(1, 24, 8, 8), int32] */;
  %69 = nn.mcutruncate(%68) /* ty=Tensor[(1, 24, 8, 8), int8] */;
  %70 = nn.mcuadd(%63, %69, %v10_qadd_zero_x1, %v10_qadd_zero_x2, %v10_qadd_scale_x1, %v10_qadd_scale_x2, %v10_qadd_zero_y, %v10_qadd_scale_y, axis=0) /* ty=Tensor[(1, 24, 8, 8), int8] */;
  %71 = nn.mcutruncate(%70) /* ty=Tensor[(1, 24, 8, 8), int8] */;
  %72 = nn.mcuconv2d(%71, %v11_conv_0_weight, %v11_conv_0_bias, %v11_conv_0_zero_x, %v11_conv_0_zero_y, %v11_conv_0_scale, padding=[0, 0, 0, 0]) /* ty=Tensor[(1, 72, 8, 8), int32] */;
  %73 = nn.mcutruncate(%72) /* ty=Tensor[(1, 72, 8, 8), int8] */;
  %74 = nn.mcuconv2d(%73, %v11_conv_1_weight, %v11_conv_1_bias, %v11_conv_1_zero_x, %v11_conv_1_zero_y, %v11_conv_1_scale, padding=[2, 2, 2, 2], groups=72) /* ty=Tensor[(1, 72, 8, 8), int32] */;
  %75 = nn.mcutruncate(%74) /* ty=Tensor[(1, 72, 8, 8), int8] */;
  %76 = nn.mcuconv2d(%75, %v11_conv_2_weight, %v11_conv_2_bias, %v11_conv_2_zero_x, %v11_conv_2_zero_y, %v11_conv_2_scale, padding=[0, 0, 0, 0]) /* ty=Tensor[(1, 24, 8, 8), int32] */;
  %77 = nn.mcutruncate(%76) /* ty=Tensor[(1, 24, 8, 8), int8] */;
  %78 = nn.mcuadd(%71, %77, %v11_qadd_zero_x1, %v11_qadd_zero_x2, %v11_qadd_scale_x1, %v11_qadd_scale_x2, %v11_qadd_zero_y, %v11_qadd_scale_y, axis=0) /* ty=Tensor[(1, 24, 8, 8), int8] */;
  %79 = nn.mcutruncate(%78) /* ty=Tensor[(1, 24, 8, 8), int8] */;
  %80 = nn.mcuconv2d(%79, %v12_conv_0_weight, %v12_conv_0_bias, %v12_conv_0_zero_x, %v12_conv_0_zero_y, %v12_conv_0_scale, padding=[0, 0, 0, 0]) /* ty=Tensor[(1, 144, 8, 8), int32] */;
  %81 = nn.mcutruncate(%80) /* ty=Tensor[(1, 144, 8, 8), int8] */;
  %82 = nn.mcuconv2d(%81, %v12_conv_1_weight, %v12_conv_1_bias, %v12_conv_1_zero_x, %v12_conv_1_zero_y, %v12_conv_1_scale, padding=[2, 2, 2, 2], groups=144) /* ty=Tensor[(1, 144, 8, 8), int32] */;
  %83 = nn.mcutruncate(%82) /* ty=Tensor[(1, 144, 8, 8), int8] */;
  %84 = nn.mcuconv2d(%83, %v12_conv_2_weight, %v12_conv_2_bias, %v12_conv_2_zero_x, %v12_conv_2_zero_y, %v12_conv_2_scale, padding=[0, 0, 0, 0]) /* ty=Tensor[(1, 32, 8, 8), int32] */;
  %85 = nn.mcutruncate(%84) /* ty=Tensor[(1, 32, 8, 8), int8] */;
  %86 = nn.mcuconv2d(%85, %v13_conv_0_weight, %v13_conv_0_bias, %v13_conv_0_zero_x, %v13_conv_0_zero_y, %v13_conv_0_scale, padding=[0, 0, 0, 0]) /* ty=Tensor[(1, 96, 8, 8), int32] */;
  %87 = nn.mcutruncate(%86) /* ty=Tensor[(1, 96, 8, 8), int8] */;
  %88 = nn.mcuconv2d(%87, %v13_conv_1_weight, %v13_conv_1_bias, %v13_conv_1_zero_x, %v13_conv_1_zero_y, %v13_conv_1_scale, padding=[2, 2, 2, 2], groups=96) /* ty=Tensor[(1, 96, 8, 8), int32] */;
  %89 = nn.mcutruncate(%88) /* ty=Tensor[(1, 96, 8, 8), int8] */;
  %90 = nn.mcuconv2d(%89, %v13_conv_2_weight, %v13_conv_2_bias, %v13_conv_2_zero_x, %v13_conv_2_zero_y, %v13_conv_2_scale, padding=[0, 0, 0, 0]) /* ty=Tensor[(1, 32, 8, 8), int32] */;
  %91 = nn.mcutruncate(%90) /* ty=Tensor[(1, 32, 8, 8), int8] */;
  %92 = nn.mcuadd(%85, %91, %v13_qadd_zero_x1, %v13_qadd_zero_x2, %v13_qadd_scale_x1, %v13_qadd_scale_x2, %v13_qadd_zero_y, %v13_qadd_scale_y, axis=0) /* ty=Tensor[(1, 32, 8, 8), int8] */;
  %93 = nn.mcutruncate(%92) /* ty=Tensor[(1, 32, 8, 8), int8] */;
  %94 = nn.mcuconv2d(%93, %v14_conv_0_weight, %v14_conv_0_bias, %v14_conv_0_zero_x, %v14_conv_0_zero_y, %v14_conv_0_scale, padding=[0, 0, 0, 0]) /* ty=Tensor[(1, 96, 8, 8), int32] */;
  %95 = nn.mcutruncate(%94) /* ty=Tensor[(1, 96, 8, 8), int8] */;
  %96 = nn.mcuconv2d(%95, %v14_conv_1_weight, %v14_conv_1_bias, %v14_conv_1_zero_x, %v14_conv_1_zero_y, %v14_conv_1_scale, padding=[2, 2, 2, 2], groups=96) /* ty=Tensor[(1, 96, 8, 8), int32] */;
  %97 = nn.mcutruncate(%96) /* ty=Tensor[(1, 96, 8, 8), int8] */;
  %98 = nn.mcuconv2d(%97, %v14_conv_2_weight, %v14_conv_2_bias, %v14_conv_2_zero_x, %v14_conv_2_zero_y, %v14_conv_2_scale, padding=[0, 0, 0, 0]) /* ty=Tensor[(1, 32, 8, 8), int32] */;
  %99 = nn.mcutruncate(%98) /* ty=Tensor[(1, 32, 8, 8), int8] */;
  %100 = nn.mcuadd(%93, %99, %v14_qadd_zero_x1, %v14_qadd_zero_x2, %v14_qadd_scale_x1, %v14_qadd_scale_x2, %v14_qadd_zero_y, %v14_qadd_scale_y, axis=0) /* ty=Tensor[(1, 32, 8, 8), int8] */;
  %101 = nn.mcutruncate(%100) /* ty=Tensor[(1, 32, 8, 8), int8] */;
  %102 = nn.mcuconv2d(%101, %v15_conv_0_weight, %v15_conv_0_bias, %v15_conv_0_zero_x, %v15_conv_0_zero_y, %v15_conv_0_scale, padding=[0, 0, 0, 0]) /* ty=Tensor[(1, 96, 8, 8), int32] */;
  %103 = nn.mcutruncate(%102) /* ty=Tensor[(1, 96, 8, 8), int8] */;
  %104 = nn.mcuconv2d(%103, %v15_conv_1_weight, %v15_conv_1_bias, %v15_conv_1_zero_x, %v15_conv_1_zero_y, %v15_conv_1_scale, padding=[2, 2, 2, 2], groups=96) /* ty=Tensor[(1, 96, 8, 8), int32] */;
  %105 = nn.mcutruncate(%104) /* ty=Tensor[(1, 96, 8, 8), int8] */;
  %106 = nn.mcuconv2d(%105, %v15_conv_2_weight, %v15_conv_2_bias, %v15_conv_2_zero_x, %v15_conv_2_zero_y, %v15_conv_2_scale, padding=[0, 0, 0, 0]) /* ty=Tensor[(1, 32, 8, 8), int32] */;
  %107 = nn.mcutruncate(%106) /* ty=Tensor[(1, 32, 8, 8), int8] */;
  %108 = nn.mcuadd(%101, %107, %v15_qadd_zero_x1, %v15_qadd_zero_x2, %v15_qadd_scale_x1, %v15_qadd_scale_x2, %v15_qadd_zero_y, %v15_qadd_scale_y, axis=0) /* ty=Tensor[(1, 32, 8, 8), int8] */;
  %109 = nn.mcutruncate(%108) /* ty=Tensor[(1, 32, 8, 8), int8] */;
  %110 = nn.mcuconv2d(%109, %v16_conv_0_weight, %v16_conv_0_bias, %v16_conv_0_zero_x, %v16_conv_0_zero_y, %v16_conv_0_scale, padding=[0, 0, 0, 0]) /* ty=Tensor[(1, 192, 8, 8), int32] */;
  %111 = nn.mcutruncate(%110) /* ty=Tensor[(1, 192, 8, 8), int8] */;
  %112 = nn.mcuconv2d(%111, %v16_conv_1_weight, %v16_conv_1_bias, %v16_conv_1_zero_x, %v16_conv_1_zero_y, %v16_conv_1_scale, strides=[2, 2], padding=[3, 3, 3, 3], groups=192) /* ty=Tensor[(1, 192, 4, 4), int32] */;
  %113 = nn.mcutruncate(%112) /* ty=Tensor[(1, 192, 4, 4), int8] */;
  %114 = nn.mcuconv2d(%113, %v16_conv_2_weight, %v16_conv_2_bias, %v16_conv_2_zero_x, %v16_conv_2_zero_y, %v16_conv_2_scale, padding=[0, 0, 0, 0]) /* ty=Tensor[(1, 64, 4, 4), int32] */;
  %115 = nn.mcutruncate(%114) /* ty=Tensor[(1, 64, 4, 4), int8] */;
  %116 = nn.mcuconv2d(%115, %v17_conv_0_weight, %v17_conv_0_bias, %v17_conv_0_zero_x, %v17_conv_0_zero_y, %v17_conv_0_scale, padding=[0, 0, 0, 0]) /* ty=Tensor[(1, 384, 4, 4), int32] */;
  %117 = nn.mcutruncate(%116) /* ty=Tensor[(1, 384, 4, 4), int8] */;
  %118 = nn.mcuconv2d(%117, %v17_conv_1_weight, %v17_conv_1_bias, %v17_conv_1_zero_x, %v17_conv_1_zero_y, %v17_conv_1_scale, padding=[3, 3, 3, 3], groups=384) /* ty=Tensor[(1, 384, 4, 4), int32] */;
  %119 = nn.mcutruncate(%118) /* ty=Tensor[(1, 384, 4, 4), int8] */;
  %120 = nn.mcuconv2d(%119, %v17_conv_2_weight, %v17_conv_2_bias, %v17_conv_2_zero_x, %v17_conv_2_zero_y, %v17_conv_2_scale, padding=[0, 0, 0, 0]) /* ty=Tensor[(1, 64, 4, 4), int32] */;
  %121 = nn.mcutruncate(%120) /* ty=Tensor[(1, 64, 4, 4), int8] */;
  %122 = nn.mcuadd(%115, %121, %v17_qadd_zero_x1, %v17_qadd_zero_x2, %v17_qadd_scale_x1, %v17_qadd_scale_x2, %v17_qadd_zero_y, %v17_qadd_scale_y, axis=0) /* ty=Tensor[(1, 64, 4, 4), int8] */;
  %123 = nn.mcutruncate(%122) /* ty=Tensor[(1, 64, 4, 4), int8] */;
  %124 = nn.mcuconv2d(%123, %v18_conv_0_weight, %v18_conv_0_bias, %v18_conv_0_zero_x, %v18_conv_0_zero_y, %v18_conv_0_scale, padding=[0, 0, 0, 0]) /* ty=Tensor[(1, 192, 4, 4), int32] */;
  %125 = nn.mcutruncate(%124) /* ty=Tensor[(1, 192, 4, 4), int8] */;
  %126 = nn.mcuconv2d(%125, %v18_conv_1_weight, %v18_conv_1_bias, %v18_conv_1_zero_x, %v18_conv_1_zero_y, %v18_conv_1_scale, padding=[3, 3, 3, 3], groups=192) /* ty=Tensor[(1, 192, 4, 4), int32] */;
  %127 = nn.mcutruncate(%126) /* ty=Tensor[(1, 192, 4, 4), int8] */;
  %128 = nn.mcuconv2d(%127, %v18_conv_2_weight, %v18_conv_2_bias, %v18_conv_2_zero_x, %v18_conv_2_zero_y, %v18_conv_2_scale, padding=[0, 0, 0, 0]) /* ty=Tensor[(1, 64, 4, 4), int32] */;
  %129 = nn.mcutruncate(%128) /* ty=Tensor[(1, 64, 4, 4), int8] */;
  %130 = nn.mcuadd(%123, %129, %v18_qadd_zero_x1, %v18_qadd_zero_x2, %v18_qadd_scale_x1, %v18_qadd_scale_x2, %v18_qadd_zero_y, %v18_qadd_scale_y, axis=0) /* ty=Tensor[(1, 64, 4, 4), int8] */;
  %131 = nn.mcutruncate(%130) /* ty=Tensor[(1, 64, 4, 4), int8] */;
  %132 = nn.mcuconv2d(%131, %v19_conv_0_weight, %v19_conv_0_bias, %v19_conv_0_zero_x, %v19_conv_0_zero_y, %v19_conv_0_scale, padding=[0, 0, 0, 0]) /* ty=Tensor[(1, 192, 4, 4), int32] */;
  %133 = nn.mcutruncate(%132) /* ty=Tensor[(1, 192, 4, 4), int8] */;
  %134 = nn.mcuconv2d(%133, %v19_conv_1_weight, %v19_conv_1_bias, %v19_conv_1_zero_x, %v19_conv_1_zero_y, %v19_conv_1_scale, padding=[3, 3, 3, 3], groups=192) /* ty=Tensor[(1, 192, 4, 4), int32] */;
  %135 = nn.mcutruncate(%134) /* ty=Tensor[(1, 192, 4, 4), int8] */;
  %136 = nn.mcuconv2d(%135, %v19_conv_2_weight, %v19_conv_2_bias, %v19_conv_2_zero_x, %v19_conv_2_zero_y, %v19_conv_2_scale, padding=[0, 0, 0, 0]) /* ty=Tensor[(1, 64, 4, 4), int32] */;
  %137 = nn.mcutruncate(%136) /* ty=Tensor[(1, 64, 4, 4), int8] */;
  %138 = nn.mcuadd(%131, %137, %v19_qadd_zero_x1, %v19_qadd_zero_x2, %v19_qadd_scale_x1, %v19_qadd_scale_x2, %v19_qadd_zero_y, %v19_qadd_scale_y, axis=0) /* ty=Tensor[(1, 64, 4, 4), int8] */;
  %139 = nn.mcutruncate(%138) /* ty=Tensor[(1, 64, 4, 4), int8] */;
  %140 = nn.mcuconv2d(%139, %v20_conv_0_weight, %v20_conv_0_bias, %v20_conv_0_zero_x, %v20_conv_0_zero_y, %v20_conv_0_scale, padding=[0, 0, 0, 0]) /* ty=Tensor[(1, 384, 4, 4), int32] */;
  %141 = nn.mcutruncate(%140) /* ty=Tensor[(1, 384, 4, 4), int8] */;
  %142 = nn.mcuconv2d(%141, %v20_conv_1_weight, %v20_conv_1_bias, %v20_conv_1_zero_x, %v20_conv_1_zero_y, %v20_conv_1_scale, padding=[3, 3, 3, 3], groups=384) /* ty=Tensor[(1, 384, 4, 4), int32] */;
  %143 = nn.mcutruncate(%142) /* ty=Tensor[(1, 384, 4, 4), int8] */;
  %144 = nn.mcuconv2d(%143, %v20_conv_2_weight, %v20_conv_2_bias, %v20_conv_2_zero_x, %v20_conv_2_zero_y, %v20_conv_2_scale, padding=[0, 0, 0, 0]) /* ty=Tensor[(1, 96, 4, 4), int32] */;
  %145 = nn.mcutruncate(%144) /* ty=Tensor[(1, 96, 4, 4), int8] */;
  %146 = mcumean(%145, axis=[2, 3], keepdims=True) /* ty=Tensor[(1, 96, 1, 1), int8] */;
  %147 = nn.mcuconv2d(%146, %v21_weight, %v21_bias, %v21_zero_x, %v21_zero_y, %v21_scale, padding=[0, 0, 0, 0]) /* ty=Tensor[(1, 10, 1, 1), int32] */;
  %148 = nn.mcutruncate(%147) /* ty=Tensor[(1, 10, 1, 1), int8] */;
  %149 = reshape(%148, newshape=[0, 0]) /* ty=Tensor[(1, 10), int8] */;
  %150 = cast(%149, dtype="float32") /* ty=Tensor[(1, 10), float32] */;
  %151 = nn.log_softmax(%150) /* ty=Tensor[(1, 10), float32] */;
  %152 = greater_equal(%147, -128 /* ty=int32 */) /* ty=Tensor[(1, 10, 1, 1), bool] */;
  %153 = less_equal(%147, 127 /* ty=int32 */) /* ty=Tensor[(1, 10, 1, 1), bool] */;
  %154 = ones(shape=[], dtype="float32") /* ty=float32 */;
  %155 = negative(%154) /* ty=float32 */;
  %156 = multiply(%155, %label) /* ty=Tensor[(1, 10), float32] */;
  %157 = sum(%156, axis=[-1], keepdims=True) /* ty=Tensor[(1, 1), float32] */;
  %158 = exp(%151) /* ty=Tensor[(1, 10), float32] */;
  %159 = multiply(%157, %158) /* ty=Tensor[(1, 10), float32] */;
  %160 = subtract(%156, %159) /* ty=Tensor[(1, 10), float32] */;
  %161 = multiply(%152, %153) /* ty=Tensor[(1, 10, 1, 1), bool] */;
  %162 = reshape(%160, newshape=[1, 10, 1, 1]) /* ty=Tensor[(1, 10, 1, 1), float32] */;
  %163 = zeros(shape=[1, 10, 1, 1], dtype="float32") /* ty=Tensor[(1, 10, 1, 1), float32] */;
  %164 = where(%161, %162, %163) /* ty=Tensor[(1, 10, 1, 1), float32] */;
  %165 = cast(%164, dtype="int32") /* ty=Tensor[(1, 10, 1, 1), int32] */;
  %166 = reshape(%146, newshape=[1, -1, 0, 0]) /* ty=Tensor[(1, 96, 1, 1), int8] */;
  %167 = tile(%164, reps=[1, 96, 1, 1]) /* ty=Tensor[(1, 960, 1, 1), float32] */;
  %168 = cast(%166, dtype="float32") /* ty=Tensor[(1, 96, 1, 1), float32] */;
  %169 = reshape(%167, newshape=[-1, 1, 0, 0]) /* ty=Tensor[(960, 1, 1, 1), float32] */;
  %170 = nn.conv2d(%168, %169, padding=[0, 0, 0, 0], groups=96, out_dtype="float32") /* ty=Tensor[(1, 960, 1, 1), float32] */;
  %171 = reshape(%170, newshape=[1, 96, 10, 1, 1]) /* ty=Tensor[(1, 96, 10, 1, 1), float32] */;
  %172 = sum(%171, axis=[0]) /* ty=Tensor[(96, 10, 1, 1), float32] */;
  %173 = transpose(%172, axes=[1, 0, 2, 3]) /* ty=Tensor[(10, 96, 1, 1), float32] */;
  %174 = abs(%173) /* ty=Tensor[(10, 96, 1, 1), float32] */;
  %175 = max(%174, axis=[1], keepdims=True) /* ty=Tensor[(10, 1, 1, 1), float32] */;
  %176 = divide(%175, 127f /* ty=float32 */) /* ty=Tensor[(10, 1, 1, 1), float32] */;
  %177 = divide(%173, %176) /* ty=Tensor[(10, 96, 1, 1), float32] */;
  %178 = greater_equal(%144, -128 /* ty=int32 */) /* ty=Tensor[(1, 96, 4, 4), bool] */;
  %179 = less_equal(%144, 127 /* ty=int32 */) /* ty=Tensor[(1, 96, 4, 4), bool] */;
  %180 = cast(%v21_weight, dtype="float32") /* ty=Tensor[(10, 96, 1, 1), float32] */;
  %181 = nn.conv2d_transpose(%164, %180, channels=96, kernel_size=[1, 1], padding=[0, 0, 0, 0], kernel_layout="IOHW", out_dtype="float32") /* ty=Tensor[(1, 96, 1, 1), float32] */;
  %182 = abs(%181) /* ty=Tensor[(1, 96, 1, 1), float32] */;
  %183 = max(%182, axis=[1], keepdims=True) /* ty=Tensor[(1, 1, 1, 1), float32] */;
  %184 = divide(%183, 127f /* ty=float32 */) /* ty=Tensor[(1, 1, 1, 1), float32] */;
  %185 = divide(%181, %184) /* ty=Tensor[(1, 96, 1, 1), float32] */;
  %186 = cast(%185, dtype="int8") /* ty=Tensor[(1, 96, 1, 1), int8] */;
  %187 = cast(%186, dtype="float32") /* ty=Tensor[(1, 96, 1, 1), float32] */;
  %188 = multiply(%187, 0.0625f /* ty=float32 */) /* ty=Tensor[(1, 96, 1, 1), float32] */;
  %189 = ones(shape=[1, 96, 4, 4], dtype="float32") /* ty=Tensor[(1, 96, 4, 4), float32] */;
  %190 = multiply(%178, %179) /* ty=Tensor[(1, 96, 4, 4), bool] */;
  %191 = multiply(%188, %189) /* ty=Tensor[(1, 96, 4, 4), float32] */;
  %192 = zeros(shape=[1, 96, 4, 4], dtype="float32") /* ty=Tensor[(1, 96, 4, 4), float32] */;
  %193 = where(%190, %191, %192) /* ty=Tensor[(1, 96, 4, 4), float32] */;
  %194 = cast(%193, dtype="int32") /* ty=Tensor[(1, 96, 4, 4), int32] */;
  %195 = greater_equal(%142, -128 /* ty=int32 */) /* ty=Tensor[(1, 384, 4, 4), bool] */;
  %196 = less_equal(%142, 127 /* ty=int32 */) /* ty=Tensor[(1, 384, 4, 4), bool] */;
  %197 = cast(%v20_conv_2_weight, dtype="float32") /* ty=Tensor[(96, 384, 1, 1), float32] */;
  %198 = nn.conv2d_transpose(%193, %197, channels=384, kernel_size=[1, 1], padding=[0, 0, 0, 0], kernel_layout="IOHW", out_dtype="float32") /* ty=Tensor[(1, 384, 4, 4), float32] */;
  %199 = abs(%198) /* ty=Tensor[(1, 384, 4, 4), float32] */;
  %200 = max(%199, axis=[1], keepdims=True) /* ty=Tensor[(1, 1, 4, 4), float32] */;
  %201 = divide(%200, 127f /* ty=float32 */) /* ty=Tensor[(1, 1, 4, 4), float32] */;
  %202 = divide(%198, %201) /* ty=Tensor[(1, 384, 4, 4), float32] */;
  %203 = multiply(%195, %196) /* ty=Tensor[(1, 384, 4, 4), bool] */;
  %204 = cast(%202, dtype="int8") /* ty=Tensor[(1, 384, 4, 4), int8] */;
  %205 = zeros(shape=[1, 384, 4, 4], dtype="int8") /* ty=Tensor[(1, 384, 4, 4), int8] */;
  %206 = where(%203, %204, %205) /* ty=Tensor[(1, 384, 4, 4), int8] */;
  %207 = cast(%206, dtype="int32") /* ty=Tensor[(1, 384, 4, 4), int32] */;
  %208 = greater_equal(%140, -128 /* ty=int32 */) /* ty=Tensor[(1, 384, 4, 4), bool] */;
  %209 = less_equal(%140, 127 /* ty=int32 */) /* ty=Tensor[(1, 384, 4, 4), bool] */;
  %210 = nn.conv2d_transpose(%206, %v20_conv_1_weight, channels=384, kernel_size=[7, 7], padding=[3, 3, 3, 3], groups=384, kernel_layout="IOHW", out_dtype="int32") /* ty=Tensor[(1, 384, 4, 4), int32] */;
  %211 = abs(%210) /* ty=Tensor[(1, 384, 4, 4), int32] */;
  %212 = max(%211, axis=[1], keepdims=True) /* ty=Tensor[(1, 1, 4, 4), int32] */;
  %213 = divide(%212, 127 /* ty=int32 */) /* ty=Tensor[(1, 1, 4, 4), int32] */;
  %214 = divide(%210, %213) /* ty=Tensor[(1, 384, 4, 4), int32] */;
  %215 = multiply(%208, %209) /* ty=Tensor[(1, 384, 4, 4), bool] */;
  %216 = cast(%214, dtype="int8") /* ty=Tensor[(1, 384, 4, 4), int8] */;
  %217 = zeros(shape=[1, 384, 4, 4], dtype="int8") /* ty=Tensor[(1, 384, 4, 4), int8] */;
  %218 = where(%215, %216, %217) /* ty=Tensor[(1, 384, 4, 4), int8] */;
  %219 = cast(%218, dtype="int32") /* ty=Tensor[(1, 384, 4, 4), int32] */;
  %220 = tile(%218, reps=[1, 64, 1, 1]) /* ty=Tensor[(1, 24576, 4, 4), int8] */;
  %221 = reshape(%139, newshape=[1, -1, 0, 0]) /* ty=Tensor[(1, 64, 4, 4), int8] */;
  %222 = reshape(%220, newshape=[-1, 1, 0, 0]) /* ty=Tensor[(24576, 1, 4, 4), int8] */;
  %223 = nn.conv2d(%221, %222, padding=[0, 0, 0, 0], groups=64, out_dtype="int32") /* ty=Tensor[(1, 24576, 1, 1), int32] */;
  %224 = reshape(%223, newshape=[1, 64, 384, 1, 1]) /* ty=Tensor[(1, 64, 384, 1, 1), int32] */;
  %225 = sum(%224, axis=[0]) /* ty=Tensor[(64, 384, 1, 1), int32] */;
  %226 = transpose(%225, axes=[1, 0, 2, 3]) /* ty=Tensor[(384, 64, 1, 1), int32] */;
  %227 = abs(%226) /* ty=Tensor[(384, 64, 1, 1), int32] */;
  %228 = max(%227, axis=[1], keepdims=True) /* ty=Tensor[(384, 1, 1, 1), int32] */;
  %229 = divide(%228, 127 /* ty=int32 */) /* ty=Tensor[(384, 1, 1, 1), int32] */;
  %230 = divide(%226, %229) /* ty=Tensor[(384, 64, 1, 1), int32] */;
  %231 = greater_equal(%136, -128 /* ty=int32 */) /* ty=Tensor[(1, 64, 4, 4), bool] */;
  %232 = less_equal(%136, 127 /* ty=int32 */) /* ty=Tensor[(1, 64, 4, 4), bool] */;
  %233 = greater_equal(%138, meta[relay.Constant][0] /* ty=int8 */) /* ty=Tensor[(1, 64, 4, 4), bool] */;
  %234 = less_equal(%138, meta[relay.Constant][1] /* ty=int8 */) /* ty=Tensor[(1, 64, 4, 4), bool] */;
  %235 = nn.conv2d_transpose(%218, %v20_conv_0_weight, channels=64, kernel_size=[1, 1], padding=[0, 0, 0, 0], kernel_layout="IOHW", out_dtype="int32") /* ty=Tensor[(1, 64, 4, 4), int32] */;
  %236 = abs(%235) /* ty=Tensor[(1, 64, 4, 4), int32] */;
  %237 = max(%236, axis=[1], keepdims=True) /* ty=Tensor[(1, 1, 4, 4), int32] */;
  %238 = divide(%237, 127 /* ty=int32 */) /* ty=Tensor[(1, 1, 4, 4), int32] */;
  %239 = divide(%235, %238) /* ty=Tensor[(1, 64, 4, 4), int32] */;
  %240 = multiply(%233, %234) /* ty=Tensor[(1, 64, 4, 4), bool] */;
  %241 = cast(%239, dtype="int8") /* ty=Tensor[(1, 64, 4, 4), int8] */;
  %242 = zeros(shape=[1, 64, 4, 4], dtype="int8") /* ty=Tensor[(1, 64, 4, 4), int8] */;
  %243 = where(%240, %241, %242) /* ty=Tensor[(1, 64, 4, 4), int8] */;
  %244 = cast(%243, dtype="float32") /* ty=Tensor[(1, 64, 4, 4), float32] */;
  %245 = reshape(%v19_qadd_scale_y, newshape=[1, -1, 1, 1]) /* ty=Tensor[(1, 1, 1, 1), float32] */;
  %246 = divide(%244, %245) /* ty=Tensor[(1, 64, 4, 4), float32] */;
  %247 = reshape(%v19_qadd_scale_x2, newshape=[1, -1, 1, 1]) /* ty=Tensor[(1, 1, 1, 1), float32] */;
  %248 = multiply(%246, %247) /* ty=Tensor[(1, 64, 4, 4), float32] */;
  %249 = multiply(%231, %232) /* ty=Tensor[(1, 64, 4, 4), bool] */;
  %250 = cast(%248, dtype="int8") /* ty=Tensor[(1, 64, 4, 4), int8] */;
  %251 = zeros(shape=[1, 64, 4, 4], dtype="int8") /* ty=Tensor[(1, 64, 4, 4), int8] */;
  %252 = where(%249, %250, %251) /* ty=Tensor[(1, 64, 4, 4), int8] */;
  %253 = cast(%252, dtype="int32") /* ty=Tensor[(1, 64, 4, 4), int32] */;
  %254 = greater_equal(%134, -128 /* ty=int32 */) /* ty=Tensor[(1, 192, 4, 4), bool] */;
  %255 = less_equal(%134, 127 /* ty=int32 */) /* ty=Tensor[(1, 192, 4, 4), bool] */;
  %256 = nn.conv2d_transpose(%252, %v19_conv_2_weight, channels=192, kernel_size=[1, 1], padding=[0, 0, 0, 0], kernel_layout="IOHW", out_dtype="int32") /* ty=Tensor[(1, 192, 4, 4), int32] */;
  %257 = abs(%256) /* ty=Tensor[(1, 192, 4, 4), int32] */;
  %258 = max(%257, axis=[1], keepdims=True) /* ty=Tensor[(1, 1, 4, 4), int32] */;
  %259 = divide(%258, 127 /* ty=int32 */) /* ty=Tensor[(1, 1, 4, 4), int32] */;
  %260 = divide(%256, %259) /* ty=Tensor[(1, 192, 4, 4), int32] */;
  %261 = multiply(%254, %255) /* ty=Tensor[(1, 192, 4, 4), bool] */;
  %262 = cast(%260, dtype="int8") /* ty=Tensor[(1, 192, 4, 4), int8] */;
  %263 = zeros(shape=[1, 192, 4, 4], dtype="int8") /* ty=Tensor[(1, 192, 4, 4), int8] */;
  %264 = where(%261, %262, %263) /* ty=Tensor[(1, 192, 4, 4), int8] */;
  %265 = cast(%264, dtype="int32") /* ty=Tensor[(1, 192, 4, 4), int32] */;
  %266 = greater_equal(%132, -128 /* ty=int32 */) /* ty=Tensor[(1, 192, 4, 4), bool] */;
  %267 = less_equal(%132, 127 /* ty=int32 */) /* ty=Tensor[(1, 192, 4, 4), bool] */;
  %268 = nn.conv2d_transpose(%264, %v19_conv_1_weight, channels=192, kernel_size=[7, 7], padding=[3, 3, 3, 3], groups=192, kernel_layout="IOHW", out_dtype="int32") /* ty=Tensor[(1, 192, 4, 4), int32] */;
  %269 = abs(%268) /* ty=Tensor[(1, 192, 4, 4), int32] */;
  %270 = max(%269, axis=[1], keepdims=True) /* ty=Tensor[(1, 1, 4, 4), int32] */;
  %271 = divide(%270, 127 /* ty=int32 */) /* ty=Tensor[(1, 1, 4, 4), int32] */;
  %272 = divide(%268, %271) /* ty=Tensor[(1, 192, 4, 4), int32] */;
  %273 = multiply(%266, %267) /* ty=Tensor[(1, 192, 4, 4), bool] */;
  %274 = cast(%272, dtype="int8") /* ty=Tensor[(1, 192, 4, 4), int8] */;
  %275 = zeros(shape=[1, 192, 4, 4], dtype="int8") /* ty=Tensor[(1, 192, 4, 4), int8] */;
  %276 = where(%273, %274, %275) /* ty=Tensor[(1, 192, 4, 4), int8] */;
  %277 = cast(%276, dtype="int32") /* ty=Tensor[(1, 192, 4, 4), int32] */;
  %278 = tile(%276, reps=[1, 64, 1, 1]) /* ty=Tensor[(1, 12288, 4, 4), int8] */;
  %279 = reshape(%131, newshape=[1, -1, 0, 0]) /* ty=Tensor[(1, 64, 4, 4), int8] */;
  %280 = reshape(%278, newshape=[-1, 1, 0, 0]) /* ty=Tensor[(12288, 1, 4, 4), int8] */;
  %281 = nn.conv2d(%279, %280, padding=[0, 0, 0, 0], groups=64, out_dtype="int32") /* ty=Tensor[(1, 12288, 1, 1), int32] */;
  %282 = reshape(%281, newshape=[1, 64, 192, 1, 1]) /* ty=Tensor[(1, 64, 192, 1, 1), int32] */;
  %283 = sum(%282, axis=[0]) /* ty=Tensor[(64, 192, 1, 1), int32] */;
  %284 = transpose(%283, axes=[1, 0, 2, 3]) /* ty=Tensor[(192, 64, 1, 1), int32] */;
  %285 = abs(%284) /* ty=Tensor[(192, 64, 1, 1), int32] */;
  %286 = max(%285, axis=[1], keepdims=True) /* ty=Tensor[(192, 1, 1, 1), int32] */;
  %287 = divide(%286, 127 /* ty=int32 */) /* ty=Tensor[(192, 1, 1, 1), int32] */;
  %288 = divide(%284, %287) /* ty=Tensor[(192, 64, 1, 1), int32] */;
  %289 = greater_equal(%128, -128 /* ty=int32 */) /* ty=Tensor[(1, 64, 4, 4), bool] */;
  %290 = less_equal(%128, 127 /* ty=int32 */) /* ty=Tensor[(1, 64, 4, 4), bool] */;
  %291 = greater_equal(%130, meta[relay.Constant][2] /* ty=int8 */) /* ty=Tensor[(1, 64, 4, 4), bool] */;
  %292 = less_equal(%130, meta[relay.Constant][3] /* ty=int8 */) /* ty=Tensor[(1, 64, 4, 4), bool] */;
  %293 = nn.conv2d_transpose(%276, %v19_conv_0_weight, channels=64, kernel_size=[1, 1], padding=[0, 0, 0, 0], kernel_layout="IOHW", out_dtype="int32") /* ty=Tensor[(1, 64, 4, 4), int32] */;
  %294 = abs(%293) /* ty=Tensor[(1, 64, 4, 4), int32] */;
  %295 = max(%294, axis=[1], keepdims=True) /* ty=Tensor[(1, 1, 4, 4), int32] */;
  %296 = divide(%295, 127 /* ty=int32 */) /* ty=Tensor[(1, 1, 4, 4), int32] */;
  %297 = divide(%293, %296) /* ty=Tensor[(1, 64, 4, 4), int32] */;
  %298 = multiply(%291, %292) /* ty=Tensor[(1, 64, 4, 4), bool] */;
  %299 = cast(%297, dtype="int8") /* ty=Tensor[(1, 64, 4, 4), int8] */;
  %300 = zeros(shape=[1, 64, 4, 4], dtype="int8") /* ty=Tensor[(1, 64, 4, 4), int8] */;
  %301 = where(%298, %299, %300) /* ty=Tensor[(1, 64, 4, 4), int8] */;
  %302 = cast(%301, dtype="float32") /* ty=Tensor[(1, 64, 4, 4), float32] */;
  %303 = reshape(%v18_qadd_scale_y, newshape=[1, -1, 1, 1]) /* ty=Tensor[(1, 1, 1, 1), float32] */;
  %304 = divide(%302, %303) /* ty=Tensor[(1, 64, 4, 4), float32] */;
  %305 = reshape(%v18_qadd_scale_x2, newshape=[1, -1, 1, 1]) /* ty=Tensor[(1, 1, 1, 1), float32] */;
  %306 = multiply(%304, %305) /* ty=Tensor[(1, 64, 4, 4), float32] */;
  %307 = multiply(%289, %290) /* ty=Tensor[(1, 64, 4, 4), bool] */;
  %308 = cast(%306, dtype="int8") /* ty=Tensor[(1, 64, 4, 4), int8] */;
  %309 = zeros(shape=[1, 64, 4, 4], dtype="int8") /* ty=Tensor[(1, 64, 4, 4), int8] */;
  %310 = where(%307, %308, %309) /* ty=Tensor[(1, 64, 4, 4), int8] */;
  %311 = cast(%310, dtype="int32") /* ty=Tensor[(1, 64, 4, 4), int32] */;
  %312 = greater_equal(%126, -128 /* ty=int32 */) /* ty=Tensor[(1, 192, 4, 4), bool] */;
  %313 = less_equal(%126, 127 /* ty=int32 */) /* ty=Tensor[(1, 192, 4, 4), bool] */;
  %314 = nn.conv2d_transpose(%310, %v18_conv_2_weight, channels=192, kernel_size=[1, 1], padding=[0, 0, 0, 0], kernel_layout="IOHW", out_dtype="int32") /* ty=Tensor[(1, 192, 4, 4), int32] */;
  %315 = abs(%314) /* ty=Tensor[(1, 192, 4, 4), int32] */;
  %316 = max(%315, axis=[1], keepdims=True) /* ty=Tensor[(1, 1, 4, 4), int32] */;
  %317 = divide(%316, 127 /* ty=int32 */) /* ty=Tensor[(1, 1, 4, 4), int32] */;
  %318 = divide(%314, %317) /* ty=Tensor[(1, 192, 4, 4), int32] */;
  %319 = multiply(%312, %313) /* ty=Tensor[(1, 192, 4, 4), bool] */;
  %320 = cast(%318, dtype="int8") /* ty=Tensor[(1, 192, 4, 4), int8] */;
  %321 = zeros(shape=[1, 192, 4, 4], dtype="int8") /* ty=Tensor[(1, 192, 4, 4), int8] */;
  %322 = where(%319, %320, %321) /* ty=Tensor[(1, 192, 4, 4), int8] */;
  %323 = cast(%322, dtype="int32") /* ty=Tensor[(1, 192, 4, 4), int32] */;
  %324 = greater_equal(%124, -128 /* ty=int32 */) /* ty=Tensor[(1, 192, 4, 4), bool] */;
  %325 = less_equal(%124, 127 /* ty=int32 */) /* ty=Tensor[(1, 192, 4, 4), bool] */;
  %326 = nn.conv2d_transpose(%322, %v18_conv_1_weight, channels=192, kernel_size=[7, 7], padding=[3, 3, 3, 3], groups=192, kernel_layout="IOHW", out_dtype="int32") /* ty=Tensor[(1, 192, 4, 4), int32] */;
  %327 = abs(%326) /* ty=Tensor[(1, 192, 4, 4), int32] */;
  %328 = max(%327, axis=[1], keepdims=True) /* ty=Tensor[(1, 1, 4, 4), int32] */;
  %329 = divide(%328, 127 /* ty=int32 */) /* ty=Tensor[(1, 1, 4, 4), int32] */;
  %330 = divide(%326, %329) /* ty=Tensor[(1, 192, 4, 4), int32] */;
  %331 = multiply(%324, %325) /* ty=Tensor[(1, 192, 4, 4), bool] */;
  %332 = cast(%330, dtype="int8") /* ty=Tensor[(1, 192, 4, 4), int8] */;
  %333 = zeros(shape=[1, 192, 4, 4], dtype="int8") /* ty=Tensor[(1, 192, 4, 4), int8] */;
  %334 = where(%331, %332, %333) /* ty=Tensor[(1, 192, 4, 4), int8] */;
  %335 = cast(%334, dtype="int32") /* ty=Tensor[(1, 192, 4, 4), int32] */;
  %336 = tile(%334, reps=[1, 64, 1, 1]) /* ty=Tensor[(1, 12288, 4, 4), int8] */;
  %337 = reshape(%123, newshape=[1, -1, 0, 0]) /* ty=Tensor[(1, 64, 4, 4), int8] */;
  %338 = reshape(%336, newshape=[-1, 1, 0, 0]) /* ty=Tensor[(12288, 1, 4, 4), int8] */;
  %339 = nn.conv2d(%337, %338, padding=[0, 0, 0, 0], groups=64, out_dtype="int32") /* ty=Tensor[(1, 12288, 1, 1), int32] */;
  %340 = reshape(%339, newshape=[1, 64, 192, 1, 1]) /* ty=Tensor[(1, 64, 192, 1, 1), int32] */;
  %341 = sum(%340, axis=[0]) /* ty=Tensor[(64, 192, 1, 1), int32] */;
  %342 = transpose(%341, axes=[1, 0, 2, 3]) /* ty=Tensor[(192, 64, 1, 1), int32] */;
  %343 = abs(%342) /* ty=Tensor[(192, 64, 1, 1), int32] */;
  %344 = max(%343, axis=[1], keepdims=True) /* ty=Tensor[(192, 1, 1, 1), int32] */;
  %345 = divide(%344, 127 /* ty=int32 */) /* ty=Tensor[(192, 1, 1, 1), int32] */;
  %346 = divide(%342, %345) /* ty=Tensor[(192, 64, 1, 1), int32] */;
  %347 = greater_equal(%120, -128 /* ty=int32 */) /* ty=Tensor[(1, 64, 4, 4), bool] */;
  %348 = less_equal(%120, 127 /* ty=int32 */) /* ty=Tensor[(1, 64, 4, 4), bool] */;
  %349 = greater_equal(%122, meta[relay.Constant][4] /* ty=int8 */) /* ty=Tensor[(1, 64, 4, 4), bool] */;
  %350 = less_equal(%122, meta[relay.Constant][5] /* ty=int8 */) /* ty=Tensor[(1, 64, 4, 4), bool] */;
  %351 = nn.conv2d_transpose(%334, %v18_conv_0_weight, channels=64, kernel_size=[1, 1], padding=[0, 0, 0, 0], kernel_layout="IOHW", out_dtype="int32") /* ty=Tensor[(1, 64, 4, 4), int32] */;
  %352 = abs(%351) /* ty=Tensor[(1, 64, 4, 4), int32] */;
  %353 = max(%352, axis=[1], keepdims=True) /* ty=Tensor[(1, 1, 4, 4), int32] */;
  %354 = divide(%353, 127 /* ty=int32 */) /* ty=Tensor[(1, 1, 4, 4), int32] */;
  %355 = divide(%351, %354) /* ty=Tensor[(1, 64, 4, 4), int32] */;
  %356 = multiply(%349, %350) /* ty=Tensor[(1, 64, 4, 4), bool] */;
  %357 = cast(%355, dtype="int8") /* ty=Tensor[(1, 64, 4, 4), int8] */;
  %358 = zeros(shape=[1, 64, 4, 4], dtype="int8") /* ty=Tensor[(1, 64, 4, 4), int8] */;
  %359 = where(%356, %357, %358) /* ty=Tensor[(1, 64, 4, 4), int8] */;
  %360 = cast(%359, dtype="float32") /* ty=Tensor[(1, 64, 4, 4), float32] */;
  %361 = reshape(%v17_qadd_scale_y, newshape=[1, -1, 1, 1]) /* ty=Tensor[(1, 1, 1, 1), float32] */;
  %362 = divide(%360, %361) /* ty=Tensor[(1, 64, 4, 4), float32] */;
  %363 = reshape(%v17_qadd_scale_x2, newshape=[1, -1, 1, 1]) /* ty=Tensor[(1, 1, 1, 1), float32] */;
  %364 = multiply(%362, %363) /* ty=Tensor[(1, 64, 4, 4), float32] */;
  %365 = multiply(%347, %348) /* ty=Tensor[(1, 64, 4, 4), bool] */;
  %366 = cast(%364, dtype="int8") /* ty=Tensor[(1, 64, 4, 4), int8] */;
  %367 = zeros(shape=[1, 64, 4, 4], dtype="int8") /* ty=Tensor[(1, 64, 4, 4), int8] */;
  %368 = where(%365, %366, %367) /* ty=Tensor[(1, 64, 4, 4), int8] */;
  %369 = cast(%368, dtype="int32") /* ty=Tensor[(1, 64, 4, 4), int32] */;
  %370 = greater_equal(%118, -128 /* ty=int32 */) /* ty=Tensor[(1, 384, 4, 4), bool] */;
  %371 = less_equal(%118, 127 /* ty=int32 */) /* ty=Tensor[(1, 384, 4, 4), bool] */;
  %372 = nn.conv2d_transpose(%368, %v17_conv_2_weight, channels=384, kernel_size=[1, 1], padding=[0, 0, 0, 0], kernel_layout="IOHW", out_dtype="int32") /* ty=Tensor[(1, 384, 4, 4), int32] */;
  %373 = abs(%372) /* ty=Tensor[(1, 384, 4, 4), int32] */;
  %374 = max(%373, axis=[1], keepdims=True) /* ty=Tensor[(1, 1, 4, 4), int32] */;
  %375 = divide(%374, 127 /* ty=int32 */) /* ty=Tensor[(1, 1, 4, 4), int32] */;
  %376 = divide(%372, %375) /* ty=Tensor[(1, 384, 4, 4), int32] */;
  %377 = multiply(%370, %371) /* ty=Tensor[(1, 384, 4, 4), bool] */;
  %378 = cast(%376, dtype="int8") /* ty=Tensor[(1, 384, 4, 4), int8] */;
  %379 = zeros(shape=[1, 384, 4, 4], dtype="int8") /* ty=Tensor[(1, 384, 4, 4), int8] */;
  %380 = where(%377, %378, %379) /* ty=Tensor[(1, 384, 4, 4), int8] */;
  %381 = cast(%380, dtype="int32") /* ty=Tensor[(1, 384, 4, 4), int32] */;
  %382 = greater_equal(%116, -128 /* ty=int32 */) /* ty=Tensor[(1, 384, 4, 4), bool] */;
  %383 = less_equal(%116, 127 /* ty=int32 */) /* ty=Tensor[(1, 384, 4, 4), bool] */;
  %384 = nn.conv2d_transpose(%380, %v17_conv_1_weight, channels=384, kernel_size=[7, 7], padding=[3, 3, 3, 3], groups=384, kernel_layout="IOHW", out_dtype="int32") /* ty=Tensor[(1, 384, 4, 4), int32] */;
  %385 = abs(%384) /* ty=Tensor[(1, 384, 4, 4), int32] */;
  %386 = max(%385, axis=[1], keepdims=True) /* ty=Tensor[(1, 1, 4, 4), int32] */;
  %387 = divide(%386, 127 /* ty=int32 */) /* ty=Tensor[(1, 1, 4, 4), int32] */;
  %388 = divide(%384, %387) /* ty=Tensor[(1, 384, 4, 4), int32] */;
  %389 = multiply(%382, %383) /* ty=Tensor[(1, 384, 4, 4), bool] */;
  %390 = cast(%388, dtype="int8") /* ty=Tensor[(1, 384, 4, 4), int8] */;
  %391 = zeros(shape=[1, 384, 4, 4], dtype="int8") /* ty=Tensor[(1, 384, 4, 4), int8] */;
  %392 = where(%389, %390, %391) /* ty=Tensor[(1, 384, 4, 4), int8] */;
  %393 = cast(%392, dtype="int32") /* ty=Tensor[(1, 384, 4, 4), int32] */;
  %394 = strided_slice(%115, begin=[0, 0, 0, 0], end=[1, 32, 4, 4], strides=[1], axes=None) /* ty=Tensor[(1, 32, 4, 4), int8] */;
  %395 = tile(%392, reps=[1, 32, 1, 1]) /* ty=Tensor[(1, 12288, 4, 4), int8] */;
  %396 = reshape(%394, newshape=[1, -1, 0, 0]) /* ty=Tensor[(1, 32, 4, 4), int8] */;
  %397 = reshape(%395, newshape=[-1, 1, 0, 0]) /* ty=Tensor[(12288, 1, 4, 4), int8] */;
  %398 = nn.conv2d(%396, %397, padding=[0, 0, 0, 0], groups=32, out_dtype="int32") /* ty=Tensor[(1, 12288, 1, 1), int32] */;
  %399 = reshape(%398, newshape=[1, 32, 384, 1, 1]) /* ty=Tensor[(1, 32, 384, 1, 1), int32] */;
  %400 = sum(%399, axis=[0]) /* ty=Tensor[(32, 384, 1, 1), int32] */;
  %401 = transpose(%400, axes=[1, 0, 2, 3]) /* ty=Tensor[(384, 32, 1, 1), int32] */;
  %402 = abs(%401) /* ty=Tensor[(384, 32, 1, 1), int32] */;
  %403 = max(%402, axis=[1], keepdims=True) /* ty=Tensor[(384, 1, 1, 1), int32] */;
  %404 = divide(%403, 127 /* ty=int32 */) /* ty=Tensor[(384, 1, 1, 1), int32] */;
  %405 = divide(%401, %404) /* ty=Tensor[(384, 32, 1, 1), int32] */;
  %406 = greater_equal(%114, -128 /* ty=int32 */) /* ty=Tensor[(1, 64, 4, 4), bool] */;
  %407 = less_equal(%114, 127 /* ty=int32 */) /* ty=Tensor[(1, 64, 4, 4), bool] */;
  %408 = nn.conv2d_transpose(%392, %v17_conv_0_weight, channels=64, kernel_size=[1, 1], padding=[0, 0, 0, 0], kernel_layout="IOHW", out_dtype="int32") /* ty=Tensor[(1, 64, 4, 4), int32] */;
  %409 = abs(%408) /* ty=Tensor[(1, 64, 4, 4), int32] */;
  %410 = max(%409, axis=[1], keepdims=True) /* ty=Tensor[(1, 1, 4, 4), int32] */;
  %411 = divide(%410, 127 /* ty=int32 */) /* ty=Tensor[(1, 1, 4, 4), int32] */;
  %412 = divide(%408, %411) /* ty=Tensor[(1, 64, 4, 4), int32] */;
  %413 = multiply(%406, %407) /* ty=Tensor[(1, 64, 4, 4), bool] */;
  %414 = cast(%412, dtype="int8") /* ty=Tensor[(1, 64, 4, 4), int8] */;
  %415 = zeros(shape=[1, 64, 4, 4], dtype="int8") /* ty=Tensor[(1, 64, 4, 4), int8] */;
  %416 = where(%413, %414, %415) /* ty=Tensor[(1, 64, 4, 4), int8] */;
  %417 = cast(%416, dtype="int32") /* ty=Tensor[(1, 64, 4, 4), int32] */;
  %418 = greater_equal(%112, -128 /* ty=int32 */) /* ty=Tensor[(1, 192, 4, 4), bool] */;
  %419 = less_equal(%112, 127 /* ty=int32 */) /* ty=Tensor[(1, 192, 4, 4), bool] */;
  %420 = nn.conv2d_transpose(%416, %v16_conv_2_weight, channels=192, kernel_size=[1, 1], padding=[0, 0, 0, 0], kernel_layout="IOHW", out_dtype="int32") /* ty=Tensor[(1, 192, 4, 4), int32] */;
  %421 = abs(%420) /* ty=Tensor[(1, 192, 4, 4), int32] */;
  %422 = max(%421, axis=[1], keepdims=True) /* ty=Tensor[(1, 1, 4, 4), int32] */;
  %423 = divide(%422, 127 /* ty=int32 */) /* ty=Tensor[(1, 1, 4, 4), int32] */;
  %424 = divide(%420, %423) /* ty=Tensor[(1, 192, 4, 4), int32] */;
  %425 = multiply(%418, %419) /* ty=Tensor[(1, 192, 4, 4), bool] */;
  %426 = cast(%424, dtype="int8") /* ty=Tensor[(1, 192, 4, 4), int8] */;
  %427 = zeros(shape=[1, 192, 4, 4], dtype="int8") /* ty=Tensor[(1, 192, 4, 4), int8] */;
  %428 = where(%425, %426, %427) /* ty=Tensor[(1, 192, 4, 4), int8] */;
  %429 = cast(%428, dtype="int32") /* ty=Tensor[(1, 192, 4, 4), int32] */;
  %430 = greater_equal(%110, -128 /* ty=int32 */) /* ty=Tensor[(1, 192, 8, 8), bool] */;
  %431 = less_equal(%110, 127 /* ty=int32 */) /* ty=Tensor[(1, 192, 8, 8), bool] */;
  %432 = nn.conv2d_transpose(%428, %v16_conv_1_weight, channels=192, kernel_size=[7, 7], strides=[2, 2], output_padding=[1, 1], padding=[3, 3, 3, 3], groups=192, kernel_layout="IOHW", out_dtype="int32") /* ty=Tensor[(1, 192, 8, 8), int32] */;
  %433 = abs(%432) /* ty=Tensor[(1, 192, 8, 8), int32] */;
  %434 = max(%433, axis=[1], keepdims=True) /* ty=Tensor[(1, 1, 8, 8), int32] */;
  %435 = divide(%434, 127 /* ty=int32 */) /* ty=Tensor[(1, 1, 8, 8), int32] */;
  %436 = divide(%432, %435) /* ty=Tensor[(1, 192, 8, 8), int32] */;
  %437 = multiply(%430, %431) /* ty=Tensor[(1, 192, 8, 8), bool] */;
  %438 = cast(%436, dtype="int8") /* ty=Tensor[(1, 192, 8, 8), int8] */;
  %439 = zeros(shape=[1, 192, 8, 8], dtype="int8") /* ty=Tensor[(1, 192, 8, 8), int8] */;
  %440 = where(%437, %438, %439) /* ty=Tensor[(1, 192, 8, 8), int8] */;
  %441 = cast(%440, dtype="int32") /* ty=Tensor[(1, 192, 8, 8), int32] */;
  %442 = tile(%440, reps=[1, 32, 1, 1]) /* ty=Tensor[(1, 6144, 8, 8), int8] */;
  %443 = reshape(%109, newshape=[1, -1, 0, 0]) /* ty=Tensor[(1, 32, 8, 8), int8] */;
  %444 = reshape(%442, newshape=[-1, 1, 0, 0]) /* ty=Tensor[(6144, 1, 8, 8), int8] */;
  %445 = nn.conv2d(%443, %444, padding=[0, 0, 0, 0], groups=32, out_dtype="int32") /* ty=Tensor[(1, 6144, 1, 1), int32] */;
  %446 = reshape(%445, newshape=[1, 32, 192, 1, 1]) /* ty=Tensor[(1, 32, 192, 1, 1), int32] */;
  %447 = sum(%446, axis=[0]) /* ty=Tensor[(32, 192, 1, 1), int32] */;
  %448 = transpose(%447, axes=[1, 0, 2, 3]) /* ty=Tensor[(192, 32, 1, 1), int32] */;
  %449 = abs(%448) /* ty=Tensor[(192, 32, 1, 1), int32] */;
  %450 = max(%449, axis=[1], keepdims=True) /* ty=Tensor[(192, 1, 1, 1), int32] */;
  %451 = divide(%450, 127 /* ty=int32 */) /* ty=Tensor[(192, 1, 1, 1), int32] */;
  %452 = divide(%448, %451) /* ty=Tensor[(192, 32, 1, 1), int32] */;
  %453 = greater_equal(%106, -128 /* ty=int32 */) /* ty=Tensor[(1, 32, 8, 8), bool] */;
  %454 = less_equal(%106, 127 /* ty=int32 */) /* ty=Tensor[(1, 32, 8, 8), bool] */;
  %455 = greater_equal(%108, meta[relay.Constant][6] /* ty=int8 */) /* ty=Tensor[(1, 32, 8, 8), bool] */;
  %456 = less_equal(%108, meta[relay.Constant][7] /* ty=int8 */) /* ty=Tensor[(1, 32, 8, 8), bool] */;
  %457 = nn.conv2d_transpose(%440, %v16_conv_0_weight, channels=32, kernel_size=[1, 1], padding=[0, 0, 0, 0], kernel_layout="IOHW", out_dtype="int32") /* ty=Tensor[(1, 32, 8, 8), int32] */;
  %458 = abs(%457) /* ty=Tensor[(1, 32, 8, 8), int32] */;
  %459 = max(%458, axis=[1], keepdims=True) /* ty=Tensor[(1, 1, 8, 8), int32] */;
  %460 = divide(%459, 127 /* ty=int32 */) /* ty=Tensor[(1, 1, 8, 8), int32] */;
  %461 = divide(%457, %460) /* ty=Tensor[(1, 32, 8, 8), int32] */;
  %462 = multiply(%455, %456) /* ty=Tensor[(1, 32, 8, 8), bool] */;
  %463 = cast(%461, dtype="int8") /* ty=Tensor[(1, 32, 8, 8), int8] */;
  %464 = zeros(shape=[1, 32, 8, 8], dtype="int8") /* ty=Tensor[(1, 32, 8, 8), int8] */;
  %465 = where(%462, %463, %464) /* ty=Tensor[(1, 32, 8, 8), int8] */;
  %466 = cast(%465, dtype="float32") /* ty=Tensor[(1, 32, 8, 8), float32] */;
  %467 = reshape(%v15_qadd_scale_y, newshape=[1, -1, 1, 1]) /* ty=Tensor[(1, 1, 1, 1), float32] */;
  %468 = divide(%466, %467) /* ty=Tensor[(1, 32, 8, 8), float32] */;
  %469 = reshape(%v15_qadd_scale_x2, newshape=[1, -1, 1, 1]) /* ty=Tensor[(1, 1, 1, 1), float32] */;
  %470 = multiply(%468, %469) /* ty=Tensor[(1, 32, 8, 8), float32] */;
  %471 = multiply(%453, %454) /* ty=Tensor[(1, 32, 8, 8), bool] */;
  %472 = cast(%470, dtype="int8") /* ty=Tensor[(1, 32, 8, 8), int8] */;
  %473 = zeros(shape=[1, 32, 8, 8], dtype="int8") /* ty=Tensor[(1, 32, 8, 8), int8] */;
  %474 = where(%471, %472, %473) /* ty=Tensor[(1, 32, 8, 8), int8] */;
  %475 = cast(%474, dtype="int32") /* ty=Tensor[(1, 32, 8, 8), int32] */;
  %476 = greater_equal(%104, -128 /* ty=int32 */) /* ty=Tensor[(1, 96, 8, 8), bool] */;
  %477 = less_equal(%104, 127 /* ty=int32 */) /* ty=Tensor[(1, 96, 8, 8), bool] */;
  %478 = nn.conv2d_transpose(%474, %v15_conv_2_weight, channels=96, kernel_size=[1, 1], padding=[0, 0, 0, 0], kernel_layout="IOHW", out_dtype="int32") /* ty=Tensor[(1, 96, 8, 8), int32] */;
  %479 = abs(%478) /* ty=Tensor[(1, 96, 8, 8), int32] */;
  %480 = max(%479, axis=[1], keepdims=True) /* ty=Tensor[(1, 1, 8, 8), int32] */;
  %481 = divide(%480, 127 /* ty=int32 */) /* ty=Tensor[(1, 1, 8, 8), int32] */;
  %482 = divide(%478, %481) /* ty=Tensor[(1, 96, 8, 8), int32] */;
  %483 = multiply(%476, %477) /* ty=Tensor[(1, 96, 8, 8), bool] */;
  %484 = cast(%482, dtype="int8") /* ty=Tensor[(1, 96, 8, 8), int8] */;
  %485 = zeros(shape=[1, 96, 8, 8], dtype="int8") /* ty=Tensor[(1, 96, 8, 8), int8] */;
  %486 = where(%483, %484, %485) /* ty=Tensor[(1, 96, 8, 8), int8] */;
  %487 = cast(%486, dtype="int32") /* ty=Tensor[(1, 96, 8, 8), int32] */;
  %488 = greater_equal(%102, -128 /* ty=int32 */) /* ty=Tensor[(1, 96, 8, 8), bool] */;
  %489 = less_equal(%102, 127 /* ty=int32 */) /* ty=Tensor[(1, 96, 8, 8), bool] */;
  %490 = nn.conv2d_transpose(%486, %v15_conv_1_weight, channels=96, kernel_size=[5, 5], padding=[2, 2, 2, 2], groups=96, kernel_layout="IOHW", out_dtype="int32") /* ty=Tensor[(1, 96, 8, 8), int32] */;
  %491 = abs(%490) /* ty=Tensor[(1, 96, 8, 8), int32] */;
  %492 = max(%491, axis=[1], keepdims=True) /* ty=Tensor[(1, 1, 8, 8), int32] */;
  %493 = divide(%492, 127 /* ty=int32 */) /* ty=Tensor[(1, 1, 8, 8), int32] */;
  %494 = divide(%490, %493) /* ty=Tensor[(1, 96, 8, 8), int32] */;
  %495 = multiply(%488, %489) /* ty=Tensor[(1, 96, 8, 8), bool] */;
  %496 = cast(%494, dtype="int8") /* ty=Tensor[(1, 96, 8, 8), int8] */;
  %497 = zeros(shape=[1, 96, 8, 8], dtype="int8") /* ty=Tensor[(1, 96, 8, 8), int8] */;
  %498 = where(%495, %496, %497) /* ty=Tensor[(1, 96, 8, 8), int8] */;
  %499 = cast(%498, dtype="int32") /* ty=Tensor[(1, 96, 8, 8), int32] */;
  %500 = tile(%498, reps=[1, 32, 1, 1]) /* ty=Tensor[(1, 3072, 8, 8), int8] */;
  %501 = reshape(%101, newshape=[1, -1, 0, 0]) /* ty=Tensor[(1, 32, 8, 8), int8] */;
  %502 = reshape(%500, newshape=[-1, 1, 0, 0]) /* ty=Tensor[(3072, 1, 8, 8), int8] */;
  %503 = nn.conv2d(%501, %502, padding=[0, 0, 0, 0], groups=32, out_dtype="int32") /* ty=Tensor[(1, 3072, 1, 1), int32] */;
  %504 = reshape(%503, newshape=[1, 32, 96, 1, 1]) /* ty=Tensor[(1, 32, 96, 1, 1), int32] */;
  %505 = sum(%504, axis=[0]) /* ty=Tensor[(32, 96, 1, 1), int32] */;
  %506 = transpose(%505, axes=[1, 0, 2, 3]) /* ty=Tensor[(96, 32, 1, 1), int32] */;
  %507 = abs(%506) /* ty=Tensor[(96, 32, 1, 1), int32] */;
  %508 = max(%507, axis=[1], keepdims=True) /* ty=Tensor[(96, 1, 1, 1), int32] */;
  %509 = divide(%508, 127 /* ty=int32 */) /* ty=Tensor[(96, 1, 1, 1), int32] */;
  %510 = divide(%506, %509) /* ty=Tensor[(96, 32, 1, 1), int32] */;
  %511 = greater_equal(%98, -128 /* ty=int32 */) /* ty=Tensor[(1, 32, 8, 8), bool] */;
  %512 = less_equal(%98, 127 /* ty=int32 */) /* ty=Tensor[(1, 32, 8, 8), bool] */;
  %513 = greater_equal(%100, meta[relay.Constant][8] /* ty=int8 */) /* ty=Tensor[(1, 32, 8, 8), bool] */;
  %514 = less_equal(%100, meta[relay.Constant][9] /* ty=int8 */) /* ty=Tensor[(1, 32, 8, 8), bool] */;
  %515 = nn.conv2d_transpose(%498, %v15_conv_0_weight, channels=32, kernel_size=[1, 1], padding=[0, 0, 0, 0], kernel_layout="IOHW", out_dtype="int32") /* ty=Tensor[(1, 32, 8, 8), int32] */;
  %516 = abs(%515) /* ty=Tensor[(1, 32, 8, 8), int32] */;
  %517 = max(%516, axis=[1], keepdims=True) /* ty=Tensor[(1, 1, 8, 8), int32] */;
  %518 = divide(%517, 127 /* ty=int32 */) /* ty=Tensor[(1, 1, 8, 8), int32] */;
  %519 = divide(%515, %518) /* ty=Tensor[(1, 32, 8, 8), int32] */;
  %520 = multiply(%513, %514) /* ty=Tensor[(1, 32, 8, 8), bool] */;
  %521 = cast(%519, dtype="int8") /* ty=Tensor[(1, 32, 8, 8), int8] */;
  %522 = zeros(shape=[1, 32, 8, 8], dtype="int8") /* ty=Tensor[(1, 32, 8, 8), int8] */;
  %523 = where(%520, %521, %522) /* ty=Tensor[(1, 32, 8, 8), int8] */;
  %524 = cast(%523, dtype="float32") /* ty=Tensor[(1, 32, 8, 8), float32] */;
  %525 = reshape(%v14_qadd_scale_y, newshape=[1, -1, 1, 1]) /* ty=Tensor[(1, 1, 1, 1), float32] */;
  %526 = divide(%524, %525) /* ty=Tensor[(1, 32, 8, 8), float32] */;
  %527 = reshape(%v14_qadd_scale_x2, newshape=[1, -1, 1, 1]) /* ty=Tensor[(1, 1, 1, 1), float32] */;
  %528 = multiply(%526, %527) /* ty=Tensor[(1, 32, 8, 8), float32] */;
  %529 = multiply(%511, %512) /* ty=Tensor[(1, 32, 8, 8), bool] */;
  %530 = cast(%528, dtype="int8") /* ty=Tensor[(1, 32, 8, 8), int8] */;
  %531 = zeros(shape=[1, 32, 8, 8], dtype="int8") /* ty=Tensor[(1, 32, 8, 8), int8] */;
  %532 = where(%529, %530, %531) /* ty=Tensor[(1, 32, 8, 8), int8] */;
  %533 = cast(%532, dtype="int32") /* ty=Tensor[(1, 32, 8, 8), int32] */;
  %534 = greater_equal(%96, -128 /* ty=int32 */) /* ty=Tensor[(1, 96, 8, 8), bool] */;
  %535 = less_equal(%96, 127 /* ty=int32 */) /* ty=Tensor[(1, 96, 8, 8), bool] */;
  %536 = nn.conv2d_transpose(%532, %v14_conv_2_weight, channels=96, kernel_size=[1, 1], padding=[0, 0, 0, 0], kernel_layout="IOHW", out_dtype="int32") /* ty=Tensor[(1, 96, 8, 8), int32] */;
  %537 = abs(%536) /* ty=Tensor[(1, 96, 8, 8), int32] */;
  %538 = max(%537, axis=[1], keepdims=True) /* ty=Tensor[(1, 1, 8, 8), int32] */;
  %539 = divide(%538, 127 /* ty=int32 */) /* ty=Tensor[(1, 1, 8, 8), int32] */;
  %540 = divide(%536, %539) /* ty=Tensor[(1, 96, 8, 8), int32] */;
  %541 = multiply(%534, %535) /* ty=Tensor[(1, 96, 8, 8), bool] */;
  %542 = cast(%540, dtype="int8") /* ty=Tensor[(1, 96, 8, 8), int8] */;
  %543 = zeros(shape=[1, 96, 8, 8], dtype="int8") /* ty=Tensor[(1, 96, 8, 8), int8] */;
  %544 = where(%541, %542, %543) /* ty=Tensor[(1, 96, 8, 8), int8] */;
  %545 = cast(%544, dtype="int32") /* ty=Tensor[(1, 96, 8, 8), int32] */;
  %546 = greater_equal(%94, -128 /* ty=int32 */) /* ty=Tensor[(1, 96, 8, 8), bool] */;
  %547 = less_equal(%94, 127 /* ty=int32 */) /* ty=Tensor[(1, 96, 8, 8), bool] */;
  %548 = nn.conv2d_transpose(%544, %v14_conv_1_weight, channels=96, kernel_size=[5, 5], padding=[2, 2, 2, 2], groups=96, kernel_layout="IOHW", out_dtype="int32") /* ty=Tensor[(1, 96, 8, 8), int32] */;
  %549 = abs(%548) /* ty=Tensor[(1, 96, 8, 8), int32] */;
  %550 = max(%549, axis=[1], keepdims=True) /* ty=Tensor[(1, 1, 8, 8), int32] */;
  %551 = divide(%550, 127 /* ty=int32 */) /* ty=Tensor[(1, 1, 8, 8), int32] */;
  %552 = divide(%548, %551) /* ty=Tensor[(1, 96, 8, 8), int32] */;
  %553 = multiply(%546, %547) /* ty=Tensor[(1, 96, 8, 8), bool] */;
  %554 = cast(%552, dtype="int8") /* ty=Tensor[(1, 96, 8, 8), int8] */;
  %555 = zeros(shape=[1, 96, 8, 8], dtype="int8") /* ty=Tensor[(1, 96, 8, 8), int8] */;
  %556 = where(%553, %554, %555) /* ty=Tensor[(1, 96, 8, 8), int8] */;
  %557 = cast(%556, dtype="int32") /* ty=Tensor[(1, 96, 8, 8), int32] */;
  %558 = tile(%556, reps=[1, 32, 1, 1]) /* ty=Tensor[(1, 3072, 8, 8), int8] */;
  %559 = reshape(%93, newshape=[1, -1, 0, 0]) /* ty=Tensor[(1, 32, 8, 8), int8] */;
  %560 = reshape(%558, newshape=[-1, 1, 0, 0]) /* ty=Tensor[(3072, 1, 8, 8), int8] */;
  %561 = nn.conv2d(%559, %560, padding=[0, 0, 0, 0], groups=32, out_dtype="int32") /* ty=Tensor[(1, 3072, 1, 1), int32] */;
  %562 = reshape(%561, newshape=[1, 32, 96, 1, 1]) /* ty=Tensor[(1, 32, 96, 1, 1), int32] */;
  %563 = sum(%562, axis=[0]) /* ty=Tensor[(32, 96, 1, 1), int32] */;
  %564 = transpose(%563, axes=[1, 0, 2, 3]) /* ty=Tensor[(96, 32, 1, 1), int32] */;
  %565 = abs(%564) /* ty=Tensor[(96, 32, 1, 1), int32] */;
  %566 = max(%565, axis=[1], keepdims=True) /* ty=Tensor[(96, 1, 1, 1), int32] */;
  %567 = divide(%566, 127 /* ty=int32 */) /* ty=Tensor[(96, 1, 1, 1), int32] */;
  %568 = divide(%564, %567) /* ty=Tensor[(96, 32, 1, 1), int32] */;
  %569 = greater_equal(%90, -128 /* ty=int32 */) /* ty=Tensor[(1, 32, 8, 8), bool] */;
  %570 = less_equal(%90, 127 /* ty=int32 */) /* ty=Tensor[(1, 32, 8, 8), bool] */;
  %571 = greater_equal(%92, meta[relay.Constant][10] /* ty=int8 */) /* ty=Tensor[(1, 32, 8, 8), bool] */;
  %572 = less_equal(%92, meta[relay.Constant][11] /* ty=int8 */) /* ty=Tensor[(1, 32, 8, 8), bool] */;
  %573 = nn.conv2d_transpose(%556, %v14_conv_0_weight, channels=32, kernel_size=[1, 1], padding=[0, 0, 0, 0], kernel_layout="IOHW", out_dtype="int32") /* ty=Tensor[(1, 32, 8, 8), int32] */;
  %574 = abs(%573) /* ty=Tensor[(1, 32, 8, 8), int32] */;
  %575 = max(%574, axis=[1], keepdims=True) /* ty=Tensor[(1, 1, 8, 8), int32] */;
  %576 = divide(%575, 127 /* ty=int32 */) /* ty=Tensor[(1, 1, 8, 8), int32] */;
  %577 = divide(%573, %576) /* ty=Tensor[(1, 32, 8, 8), int32] */;
  %578 = multiply(%571, %572) /* ty=Tensor[(1, 32, 8, 8), bool] */;
  %579 = cast(%577, dtype="int8") /* ty=Tensor[(1, 32, 8, 8), int8] */;
  %580 = zeros(shape=[1, 32, 8, 8], dtype="int8") /* ty=Tensor[(1, 32, 8, 8), int8] */;
  %581 = where(%578, %579, %580) /* ty=Tensor[(1, 32, 8, 8), int8] */;
  %582 = cast(%581, dtype="float32") /* ty=Tensor[(1, 32, 8, 8), float32] */;
  %583 = reshape(%v13_qadd_scale_y, newshape=[1, -1, 1, 1]) /* ty=Tensor[(1, 1, 1, 1), float32] */;
  %584 = divide(%582, %583) /* ty=Tensor[(1, 32, 8, 8), float32] */;
  %585 = reshape(%v13_qadd_scale_x2, newshape=[1, -1, 1, 1]) /* ty=Tensor[(1, 1, 1, 1), float32] */;
  %586 = multiply(%584, %585) /* ty=Tensor[(1, 32, 8, 8), float32] */;
  %587 = multiply(%569, %570) /* ty=Tensor[(1, 32, 8, 8), bool] */;
  %588 = cast(%586, dtype="int8") /* ty=Tensor[(1, 32, 8, 8), int8] */;
  %589 = zeros(shape=[1, 32, 8, 8], dtype="int8") /* ty=Tensor[(1, 32, 8, 8), int8] */;
  %590 = where(%587, %588, %589) /* ty=Tensor[(1, 32, 8, 8), int8] */;
  %591 = cast(%590, dtype="int32") /* ty=Tensor[(1, 32, 8, 8), int32] */;
  %592 = greater_equal(%88, -128 /* ty=int32 */) /* ty=Tensor[(1, 96, 8, 8), bool] */;
  %593 = less_equal(%88, 127 /* ty=int32 */) /* ty=Tensor[(1, 96, 8, 8), bool] */;
  %594 = nn.conv2d_transpose(%590, %v13_conv_2_weight, channels=96, kernel_size=[1, 1], padding=[0, 0, 0, 0], kernel_layout="IOHW", out_dtype="int32") /* ty=Tensor[(1, 96, 8, 8), int32] */;
  %595 = abs(%594) /* ty=Tensor[(1, 96, 8, 8), int32] */;
  %596 = max(%595, axis=[1], keepdims=True) /* ty=Tensor[(1, 1, 8, 8), int32] */;
  %597 = divide(%596, 127 /* ty=int32 */) /* ty=Tensor[(1, 1, 8, 8), int32] */;
  %598 = divide(%594, %597) /* ty=Tensor[(1, 96, 8, 8), int32] */;
  %599 = multiply(%592, %593) /* ty=Tensor[(1, 96, 8, 8), bool] */;
  %600 = cast(%598, dtype="int8") /* ty=Tensor[(1, 96, 8, 8), int8] */;
  %601 = zeros(shape=[1, 96, 8, 8], dtype="int8") /* ty=Tensor[(1, 96, 8, 8), int8] */;
  %602 = where(%599, %600, %601) /* ty=Tensor[(1, 96, 8, 8), int8] */;
  %603 = cast(%602, dtype="int32") /* ty=Tensor[(1, 96, 8, 8), int32] */;
  %604 = greater_equal(%86, -128 /* ty=int32 */) /* ty=Tensor[(1, 96, 8, 8), bool] */;
  %605 = less_equal(%86, 127 /* ty=int32 */) /* ty=Tensor[(1, 96, 8, 8), bool] */;
  %606 = nn.conv2d_transpose(%602, %v13_conv_1_weight, channels=96, kernel_size=[5, 5], padding=[2, 2, 2, 2], groups=96, kernel_layout="IOHW", out_dtype="int32") /* ty=Tensor[(1, 96, 8, 8), int32] */;
  %607 = abs(%606) /* ty=Tensor[(1, 96, 8, 8), int32] */;
  %608 = max(%607, axis=[1], keepdims=True) /* ty=Tensor[(1, 1, 8, 8), int32] */;
  %609 = divide(%608, 127 /* ty=int32 */) /* ty=Tensor[(1, 1, 8, 8), int32] */;
  %610 = divide(%606, %609) /* ty=Tensor[(1, 96, 8, 8), int32] */;
  %611 = multiply(%604, %605) /* ty=Tensor[(1, 96, 8, 8), bool] */;
  %612 = cast(%610, dtype="int8") /* ty=Tensor[(1, 96, 8, 8), int8] */;
  %613 = zeros(shape=[1, 96, 8, 8], dtype="int8") /* ty=Tensor[(1, 96, 8, 8), int8] */;
  %614 = where(%611, %612, %613) /* ty=Tensor[(1, 96, 8, 8), int8] */;
  %615 = cast(%614, dtype="int32") /* ty=Tensor[(1, 96, 8, 8), int32] */;
  %616 = tile(%614, reps=[1, 32, 1, 1]) /* ty=Tensor[(1, 3072, 8, 8), int8] */;
  %617 = reshape(%85, newshape=[1, -1, 0, 0]) /* ty=Tensor[(1, 32, 8, 8), int8] */;
  %618 = reshape(%616, newshape=[-1, 1, 0, 0]) /* ty=Tensor[(3072, 1, 8, 8), int8] */;
  %619 = nn.conv2d(%617, %618, padding=[0, 0, 0, 0], groups=32, out_dtype="int32") /* ty=Tensor[(1, 3072, 1, 1), int32] */;
  %620 = reshape(%619, newshape=[1, 32, 96, 1, 1]) /* ty=Tensor[(1, 32, 96, 1, 1), int32] */;
  %621 = sum(%620, axis=[0]) /* ty=Tensor[(32, 96, 1, 1), int32] */;
  %622 = transpose(%621, axes=[1, 0, 2, 3]) /* ty=Tensor[(96, 32, 1, 1), int32] */;
  %623 = abs(%622) /* ty=Tensor[(96, 32, 1, 1), int32] */;
  %624 = max(%623, axis=[1], keepdims=True) /* ty=Tensor[(96, 1, 1, 1), int32] */;
  %625 = divide(%624, 127 /* ty=int32 */) /* ty=Tensor[(96, 1, 1, 1), int32] */;
  %626 = divide(%622, %625) /* ty=Tensor[(96, 32, 1, 1), int32] */;
  %627 = greater_equal(%84, -128 /* ty=int32 */) /* ty=Tensor[(1, 32, 8, 8), bool] */;
  %628 = less_equal(%84, 127 /* ty=int32 */) /* ty=Tensor[(1, 32, 8, 8), bool] */;
  %629 = nn.conv2d_transpose(%614, %v13_conv_0_weight, channels=32, kernel_size=[1, 1], padding=[0, 0, 0, 0], kernel_layout="IOHW", out_dtype="int32") /* ty=Tensor[(1, 32, 8, 8), int32] */;
  %630 = abs(%629) /* ty=Tensor[(1, 32, 8, 8), int32] */;
  %631 = max(%630, axis=[1], keepdims=True) /* ty=Tensor[(1, 1, 8, 8), int32] */;
  %632 = divide(%631, 127 /* ty=int32 */) /* ty=Tensor[(1, 1, 8, 8), int32] */;
  %633 = divide(%629, %632) /* ty=Tensor[(1, 32, 8, 8), int32] */;
  %634 = multiply(%627, %628) /* ty=Tensor[(1, 32, 8, 8), bool] */;
  %635 = cast(%633, dtype="int8") /* ty=Tensor[(1, 32, 8, 8), int8] */;
  %636 = zeros(shape=[1, 32, 8, 8], dtype="int8") /* ty=Tensor[(1, 32, 8, 8), int8] */;
  %637 = where(%634, %635, %636) /* ty=Tensor[(1, 32, 8, 8), int8] */;
  %638 = cast(%637, dtype="int32") /* ty=Tensor[(1, 32, 8, 8), int32] */;
  %639 = greater_equal(%82, -128 /* ty=int32 */) /* ty=Tensor[(1, 144, 8, 8), bool] */;
  %640 = less_equal(%82, 127 /* ty=int32 */) /* ty=Tensor[(1, 144, 8, 8), bool] */;
  %641 = nn.conv2d_transpose(%637, %v12_conv_2_weight, channels=144, kernel_size=[1, 1], padding=[0, 0, 0, 0], kernel_layout="IOHW", out_dtype="int32") /* ty=Tensor[(1, 144, 8, 8), int32] */;
  %642 = abs(%641) /* ty=Tensor[(1, 144, 8, 8), int32] */;
  %643 = max(%642, axis=[1], keepdims=True) /* ty=Tensor[(1, 1, 8, 8), int32] */;
  %644 = divide(%643, 127 /* ty=int32 */) /* ty=Tensor[(1, 1, 8, 8), int32] */;
  %645 = divide(%641, %644) /* ty=Tensor[(1, 144, 8, 8), int32] */;
  %646 = multiply(%639, %640) /* ty=Tensor[(1, 144, 8, 8), bool] */;
  %647 = cast(%645, dtype="int8") /* ty=Tensor[(1, 144, 8, 8), int8] */;
  %648 = zeros(shape=[1, 144, 8, 8], dtype="int8") /* ty=Tensor[(1, 144, 8, 8), int8] */;
  %649 = where(%646, %647, %648) /* ty=Tensor[(1, 144, 8, 8), int8] */;
  %650 = cast(%649, dtype="int32") /* ty=Tensor[(1, 144, 8, 8), int32] */;
  %651 = greater_equal(%80, -128 /* ty=int32 */) /* ty=Tensor[(1, 144, 8, 8), bool] */;
  %652 = less_equal(%80, 127 /* ty=int32 */) /* ty=Tensor[(1, 144, 8, 8), bool] */;
  %653 = nn.conv2d_transpose(%649, %v12_conv_1_weight, channels=144, kernel_size=[5, 5], padding=[2, 2, 2, 2], groups=144, kernel_layout="IOHW", out_dtype="int32") /* ty=Tensor[(1, 144, 8, 8), int32] */;
  %654 = abs(%653) /* ty=Tensor[(1, 144, 8, 8), int32] */;
  %655 = max(%654, axis=[1], keepdims=True) /* ty=Tensor[(1, 1, 8, 8), int32] */;
  %656 = divide(%655, 127 /* ty=int32 */) /* ty=Tensor[(1, 1, 8, 8), int32] */;
  %657 = divide(%653, %656) /* ty=Tensor[(1, 144, 8, 8), int32] */;
  %658 = multiply(%651, %652) /* ty=Tensor[(1, 144, 8, 8), bool] */;
  %659 = cast(%657, dtype="int8") /* ty=Tensor[(1, 144, 8, 8), int8] */;
  %660 = zeros(shape=[1, 144, 8, 8], dtype="int8") /* ty=Tensor[(1, 144, 8, 8), int8] */;
  %661 = where(%658, %659, %660) /* ty=Tensor[(1, 144, 8, 8), int8] */;
  %662 = cast(%661, dtype="int32") /* ty=Tensor[(1, 144, 8, 8), int32] */;
  %663 = greater_equal(%76, -128 /* ty=int32 */) /* ty=Tensor[(1, 24, 8, 8), bool] */;
  %664 = less_equal(%76, 127 /* ty=int32 */) /* ty=Tensor[(1, 24, 8, 8), bool] */;
  %665 = greater_equal(%78, meta[relay.Constant][12] /* ty=int8 */) /* ty=Tensor[(1, 24, 8, 8), bool] */;
  %666 = less_equal(%78, meta[relay.Constant][13] /* ty=int8 */) /* ty=Tensor[(1, 24, 8, 8), bool] */;
  %667 = nn.conv2d_transpose(%661, %v12_conv_0_weight, channels=24, kernel_size=[1, 1], padding=[0, 0, 0, 0], kernel_layout="IOHW", out_dtype="int32") /* ty=Tensor[(1, 24, 8, 8), int32] */;
  %668 = abs(%667) /* ty=Tensor[(1, 24, 8, 8), int32] */;
  %669 = max(%668, axis=[1], keepdims=True) /* ty=Tensor[(1, 1, 8, 8), int32] */;
  %670 = divide(%669, 127 /* ty=int32 */) /* ty=Tensor[(1, 1, 8, 8), int32] */;
  %671 = divide(%667, %670) /* ty=Tensor[(1, 24, 8, 8), int32] */;
  %672 = multiply(%665, %666) /* ty=Tensor[(1, 24, 8, 8), bool] */;
  %673 = cast(%671, dtype="int8") /* ty=Tensor[(1, 24, 8, 8), int8] */;
  %674 = zeros(shape=[1, 24, 8, 8], dtype="int8") /* ty=Tensor[(1, 24, 8, 8), int8] */;
  %675 = where(%672, %673, %674) /* ty=Tensor[(1, 24, 8, 8), int8] */;
  %676 = cast(%675, dtype="float32") /* ty=Tensor[(1, 24, 8, 8), float32] */;
  %677 = reshape(%v11_qadd_scale_y, newshape=[1, -1, 1, 1]) /* ty=Tensor[(1, 1, 1, 1), float32] */;
  %678 = divide(%676, %677) /* ty=Tensor[(1, 24, 8, 8), float32] */;
  %679 = reshape(%v11_qadd_scale_x2, newshape=[1, -1, 1, 1]) /* ty=Tensor[(1, 1, 1, 1), float32] */;
  %680 = multiply(%678, %679) /* ty=Tensor[(1, 24, 8, 8), float32] */;
  %681 = multiply(%663, %664) /* ty=Tensor[(1, 24, 8, 8), bool] */;
  %682 = cast(%680, dtype="int8") /* ty=Tensor[(1, 24, 8, 8), int8] */;
  %683 = zeros(shape=[1, 24, 8, 8], dtype="int8") /* ty=Tensor[(1, 24, 8, 8), int8] */;
  %684 = where(%681, %682, %683) /* ty=Tensor[(1, 24, 8, 8), int8] */;
  %685 = cast(%684, dtype="int32") /* ty=Tensor[(1, 24, 8, 8), int32] */;
  %686 = greater_equal(%74, -128 /* ty=int32 */) /* ty=Tensor[(1, 72, 8, 8), bool] */;
  %687 = less_equal(%74, 127 /* ty=int32 */) /* ty=Tensor[(1, 72, 8, 8), bool] */;
  %688 = nn.conv2d_transpose(%684, %v11_conv_2_weight, channels=72, kernel_size=[1, 1], padding=[0, 0, 0, 0], kernel_layout="IOHW", out_dtype="int32") /* ty=Tensor[(1, 72, 8, 8), int32] */;
  %689 = abs(%688) /* ty=Tensor[(1, 72, 8, 8), int32] */;
  %690 = max(%689, axis=[1], keepdims=True) /* ty=Tensor[(1, 1, 8, 8), int32] */;
  %691 = divide(%690, 127 /* ty=int32 */) /* ty=Tensor[(1, 1, 8, 8), int32] */;
  %692 = divide(%688, %691) /* ty=Tensor[(1, 72, 8, 8), int32] */;
  %693 = multiply(%686, %687) /* ty=Tensor[(1, 72, 8, 8), bool] */;
  %694 = cast(%692, dtype="int8") /* ty=Tensor[(1, 72, 8, 8), int8] */;
  %695 = zeros(shape=[1, 72, 8, 8], dtype="int8") /* ty=Tensor[(1, 72, 8, 8), int8] */;
  %696 = where(%693, %694, %695) /* ty=Tensor[(1, 72, 8, 8), int8] */;
  %697 = cast(%696, dtype="int32") /* ty=Tensor[(1, 72, 8, 8), int32] */;
  %698 = greater_equal(%72, -128 /* ty=int32 */) /* ty=Tensor[(1, 72, 8, 8), bool] */;
  %699 = less_equal(%72, 127 /* ty=int32 */) /* ty=Tensor[(1, 72, 8, 8), bool] */;
  %700 = nn.conv2d_transpose(%696, %v11_conv_1_weight, channels=72, kernel_size=[5, 5], padding=[2, 2, 2, 2], groups=72, kernel_layout="IOHW", out_dtype="int32") /* ty=Tensor[(1, 72, 8, 8), int32] */;
  %701 = abs(%700) /* ty=Tensor[(1, 72, 8, 8), int32] */;
  %702 = max(%701, axis=[1], keepdims=True) /* ty=Tensor[(1, 1, 8, 8), int32] */;
  %703 = divide(%702, 127 /* ty=int32 */) /* ty=Tensor[(1, 1, 8, 8), int32] */;
  %704 = divide(%700, %703) /* ty=Tensor[(1, 72, 8, 8), int32] */;
  %705 = multiply(%698, %699) /* ty=Tensor[(1, 72, 8, 8), bool] */;
  %706 = cast(%704, dtype="int8") /* ty=Tensor[(1, 72, 8, 8), int8] */;
  %707 = zeros(shape=[1, 72, 8, 8], dtype="int8") /* ty=Tensor[(1, 72, 8, 8), int8] */;
  %708 = where(%705, %706, %707) /* ty=Tensor[(1, 72, 8, 8), int8] */;
  %709 = cast(%708, dtype="int32") /* ty=Tensor[(1, 72, 8, 8), int32] */;
  %710 = greater_equal(%68, -128 /* ty=int32 */) /* ty=Tensor[(1, 24, 8, 8), bool] */;
  %711 = less_equal(%68, 127 /* ty=int32 */) /* ty=Tensor[(1, 24, 8, 8), bool] */;
  %712 = greater_equal(%70, meta[relay.Constant][14] /* ty=int8 */) /* ty=Tensor[(1, 24, 8, 8), bool] */;
  %713 = less_equal(%70, meta[relay.Constant][15] /* ty=int8 */) /* ty=Tensor[(1, 24, 8, 8), bool] */;
  %714 = nn.conv2d_transpose(%708, %v11_conv_0_weight, channels=24, kernel_size=[1, 1], padding=[0, 0, 0, 0], kernel_layout="IOHW", out_dtype="int32") /* ty=Tensor[(1, 24, 8, 8), int32] */;
  %715 = abs(%714) /* ty=Tensor[(1, 24, 8, 8), int32] */;
  %716 = max(%715, axis=[1], keepdims=True) /* ty=Tensor[(1, 1, 8, 8), int32] */;
  %717 = divide(%716, 127 /* ty=int32 */) /* ty=Tensor[(1, 1, 8, 8), int32] */;
  %718 = divide(%714, %717) /* ty=Tensor[(1, 24, 8, 8), int32] */;
  %719 = multiply(%712, %713) /* ty=Tensor[(1, 24, 8, 8), bool] */;
  %720 = cast(%718, dtype="int8") /* ty=Tensor[(1, 24, 8, 8), int8] */;
  %721 = zeros(shape=[1, 24, 8, 8], dtype="int8") /* ty=Tensor[(1, 24, 8, 8), int8] */;
  %722 = where(%719, %720, %721) /* ty=Tensor[(1, 24, 8, 8), int8] */;
  %723 = cast(%722, dtype="float32") /* ty=Tensor[(1, 24, 8, 8), float32] */;
  %724 = reshape(%v10_qadd_scale_y, newshape=[1, -1, 1, 1]) /* ty=Tensor[(1, 1, 1, 1), float32] */;
  %725 = divide(%723, %724) /* ty=Tensor[(1, 24, 8, 8), float32] */;
  %726 = reshape(%v10_qadd_scale_x2, newshape=[1, -1, 1, 1]) /* ty=Tensor[(1, 1, 1, 1), float32] */;
  %727 = multiply(%725, %726) /* ty=Tensor[(1, 24, 8, 8), float32] */;
  %728 = multiply(%710, %711) /* ty=Tensor[(1, 24, 8, 8), bool] */;
  %729 = cast(%727, dtype="int8") /* ty=Tensor[(1, 24, 8, 8), int8] */;
  %730 = zeros(shape=[1, 24, 8, 8], dtype="int8") /* ty=Tensor[(1, 24, 8, 8), int8] */;
  %731 = where(%728, %729, %730) /* ty=Tensor[(1, 24, 8, 8), int8] */;
  %732 = cast(%731, dtype="int32") /* ty=Tensor[(1, 24, 8, 8), int32] */;
  %733 = greater_equal(%66, -128 /* ty=int32 */) /* ty=Tensor[(1, 72, 8, 8), bool] */;
  %734 = less_equal(%66, 127 /* ty=int32 */) /* ty=Tensor[(1, 72, 8, 8), bool] */;
  %735 = nn.conv2d_transpose(%731, %v10_conv_2_weight, channels=72, kernel_size=[1, 1], padding=[0, 0, 0, 0], kernel_layout="IOHW", out_dtype="int32") /* ty=Tensor[(1, 72, 8, 8), int32] */;
  %736 = abs(%735) /* ty=Tensor[(1, 72, 8, 8), int32] */;
  %737 = max(%736, axis=[1], keepdims=True) /* ty=Tensor[(1, 1, 8, 8), int32] */;
  %738 = divide(%737, 127 /* ty=int32 */) /* ty=Tensor[(1, 1, 8, 8), int32] */;
  %739 = divide(%735, %738) /* ty=Tensor[(1, 72, 8, 8), int32] */;
  %740 = multiply(%733, %734) /* ty=Tensor[(1, 72, 8, 8), bool] */;
  %741 = cast(%739, dtype="int8") /* ty=Tensor[(1, 72, 8, 8), int8] */;
  %742 = zeros(shape=[1, 72, 8, 8], dtype="int8") /* ty=Tensor[(1, 72, 8, 8), int8] */;
  %743 = where(%740, %741, %742) /* ty=Tensor[(1, 72, 8, 8), int8] */;
  %744 = cast(%743, dtype="int32") /* ty=Tensor[(1, 72, 8, 8), int32] */;
  %745 = nn.cross_entropy_with_logits(%151, %label) /* ty=float32 */;
  %746 = sum(%165, axis=[1], exclude=True) /* ty=Tensor[(10), int32] */;
  %747 = cast(%177, dtype="int8") /* ty=Tensor[(10, 96, 1, 1), int8] */;
  %748 = sum(%194, axis=[1], exclude=True) /* ty=Tensor[(96), int32] */;
  %749 = sum(%207, axis=[1], exclude=True) /* ty=Tensor[(384), int32] */;
  %750 = sum(%219, axis=[1], exclude=True) /* ty=Tensor[(384), int32] */;
  %751 = cast(%230, dtype="int8") /* ty=Tensor[(384, 64, 1, 1), int8] */;
  %752 = sum(%253, axis=[1], exclude=True) /* ty=Tensor[(64), int32] */;
  %753 = sum(%265, axis=[1], exclude=True) /* ty=Tensor[(192), int32] */;
  %754 = sum(%277, axis=[1], exclude=True) /* ty=Tensor[(192), int32] */;
  %755 = cast(%288, dtype="int8") /* ty=Tensor[(192, 64, 1, 1), int8] */;
  %756 = sum(%311, axis=[1], exclude=True) /* ty=Tensor[(64), int32] */;
  %757 = sum(%323, axis=[1], exclude=True) /* ty=Tensor[(192), int32] */;
  %758 = sum(%335, axis=[1], exclude=True) /* ty=Tensor[(192), int32] */;
  %759 = cast(%346, dtype="int8") /* ty=Tensor[(192, 64, 1, 1), int8] */;
  %760 = sum(%369, axis=[1], exclude=True) /* ty=Tensor[(64), int32] */;
  %761 = sum(%381, axis=[1], exclude=True) /* ty=Tensor[(384), int32] */;
  %762 = sum(%393, axis=[1], exclude=True) /* ty=Tensor[(384), int32] */;
  %763 = cast(%405, dtype="int8") /* ty=Tensor[(384, 32, 1, 1), int8] */;
  %764 = sum(%417, axis=[1], exclude=True) /* ty=Tensor[(64), int32] */;
  %765 = sum(%429, axis=[1], exclude=True) /* ty=Tensor[(192), int32] */;
  %766 = sum(%441, axis=[1], exclude=True) /* ty=Tensor[(192), int32] */;
  %767 = cast(%452, dtype="int8") /* ty=Tensor[(192, 32, 1, 1), int8] */;
  %768 = sum(%475, axis=[1], exclude=True) /* ty=Tensor[(32), int32] */;
  %769 = sum(%487, axis=[1], exclude=True) /* ty=Tensor[(96), int32] */;
  %770 = sum(%499, axis=[1], exclude=True) /* ty=Tensor[(96), int32] */;
  %771 = cast(%510, dtype="int8") /* ty=Tensor[(96, 32, 1, 1), int8] */;
  %772 = sum(%533, axis=[1], exclude=True) /* ty=Tensor[(32), int32] */;
  %773 = sum(%545, axis=[1], exclude=True) /* ty=Tensor[(96), int32] */;
  %774 = sum(%557, axis=[1], exclude=True) /* ty=Tensor[(96), int32] */;
  %775 = cast(%568, dtype="int8") /* ty=Tensor[(96, 32, 1, 1), int8] */;
  %776 = sum(%591, axis=[1], exclude=True) /* ty=Tensor[(32), int32] */;
  %777 = sum(%603, axis=[1], exclude=True) /* ty=Tensor[(96), int32] */;
  %778 = sum(%615, axis=[1], exclude=True) /* ty=Tensor[(96), int32] */;
  %779 = cast(%626, dtype="int8") /* ty=Tensor[(96, 32, 1, 1), int8] */;
  %780 = sum(%638, axis=[1], exclude=True) /* ty=Tensor[(32), int32] */;
  %781 = sum(%650, axis=[1], exclude=True) /* ty=Tensor[(144), int32] */;
  %782 = sum(%662, axis=[1], exclude=True) /* ty=Tensor[(144), int32] */;
  %783 = sum(%685, axis=[1], exclude=True) /* ty=Tensor[(24), int32] */;
  %784 = sum(%697, axis=[1], exclude=True) /* ty=Tensor[(72), int32] */;
  %785 = sum(%709, axis=[1], exclude=True) /* ty=Tensor[(72), int32] */;
  %786 = sum(%732, axis=[1], exclude=True) /* ty=Tensor[(24), int32] */;
  %787 = sum(%744, axis=[1], exclude=True) /* ty=Tensor[(72), int32] */;
  (%745, %746, %747, %748, %749, %750, %751, %752, %753, %754, %755, %756, %757, %758, %759, %760, %761, %762, %763, %764, %765, %766, %767, %768, %769, %770, %771, %772, %773, %774, %775, %776, %777, %778, %779, %780, %781, %782, %783, %784, %785, %786, %787)
}

