def @main(%input: Tensor[(1, 3, 128, 128), int8], %v0_weight: Tensor[(16, 3, 3, 3), int8], %v0_bias: Tensor[(16), int32], %v0_zero_x: Tensor[(1), int8], %v0_zero_y: Tensor[(1), int8], %v0_scale: Tensor[(16), float32], %v1_conv_0_weight: Tensor[(16, 1, 3, 3), int8], %v1_conv_0_bias: Tensor[(16), int32], %v1_conv_0_zero_x: Tensor[(1), int8], %v1_conv_0_zero_y: Tensor[(1), int8], %v1_conv_0_scale: Tensor[(16), float32], %v1_conv_1_weight: Tensor[(8, 16, 1, 1), int8], %v1_conv_1_bias: Tensor[(8), int32], %v1_conv_1_zero_x: Tensor[(1), int8], %v1_conv_1_zero_y: Tensor[(1), int8], %v1_conv_1_scale: Tensor[(8), float32], %v2_conv_0_weight: Tensor[(32, 8, 1, 1), int8], %v2_conv_0_bias: Tensor[(32), int32], %v2_conv_0_zero_x: Tensor[(1), int8], %v2_conv_0_zero_y: Tensor[(1), int8], %v2_conv_0_scale: Tensor[(32), float32], %v2_conv_1_weight: Tensor[(32, 1, 3, 3), int8], %v2_conv_1_bias: Tensor[(32), int32], %v2_conv_1_zero_x: Tensor[(1), int8], %v2_conv_1_zero_y: Tensor[(1), int8], %v2_conv_1_scale: Tensor[(32), float32], %v2_conv_2_weight: Tensor[(16, 32, 1, 1), int8], %v2_conv_2_bias: Tensor[(16), int32], %v2_conv_2_zero_x: Tensor[(1), int8], %v2_conv_2_zero_y: Tensor[(1), int8], %v2_conv_2_scale: Tensor[(16), float32], %v3_conv_0_weight: Tensor[(48, 16, 1, 1), int8], %v3_conv_0_bias: Tensor[(48), int32], %v3_conv_0_zero_x: Tensor[(1), int8], %v3_conv_0_zero_y: Tensor[(1), int8], %v3_conv_0_scale: Tensor[(48), float32], %v3_conv_1_weight: Tensor[(48, 1, 3, 3), int8], %v3_conv_1_bias: Tensor[(48), int32], %v3_conv_1_zero_x: Tensor[(1), int8], %v3_conv_1_zero_y: Tensor[(1), int8], %v3_conv_1_scale: Tensor[(48), float32], %v3_conv_2_weight: Tensor[(16, 48, 1, 1), int8], %v3_conv_2_bias: Tensor[(16), int32], %v3_conv_2_zero_x: Tensor[(1), int8], %v3_conv_2_zero_y: Tensor[(1), int8], %v3_conv_2_scale: Tensor[(16), float32], %v3_qadd_zero_x1: Tensor[(1), int8], %v3_qadd_zero_x2: Tensor[(1), int8], %v3_qadd_scale_x1: Tensor[(1), float32], %v3_qadd_scale_x2: Tensor[(1), float32], %v3_qadd_zero_y: Tensor[(1), int8], %v3_qadd_scale_y: Tensor[(1), float32], %v4_conv_0_weight: Tensor[(48, 16, 1, 1), int8], %v4_conv_0_bias: Tensor[(48), int32], %v4_conv_0_zero_x: Tensor[(1), int8], %v4_conv_0_zero_y: Tensor[(1), int8], %v4_conv_0_scale: Tensor[(48), float32], %v4_conv_1_weight: Tensor[(48, 1, 7, 7), int8], %v4_conv_1_bias: Tensor[(48), int32], %v4_conv_1_zero_x: Tensor[(1), int8], %v4_conv_1_zero_y: Tensor[(1), int8], %v4_conv_1_scale: Tensor[(48), float32], %v4_conv_2_weight: Tensor[(24, 48, 1, 1), int8], %v4_conv_2_bias: Tensor[(24), int32], %v4_conv_2_zero_x: Tensor[(1), int8], %v4_conv_2_zero_y: Tensor[(1), int8], %v4_conv_2_scale: Tensor[(24), float32], %v5_conv_0_weight: Tensor[(120, 24, 1, 1), int8], %v5_conv_0_bias: Tensor[(120), int32], %v5_conv_0_zero_x: Tensor[(1), int8], %v5_conv_0_zero_y: Tensor[(1), int8], %v5_conv_0_scale: Tensor[(120), float32], %v5_conv_1_weight: Tensor[(120, 1, 3, 3), int8], %v5_conv_1_bias: Tensor[(120), int32], %v5_conv_1_zero_x: Tensor[(1), int8], %v5_conv_1_zero_y: Tensor[(1), int8], %v5_conv_1_scale: Tensor[(120), float32], %v5_conv_2_weight: Tensor[(24, 120, 1, 1), int8], %v5_conv_2_bias: Tensor[(24), int32], %v5_conv_2_zero_x: Tensor[(1), int8], %v5_conv_2_zero_y: Tensor[(1), int8], %v5_conv_2_scale: Tensor[(24), float32], %v5_qadd_zero_x1: Tensor[(1), int8], %v5_qadd_zero_x2: Tensor[(1), int8], %v5_qadd_scale_x1: Tensor[(1), float32], %v5_qadd_scale_x2: Tensor[(1), float32], %v5_qadd_zero_y: Tensor[(1), int8], %v5_qadd_scale_y: Tensor[(1), float32], %v6_conv_0_weight: Tensor[(120, 24, 1, 1), int8], %v6_conv_0_bias: Tensor[(120), int32], %v6_conv_0_zero_x: Tensor[(1), int8], %v6_conv_0_zero_y: Tensor[(1), int8], %v6_conv_0_scale: Tensor[(120), float32], %v6_conv_1_weight: Tensor[(120, 1, 3, 3), int8], %v6_conv_1_bias: Tensor[(120), int32], %v6_conv_1_zero_x: Tensor[(1), int8], %v6_conv_1_zero_y: Tensor[(1), int8], %v6_conv_1_scale: Tensor[(120), float32], %v6_conv_2_weight: Tensor[(40, 120, 1, 1), int8], %v6_conv_2_bias: Tensor[(40), int32], %v6_conv_2_zero_x: Tensor[(1), int8], %v6_conv_2_zero_y: Tensor[(1), int8], %v6_conv_2_scale: Tensor[(40), float32], %v7_conv_0_weight: Tensor[(160, 40, 1, 1), int8], %v7_conv_0_bias: Tensor[(160), int32], %v7_conv_0_zero_x: Tensor[(1), int8], %v7_conv_0_zero_y: Tensor[(1), int8], %v7_conv_0_scale: Tensor[(160), float32], %v7_conv_1_weight: Tensor[(160, 1, 7, 7), int8], %v7_conv_1_bias: Tensor[(160), int32], %v7_conv_1_zero_x: Tensor[(1), int8], %v7_conv_1_zero_y: Tensor[(1), int8], %v7_conv_1_scale: Tensor[(160), float32], %v7_conv_2_weight: Tensor[(40, 160, 1, 1), int8], %v7_conv_2_bias: Tensor[(40), int32], %v7_conv_2_zero_x: Tensor[(1), int8], %v7_conv_2_zero_y: Tensor[(1), int8], %v7_conv_2_scale: Tensor[(40), float32], %v7_qadd_zero_x1: Tensor[(1), int8], %v7_qadd_zero_x2: Tensor[(1), int8], %v7_qadd_scale_x1: Tensor[(1), float32], %v7_qadd_scale_x2: Tensor[(1), float32], %v7_qadd_zero_y: Tensor[(1), int8], %v7_qadd_scale_y: Tensor[(1), float32], %v8_conv_0_weight: Tensor[(160, 40, 1, 1), int8], %v8_conv_0_bias: Tensor[(160), int32], %v8_conv_0_zero_x: Tensor[(1), int8], %v8_conv_0_zero_y: Tensor[(1), int8], %v8_conv_0_scale: Tensor[(160), float32], %v8_conv_1_weight: Tensor[(160, 1, 5, 5), int8], %v8_conv_1_bias: Tensor[(160), int32], %v8_conv_1_zero_x: Tensor[(1), int8], %v8_conv_1_zero_y: Tensor[(1), int8], %v8_conv_1_scale: Tensor[(160), float32], %v8_conv_2_weight: Tensor[(48, 160, 1, 1), int8], %v8_conv_2_bias: Tensor[(48), int32], %v8_conv_2_zero_x: Tensor[(1), int8], %v8_conv_2_zero_y: Tensor[(1), int8], %v8_conv_2_scale: Tensor[(48), float32], %v9_conv_0_weight: Tensor[(144, 48, 1, 1), int8], %v9_conv_0_bias: Tensor[(144), int32], %v9_conv_0_zero_x: Tensor[(1), int8], %v9_conv_0_zero_y: Tensor[(1), int8], %v9_conv_0_scale: Tensor[(144), float32], %v9_conv_1_weight: Tensor[(144, 1, 3, 3), int8], %v9_conv_1_bias: Tensor[(144), int32], %v9_conv_1_zero_x: Tensor[(1), int8], %v9_conv_1_zero_y: Tensor[(1), int8], %v9_conv_1_scale: Tensor[(144), float32], %v9_conv_2_weight: Tensor[(48, 144, 1, 1), int8], %v9_conv_2_bias: Tensor[(48), int32], %v9_conv_2_zero_x: Tensor[(1), int8], %v9_conv_2_zero_y: Tensor[(1), int8], %v9_conv_2_scale: Tensor[(48), float32], %v9_qadd_zero_x1: Tensor[(1), int8], %v9_qadd_zero_x2: Tensor[(1), int8], %v9_qadd_scale_x1: Tensor[(1), float32], %v9_qadd_scale_x2: Tensor[(1), float32], %v9_qadd_zero_y: Tensor[(1), int8], %v9_qadd_scale_y: Tensor[(1), float32], %v10_conv_0_weight: Tensor[(192, 48, 1, 1), int8], %v10_conv_0_bias: Tensor[(192), int32], %v10_conv_0_zero_x: Tensor[(1), int8], %v10_conv_0_zero_y: Tensor[(1), int8], %v10_conv_0_scale: Tensor[(192), float32], %v10_conv_1_weight: Tensor[(192, 1, 3, 3), int8], %v10_conv_1_bias: Tensor[(192), int32], %v10_conv_1_zero_x: Tensor[(1), int8], %v10_conv_1_zero_y: Tensor[(1), int8], %v10_conv_1_scale: Tensor[(192), float32], %v10_conv_2_weight: Tensor[(48, 192, 1, 1), int8], %v10_conv_2_bias: Tensor[(48), int32], %v10_conv_2_zero_x: Tensor[(1), int8], %v10_conv_2_zero_y: Tensor[(1), int8], %v10_conv_2_scale: Tensor[(48), float32], %v10_qadd_zero_x1: Tensor[(1), int8], %v10_qadd_zero_x2: Tensor[(1), int8], %v10_qadd_scale_x1: Tensor[(1), float32], %v10_qadd_scale_x2: Tensor[(1), float32], %v10_qadd_zero_y: Tensor[(1), int8], %v10_qadd_scale_y: Tensor[(1), float32], %v11_conv_0_weight: Tensor[(240, 48, 1, 1), int8], %v11_conv_0_bias: Tensor[(240), int32], %v11_conv_0_zero_x: Tensor[(1), int8], %v11_conv_0_zero_y: Tensor[(1), int8], %v11_conv_0_scale: Tensor[(240), float32], %v11_conv_1_weight: Tensor[(240, 1, 7, 7), int8], %v11_conv_1_bias: Tensor[(240), int32], %v11_conv_1_zero_x: Tensor[(1), int8], %v11_conv_1_zero_y: Tensor[(1), int8], %v11_conv_1_scale: Tensor[(240), float32], %v11_conv_2_weight: Tensor[(96, 240, 1, 1), int8], %v11_conv_2_bias: Tensor[(96), int32], %v11_conv_2_zero_x: Tensor[(1), int8], %v11_conv_2_zero_y: Tensor[(1), int8], %v11_conv_2_scale: Tensor[(96), float32], %v12_conv_0_weight: Tensor[(384, 96, 1, 1), int8], %v12_conv_0_bias: Tensor[(384), int32], %v12_conv_0_zero_x: Tensor[(1), int8], %v12_conv_0_zero_y: Tensor[(1), int8], %v12_conv_0_scale: Tensor[(384), float32], %v12_conv_1_weight: Tensor[(384, 1, 5, 5), int8], %v12_conv_1_bias: Tensor[(384), int32], %v12_conv_1_zero_x: Tensor[(1), int8], %v12_conv_1_zero_y: Tensor[(1), int8], %v12_conv_1_scale: Tensor[(384), float32], %v12_conv_2_weight: Tensor[(96, 384, 1, 1), int8], %v12_conv_2_bias: Tensor[(96), int32], %v12_conv_2_zero_x: Tensor[(1), int8], %v12_conv_2_zero_y: Tensor[(1), int8], %v12_conv_2_scale: Tensor[(96), float32], %v12_qadd_zero_x1: Tensor[(1), int8], %v12_qadd_zero_x2: Tensor[(1), int8], %v12_qadd_scale_x1: Tensor[(1), float32], %v12_qadd_scale_x2: Tensor[(1), float32], %v12_qadd_zero_y: Tensor[(1), int8], %v12_qadd_scale_y: Tensor[(1), float32], %v13_conv_0_weight: Tensor[(384, 96, 1, 1), int8], %v13_conv_0_bias: Tensor[(384), int32], %v13_conv_0_zero_x: Tensor[(1), int8], %v13_conv_0_zero_y: Tensor[(1), int8], %v13_conv_0_scale: Tensor[(384), float32], %v13_conv_1_weight: Tensor[(384, 1, 5, 5), int8], %v13_conv_1_bias: Tensor[(384), int32], %v13_conv_1_zero_x: Tensor[(1), int8], %v13_conv_1_zero_y: Tensor[(1), int8], %v13_conv_1_scale: Tensor[(384), float32], %v13_conv_2_weight: Tensor[(96, 384, 1, 1), int8], %v13_conv_2_bias: Tensor[(96), int32], %v13_conv_2_zero_x: Tensor[(1), int8], %v13_conv_2_zero_y: Tensor[(1), int8], %v13_conv_2_scale: Tensor[(96), float32], %v13_qadd_zero_x1: Tensor[(1), int8], %v13_qadd_zero_x2: Tensor[(1), int8], %v13_qadd_scale_x1: Tensor[(1), float32], %v13_qadd_scale_x2: Tensor[(1), float32], %v13_qadd_zero_y: Tensor[(1), int8], %v13_qadd_scale_y: Tensor[(1), float32], %v14_conv_0_weight: Tensor[(576, 96, 1, 1), int8], %v14_conv_0_bias: Tensor[(576), int32], %v14_conv_0_zero_x: Tensor[(1), int8], %v14_conv_0_zero_y: Tensor[(1), int8], %v14_conv_0_scale: Tensor[(576), float32], %v14_conv_1_weight: Tensor[(576, 1, 3, 3), int8], %v14_conv_1_bias: Tensor[(576), int32], %v14_conv_1_zero_x: Tensor[(1), int8], %v14_conv_1_zero_y: Tensor[(1), int8], %v14_conv_1_scale: Tensor[(576), float32], %v14_conv_2_weight: Tensor[(160, 576, 1, 1), int8], %v14_conv_2_bias: Tensor[(160), int32], %v14_conv_2_zero_x: Tensor[(1), int8], %v14_conv_2_zero_y: Tensor[(1), int8], %v14_conv_2_scale: Tensor[(160), float32], %v15_weight: Tensor[(10, 160, 1, 1), int8], %v15_bias: Tensor[(10), int32], %v15_zero_x: Tensor[(1), int8], %v15_zero_y: Tensor[(1), int8], %v15_scale: Tensor[(10), float32], %label: Tensor[(1, 10), float32]) -> (float32, Tensor[(10), int32], Tensor[(10, 160, 1, 1), int8], Tensor[(160), int32], Tensor[(576), int32], Tensor[(576), float32], Tensor[(576, 48, 1, 1), float32], Tensor[(96), int32], Tensor[(384), int32], Tensor[(384), int32], Tensor[(96), int32], Tensor[(384), int32], Tensor[(384), float32], Tensor[(384, 48, 1, 1), float32], Tensor[(96), int32], Tensor[(240), int32], Tensor[(240), int32], Tensor[(240, 48, 1, 1), int8], Tensor[(48), int32], Tensor[(192), int32], Tensor[(192), int32], Tensor[(192, 48, 1, 1), int8], Tensor[(48), int32], Tensor[(144), int32], Tensor[(144), int32], Tensor[(144, 48, 1, 1), int8], Tensor[(48), int32], Tensor[(160), int32], Tensor[(160), float32], Tensor[(160, 10, 1, 1), float32], Tensor[(40), int32], Tensor[(160), int32], Tensor[(160), int32]) {
  %0 = nn.mcuconv2d(%input, %v0_weight, %v0_bias, %v0_zero_x, %v0_zero_y, %v0_scale, strides=[2, 2], padding=[1, 1, 1, 1]) /* ty=Tensor[(1, 16, 64, 64), int32] */;
  %1 = nn.mcutruncate(%0) /* ty=Tensor[(1, 16, 64, 64), int8] */;
  %2 = nn.mcuconv2d(%1, %v1_conv_0_weight, %v1_conv_0_bias, %v1_conv_0_zero_x, %v1_conv_0_zero_y, %v1_conv_0_scale, padding=[1, 1, 1, 1], groups=16) /* ty=Tensor[(1, 16, 64, 64), int32] */;
  %3 = nn.mcutruncate(%2) /* ty=Tensor[(1, 16, 64, 64), int8] */;
  %4 = nn.mcuconv2d(%3, %v1_conv_1_weight, %v1_conv_1_bias, %v1_conv_1_zero_x, %v1_conv_1_zero_y, %v1_conv_1_scale, padding=[0, 0, 0, 0]) /* ty=Tensor[(1, 8, 64, 64), int32] */;
  %5 = nn.mcutruncate(%4) /* ty=Tensor[(1, 8, 64, 64), int8] */;
  %6 = nn.mcuconv2d(%5, %v2_conv_0_weight, %v2_conv_0_bias, %v2_conv_0_zero_x, %v2_conv_0_zero_y, %v2_conv_0_scale, padding=[0, 0, 0, 0]) /* ty=Tensor[(1, 32, 64, 64), int32] */;
  %7 = nn.mcutruncate(%6) /* ty=Tensor[(1, 32, 64, 64), int8] */;
  %8 = nn.mcuconv2d(%7, %v2_conv_1_weight, %v2_conv_1_bias, %v2_conv_1_zero_x, %v2_conv_1_zero_y, %v2_conv_1_scale, strides=[2, 2], padding=[1, 1, 1, 1], groups=32) /* ty=Tensor[(1, 32, 32, 32), int32] */;
  %9 = nn.mcutruncate(%8) /* ty=Tensor[(1, 32, 32, 32), int8] */;
  %10 = nn.mcuconv2d(%9, %v2_conv_2_weight, %v2_conv_2_bias, %v2_conv_2_zero_x, %v2_conv_2_zero_y, %v2_conv_2_scale, padding=[0, 0, 0, 0]) /* ty=Tensor[(1, 16, 32, 32), int32] */;
  %11 = nn.mcutruncate(%10) /* ty=Tensor[(1, 16, 32, 32), int8] */;
  %12 = nn.mcuconv2d(%11, %v3_conv_0_weight, %v3_conv_0_bias, %v3_conv_0_zero_x, %v3_conv_0_zero_y, %v3_conv_0_scale, padding=[0, 0, 0, 0]) /* ty=Tensor[(1, 48, 32, 32), int32] */;
  %13 = nn.mcutruncate(%12) /* ty=Tensor[(1, 48, 32, 32), int8] */;
  %14 = nn.mcuconv2d(%13, %v3_conv_1_weight, %v3_conv_1_bias, %v3_conv_1_zero_x, %v3_conv_1_zero_y, %v3_conv_1_scale, padding=[1, 1, 1, 1], groups=48) /* ty=Tensor[(1, 48, 32, 32), int32] */;
  %15 = nn.mcutruncate(%14) /* ty=Tensor[(1, 48, 32, 32), int8] */;
  %16 = nn.mcuconv2d(%15, %v3_conv_2_weight, %v3_conv_2_bias, %v3_conv_2_zero_x, %v3_conv_2_zero_y, %v3_conv_2_scale, padding=[0, 0, 0, 0]) /* ty=Tensor[(1, 16, 32, 32), int32] */;
  %17 = nn.mcutruncate(%16) /* ty=Tensor[(1, 16, 32, 32), int8] */;
  %18 = nn.mcuadd(%11, %17, %v3_qadd_zero_x1, %v3_qadd_zero_x2, %v3_qadd_scale_x1, %v3_qadd_scale_x2, %v3_qadd_zero_y, %v3_qadd_scale_y, axis=0) /* ty=Tensor[(1, 16, 32, 32), int8] */;
  %19 = nn.mcutruncate(%18) /* ty=Tensor[(1, 16, 32, 32), int8] */;
  %20 = nn.mcuconv2d(%19, %v4_conv_0_weight, %v4_conv_0_bias, %v4_conv_0_zero_x, %v4_conv_0_zero_y, %v4_conv_0_scale, padding=[0, 0, 0, 0]) /* ty=Tensor[(1, 48, 32, 32), int32] */;
  %21 = nn.mcutruncate(%20) /* ty=Tensor[(1, 48, 32, 32), int8] */;
  %22 = nn.mcuconv2d(%21, %v4_conv_1_weight, %v4_conv_1_bias, %v4_conv_1_zero_x, %v4_conv_1_zero_y, %v4_conv_1_scale, strides=[2, 2], padding=[3, 3, 3, 3], groups=48) /* ty=Tensor[(1, 48, 16, 16), int32] */;
  %23 = nn.mcutruncate(%22) /* ty=Tensor[(1, 48, 16, 16), int8] */;
  %24 = nn.mcuconv2d(%23, %v4_conv_2_weight, %v4_conv_2_bias, %v4_conv_2_zero_x, %v4_conv_2_zero_y, %v4_conv_2_scale, padding=[0, 0, 0, 0]) /* ty=Tensor[(1, 24, 16, 16), int32] */;
  %25 = nn.mcutruncate(%24) /* ty=Tensor[(1, 24, 16, 16), int8] */;
  %26 = nn.mcuconv2d(%25, %v5_conv_0_weight, %v5_conv_0_bias, %v5_conv_0_zero_x, %v5_conv_0_zero_y, %v5_conv_0_scale, padding=[0, 0, 0, 0]) /* ty=Tensor[(1, 120, 16, 16), int32] */;
  %27 = nn.mcutruncate(%26) /* ty=Tensor[(1, 120, 16, 16), int8] */;
  %28 = nn.mcuconv2d(%27, %v5_conv_1_weight, %v5_conv_1_bias, %v5_conv_1_zero_x, %v5_conv_1_zero_y, %v5_conv_1_scale, padding=[1, 1, 1, 1], groups=120) /* ty=Tensor[(1, 120, 16, 16), int32] */;
  %29 = nn.mcutruncate(%28) /* ty=Tensor[(1, 120, 16, 16), int8] */;
  %30 = nn.mcuconv2d(%29, %v5_conv_2_weight, %v5_conv_2_bias, %v5_conv_2_zero_x, %v5_conv_2_zero_y, %v5_conv_2_scale, padding=[0, 0, 0, 0]) /* ty=Tensor[(1, 24, 16, 16), int32] */;
  %31 = nn.mcutruncate(%30) /* ty=Tensor[(1, 24, 16, 16), int8] */;
  %32 = nn.mcuadd(%25, %31, %v5_qadd_zero_x1, %v5_qadd_zero_x2, %v5_qadd_scale_x1, %v5_qadd_scale_x2, %v5_qadd_zero_y, %v5_qadd_scale_y, axis=0) /* ty=Tensor[(1, 24, 16, 16), int8] */;
  %33 = nn.mcutruncate(%32) /* ty=Tensor[(1, 24, 16, 16), int8] */;
  %34 = nn.mcuconv2d(%33, %v6_conv_0_weight, %v6_conv_0_bias, %v6_conv_0_zero_x, %v6_conv_0_zero_y, %v6_conv_0_scale, padding=[0, 0, 0, 0]) /* ty=Tensor[(1, 120, 16, 16), int32] */;
  %35 = nn.mcutruncate(%34) /* ty=Tensor[(1, 120, 16, 16), int8] */;
  %36 = nn.mcuconv2d(%35, %v6_conv_1_weight, %v6_conv_1_bias, %v6_conv_1_zero_x, %v6_conv_1_zero_y, %v6_conv_1_scale, strides=[2, 2], padding=[1, 1, 1, 1], groups=120) /* ty=Tensor[(1, 120, 8, 8), int32] */;
  %37 = nn.mcutruncate(%36) /* ty=Tensor[(1, 120, 8, 8), int8] */;
  %38 = nn.mcuconv2d(%37, %v6_conv_2_weight, %v6_conv_2_bias, %v6_conv_2_zero_x, %v6_conv_2_zero_y, %v6_conv_2_scale, padding=[0, 0, 0, 0]) /* ty=Tensor[(1, 40, 8, 8), int32] */;
  %39 = nn.mcutruncate(%38) /* ty=Tensor[(1, 40, 8, 8), int8] */;
  %40 = nn.mcuconv2d(%39, %v7_conv_0_weight, %v7_conv_0_bias, %v7_conv_0_zero_x, %v7_conv_0_zero_y, %v7_conv_0_scale, padding=[0, 0, 0, 0]) /* ty=Tensor[(1, 160, 8, 8), int32] */;
  %41 = nn.mcutruncate(%40) /* ty=Tensor[(1, 160, 8, 8), int8] */;
  %42 = nn.mcuconv2d(%41, %v7_conv_1_weight, %v7_conv_1_bias, %v7_conv_1_zero_x, %v7_conv_1_zero_y, %v7_conv_1_scale, padding=[3, 3, 3, 3], groups=160) /* ty=Tensor[(1, 160, 8, 8), int32] */;
  %43 = nn.mcutruncate(%42) /* ty=Tensor[(1, 160, 8, 8), int8] */;
  %44 = nn.mcuconv2d(%43, %v7_conv_2_weight, %v7_conv_2_bias, %v7_conv_2_zero_x, %v7_conv_2_zero_y, %v7_conv_2_scale, padding=[0, 0, 0, 0]) /* ty=Tensor[(1, 40, 8, 8), int32] */;
  %45 = nn.mcutruncate(%44) /* ty=Tensor[(1, 40, 8, 8), int8] */;
  %46 = nn.mcuadd(%39, %45, %v7_qadd_zero_x1, %v7_qadd_zero_x2, %v7_qadd_scale_x1, %v7_qadd_scale_x2, %v7_qadd_zero_y, %v7_qadd_scale_y, axis=0) /* ty=Tensor[(1, 40, 8, 8), int8] */;
  %47 = nn.mcutruncate(%46) /* ty=Tensor[(1, 40, 8, 8), int8] */;
  %48 = nn.mcuconv2d(%47, %v8_conv_0_weight, %v8_conv_0_bias, %v8_conv_0_zero_x, %v8_conv_0_zero_y, %v8_conv_0_scale, padding=[0, 0, 0, 0]) /* ty=Tensor[(1, 160, 8, 8), int32] */;
  %49 = nn.mcutruncate(%48) /* ty=Tensor[(1, 160, 8, 8), int8] */;
  %50 = nn.mcuconv2d(%49, %v8_conv_1_weight, %v8_conv_1_bias, %v8_conv_1_zero_x, %v8_conv_1_zero_y, %v8_conv_1_scale, padding=[2, 2, 2, 2], groups=160) /* ty=Tensor[(1, 160, 8, 8), int32] */;
  %51 = nn.mcutruncate(%50) /* ty=Tensor[(1, 160, 8, 8), int8] */;
  %52 = nn.mcuconv2d(%51, %v8_conv_2_weight, %v8_conv_2_bias, %v8_conv_2_zero_x, %v8_conv_2_zero_y, %v8_conv_2_scale, padding=[0, 0, 0, 0]) /* ty=Tensor[(1, 48, 8, 8), int32] */;
  %53 = nn.mcutruncate(%52) /* ty=Tensor[(1, 48, 8, 8), int8] */;
  %54 = nn.mcuconv2d(%53, %v9_conv_0_weight, %v9_conv_0_bias, %v9_conv_0_zero_x, %v9_conv_0_zero_y, %v9_conv_0_scale, padding=[0, 0, 0, 0]) /* ty=Tensor[(1, 144, 8, 8), int32] */;
  %55 = nn.mcutruncate(%54) /* ty=Tensor[(1, 144, 8, 8), int8] */;
  %56 = nn.mcuconv2d(%55, %v9_conv_1_weight, %v9_conv_1_bias, %v9_conv_1_zero_x, %v9_conv_1_zero_y, %v9_conv_1_scale, padding=[1, 1, 1, 1], groups=144) /* ty=Tensor[(1, 144, 8, 8), int32] */;
  %57 = nn.mcutruncate(%56) /* ty=Tensor[(1, 144, 8, 8), int8] */;
  %58 = nn.mcuconv2d(%57, %v9_conv_2_weight, %v9_conv_2_bias, %v9_conv_2_zero_x, %v9_conv_2_zero_y, %v9_conv_2_scale, padding=[0, 0, 0, 0]) /* ty=Tensor[(1, 48, 8, 8), int32] */;
  %59 = nn.mcutruncate(%58) /* ty=Tensor[(1, 48, 8, 8), int8] */;
  %60 = nn.mcuadd(%53, %59, %v9_qadd_zero_x1, %v9_qadd_zero_x2, %v9_qadd_scale_x1, %v9_qadd_scale_x2, %v9_qadd_zero_y, %v9_qadd_scale_y, axis=0) /* ty=Tensor[(1, 48, 8, 8), int8] */;
  %61 = nn.mcutruncate(%60) /* ty=Tensor[(1, 48, 8, 8), int8] */;
  %62 = nn.mcuconv2d(%61, %v10_conv_0_weight, %v10_conv_0_bias, %v10_conv_0_zero_x, %v10_conv_0_zero_y, %v10_conv_0_scale, padding=[0, 0, 0, 0]) /* ty=Tensor[(1, 192, 8, 8), int32] */;
  %63 = nn.mcutruncate(%62) /* ty=Tensor[(1, 192, 8, 8), int8] */;
  %64 = nn.mcuconv2d(%63, %v10_conv_1_weight, %v10_conv_1_bias, %v10_conv_1_zero_x, %v10_conv_1_zero_y, %v10_conv_1_scale, padding=[1, 1, 1, 1], groups=192) /* ty=Tensor[(1, 192, 8, 8), int32] */;
  %65 = nn.mcutruncate(%64) /* ty=Tensor[(1, 192, 8, 8), int8] */;
  %66 = nn.mcuconv2d(%65, %v10_conv_2_weight, %v10_conv_2_bias, %v10_conv_2_zero_x, %v10_conv_2_zero_y, %v10_conv_2_scale, padding=[0, 0, 0, 0]) /* ty=Tensor[(1, 48, 8, 8), int32] */;
  %67 = nn.mcutruncate(%66) /* ty=Tensor[(1, 48, 8, 8), int8] */;
  %68 = nn.mcuadd(%61, %67, %v10_qadd_zero_x1, %v10_qadd_zero_x2, %v10_qadd_scale_x1, %v10_qadd_scale_x2, %v10_qadd_zero_y, %v10_qadd_scale_y, axis=0) /* ty=Tensor[(1, 48, 8, 8), int8] */;
  %69 = nn.mcutruncate(%68) /* ty=Tensor[(1, 48, 8, 8), int8] */;
  %70 = nn.mcuconv2d(%69, %v11_conv_0_weight, %v11_conv_0_bias, %v11_conv_0_zero_x, %v11_conv_0_zero_y, %v11_conv_0_scale, padding=[0, 0, 0, 0]) /* ty=Tensor[(1, 240, 8, 8), int32] */;
  %71 = nn.mcutruncate(%70) /* ty=Tensor[(1, 240, 8, 8), int8] */;
  %72 = nn.mcuconv2d(%71, %v11_conv_1_weight, %v11_conv_1_bias, %v11_conv_1_zero_x, %v11_conv_1_zero_y, %v11_conv_1_scale, strides=[2, 2], padding=[3, 3, 3, 3], groups=240) /* ty=Tensor[(1, 240, 4, 4), int32] */;
  %73 = nn.mcutruncate(%72) /* ty=Tensor[(1, 240, 4, 4), int8] */;
  %74 = nn.mcuconv2d(%73, %v11_conv_2_weight, %v11_conv_2_bias, %v11_conv_2_zero_x, %v11_conv_2_zero_y, %v11_conv_2_scale, padding=[0, 0, 0, 0]) /* ty=Tensor[(1, 96, 4, 4), int32] */;
  %75 = nn.mcutruncate(%74) /* ty=Tensor[(1, 96, 4, 4), int8] */;
  %76 = nn.mcuconv2d(%75, %v12_conv_0_weight, %v12_conv_0_bias, %v12_conv_0_zero_x, %v12_conv_0_zero_y, %v12_conv_0_scale, padding=[0, 0, 0, 0]) /* ty=Tensor[(1, 384, 4, 4), int32] */;
  %77 = nn.mcutruncate(%76) /* ty=Tensor[(1, 384, 4, 4), int8] */;
  %78 = nn.mcuconv2d(%77, %v12_conv_1_weight, %v12_conv_1_bias, %v12_conv_1_zero_x, %v12_conv_1_zero_y, %v12_conv_1_scale, padding=[2, 2, 2, 2], groups=384) /* ty=Tensor[(1, 384, 4, 4), int32] */;
  %79 = nn.mcutruncate(%78) /* ty=Tensor[(1, 384, 4, 4), int8] */;
  %80 = nn.mcuconv2d(%79, %v12_conv_2_weight, %v12_conv_2_bias, %v12_conv_2_zero_x, %v12_conv_2_zero_y, %v12_conv_2_scale, padding=[0, 0, 0, 0]) /* ty=Tensor[(1, 96, 4, 4), int32] */;
  %81 = nn.mcutruncate(%80) /* ty=Tensor[(1, 96, 4, 4), int8] */;
  %82 = nn.mcuadd(%75, %81, %v12_qadd_zero_x1, %v12_qadd_zero_x2, %v12_qadd_scale_x1, %v12_qadd_scale_x2, %v12_qadd_zero_y, %v12_qadd_scale_y, axis=0) /* ty=Tensor[(1, 96, 4, 4), int8] */;
  %83 = nn.mcutruncate(%82) /* ty=Tensor[(1, 96, 4, 4), int8] */;
  %84 = nn.mcuconv2d(%83, %v13_conv_0_weight, %v13_conv_0_bias, %v13_conv_0_zero_x, %v13_conv_0_zero_y, %v13_conv_0_scale, padding=[0, 0, 0, 0]) /* ty=Tensor[(1, 384, 4, 4), int32] */;
  %85 = nn.mcutruncate(%84) /* ty=Tensor[(1, 384, 4, 4), int8] */;
  %86 = nn.mcuconv2d(%85, %v13_conv_1_weight, %v13_conv_1_bias, %v13_conv_1_zero_x, %v13_conv_1_zero_y, %v13_conv_1_scale, padding=[2, 2, 2, 2], groups=384) /* ty=Tensor[(1, 384, 4, 4), int32] */;
  %87 = nn.mcutruncate(%86) /* ty=Tensor[(1, 384, 4, 4), int8] */;
  %88 = nn.mcuconv2d(%87, %v13_conv_2_weight, %v13_conv_2_bias, %v13_conv_2_zero_x, %v13_conv_2_zero_y, %v13_conv_2_scale, padding=[0, 0, 0, 0]) /* ty=Tensor[(1, 96, 4, 4), int32] */;
  %89 = nn.mcutruncate(%88) /* ty=Tensor[(1, 96, 4, 4), int8] */;
  %90 = nn.mcuadd(%83, %89, %v13_qadd_zero_x1, %v13_qadd_zero_x2, %v13_qadd_scale_x1, %v13_qadd_scale_x2, %v13_qadd_zero_y, %v13_qadd_scale_y, axis=0) /* ty=Tensor[(1, 96, 4, 4), int8] */;
  %91 = nn.mcutruncate(%90) /* ty=Tensor[(1, 96, 4, 4), int8] */;
  %92 = nn.mcuconv2d(%91, %v14_conv_0_weight, %v14_conv_0_bias, %v14_conv_0_zero_x, %v14_conv_0_zero_y, %v14_conv_0_scale, padding=[0, 0, 0, 0]) /* ty=Tensor[(1, 576, 4, 4), int32] */;
  %93 = nn.mcutruncate(%92) /* ty=Tensor[(1, 576, 4, 4), int8] */;
  %94 = nn.mcuconv2d(%93, %v14_conv_1_weight, %v14_conv_1_bias, %v14_conv_1_zero_x, %v14_conv_1_zero_y, %v14_conv_1_scale, padding=[1, 1, 1, 1], groups=576) /* ty=Tensor[(1, 576, 4, 4), int32] */;
  %95 = nn.mcutruncate(%94) /* ty=Tensor[(1, 576, 4, 4), int8] */;
  %96 = nn.mcuconv2d(%95, %v14_conv_2_weight, %v14_conv_2_bias, %v14_conv_2_zero_x, %v14_conv_2_zero_y, %v14_conv_2_scale, padding=[0, 0, 0, 0]) /* ty=Tensor[(1, 160, 4, 4), int32] */;
  %97 = nn.mcutruncate(%96) /* ty=Tensor[(1, 160, 4, 4), int8] */;
  %98 = mcumean(%97, axis=[2, 3], keepdims=True) /* ty=Tensor[(1, 160, 1, 1), int8] */;
  %99 = nn.mcuconv2d(%98, %v15_weight, %v15_bias, %v15_zero_x, %v15_zero_y, %v15_scale, padding=[0, 0, 0, 0]) /* ty=Tensor[(1, 10, 1, 1), int32] */;
  %100 = nn.mcutruncate(%99) /* ty=Tensor[(1, 10, 1, 1), int8] */;
  %101 = reshape(%100, newshape=[0, 0]) /* ty=Tensor[(1, 10), int8] */;
  %102 = cast(%101, dtype="float32") /* ty=Tensor[(1, 10), float32] */;
  %103 = nn.log_softmax(%102) /* ty=Tensor[(1, 10), float32] */;
  %104 = greater_equal(%99, -128 /* ty=int32 */) /* ty=Tensor[(1, 10, 1, 1), bool] */;
  %105 = less_equal(%99, 127 /* ty=int32 */) /* ty=Tensor[(1, 10, 1, 1), bool] */;
  %106 = ones(shape=[], dtype="float32") /* ty=float32 */;
  %107 = negative(%106) /* ty=float32 */;
  %108 = multiply(%107, %label) /* ty=Tensor[(1, 10), float32] */;
  %109 = sum(%108, axis=[-1], keepdims=True) /* ty=Tensor[(1, 1), float32] */;
  %110 = exp(%103) /* ty=Tensor[(1, 10), float32] */;
  %111 = multiply(%109, %110) /* ty=Tensor[(1, 10), float32] */;
  %112 = subtract(%108, %111) /* ty=Tensor[(1, 10), float32] */;
  %113 = multiply(%104, %105) /* ty=Tensor[(1, 10, 1, 1), bool] */;
  %114 = reshape(%112, newshape=[1, 10, 1, 1]) /* ty=Tensor[(1, 10, 1, 1), float32] */;
  %115 = zeros(shape=[1, 10, 1, 1], dtype="float32") /* ty=Tensor[(1, 10, 1, 1), float32] */;
  %116 = where(%113, %114, %115) /* ty=Tensor[(1, 10, 1, 1), float32] */;
  %117 = cast(%116, dtype="int32") /* ty=Tensor[(1, 10, 1, 1), int32] */;
  %118 = reshape(%98, newshape=[1, -1, 0, 0]) /* ty=Tensor[(1, 160, 1, 1), int8] */;
  %119 = tile(%116, reps=[1, 160, 1, 1]) /* ty=Tensor[(1, 1600, 1, 1), float32] */;
  %120 = cast(%118, dtype="float32") /* ty=Tensor[(1, 160, 1, 1), float32] */;
  %121 = reshape(%119, newshape=[-1, 1, 0, 0]) /* ty=Tensor[(1600, 1, 1, 1), float32] */;
  %122 = nn.conv2d(%120, %121, padding=[0, 0, 0, 0], groups=160, out_dtype="float32") /* ty=Tensor[(1, 1600, 1, 1), float32] */;
  %123 = reshape(%122, newshape=[1, 160, 10, 1, 1]) /* ty=Tensor[(1, 160, 10, 1, 1), float32] */;
  %124 = sum(%123, axis=[0]) /* ty=Tensor[(160, 10, 1, 1), float32] */;
  %125 = transpose(%124, axes=[1, 0, 2, 3]) /* ty=Tensor[(10, 160, 1, 1), float32] */;
  %126 = abs(%125) /* ty=Tensor[(10, 160, 1, 1), float32] */;
  %127 = max(%126, axis=[1], keepdims=True) /* ty=Tensor[(10, 1, 1, 1), float32] */;
  %128 = divide(%127, 127f /* ty=float32 */) /* ty=Tensor[(10, 1, 1, 1), float32] */;
  %129 = divide(%125, %128) /* ty=Tensor[(10, 160, 1, 1), float32] */;
  %130 = greater_equal(%96, -128 /* ty=int32 */) /* ty=Tensor[(1, 160, 4, 4), bool] */;
  %131 = less_equal(%96, 127 /* ty=int32 */) /* ty=Tensor[(1, 160, 4, 4), bool] */;
  %132 = cast(%v15_weight, dtype="float32") /* ty=Tensor[(10, 160, 1, 1), float32] */;
  %133 = nn.conv2d_transpose(%116, %132, channels=160, kernel_size=[1, 1], padding=[0, 0, 0, 0], kernel_layout="IOHW", out_dtype="float32") /* ty=Tensor[(1, 160, 1, 1), float32] */;
  %134 = abs(%133) /* ty=Tensor[(1, 160, 1, 1), float32] */;
  %135 = max(%134, axis=[1], keepdims=True) /* ty=Tensor[(1, 1, 1, 1), float32] */;
  %136 = divide(%135, 127f /* ty=float32 */) /* ty=Tensor[(1, 1, 1, 1), float32] */;
  %137 = divide(%133, %136) /* ty=Tensor[(1, 160, 1, 1), float32] */;
  %138 = cast(%137, dtype="int8") /* ty=Tensor[(1, 160, 1, 1), int8] */;
  %139 = cast(%138, dtype="float32") /* ty=Tensor[(1, 160, 1, 1), float32] */;
  %140 = multiply(%139, 0.0625f /* ty=float32 */) /* ty=Tensor[(1, 160, 1, 1), float32] */;
  %141 = ones(shape=[1, 160, 4, 4], dtype="float32") /* ty=Tensor[(1, 160, 4, 4), float32] */;
  %142 = multiply(%130, %131) /* ty=Tensor[(1, 160, 4, 4), bool] */;
  %143 = multiply(%140, %141) /* ty=Tensor[(1, 160, 4, 4), float32] */;
  %144 = zeros(shape=[1, 160, 4, 4], dtype="float32") /* ty=Tensor[(1, 160, 4, 4), float32] */;
  %145 = where(%142, %143, %144) /* ty=Tensor[(1, 160, 4, 4), float32] */;
  %146 = cast(%145, dtype="int32") /* ty=Tensor[(1, 160, 4, 4), int32] */;
  %147 = greater_equal(%94, -128 /* ty=int32 */) /* ty=Tensor[(1, 576, 4, 4), bool] */;
  %148 = less_equal(%94, 127 /* ty=int32 */) /* ty=Tensor[(1, 576, 4, 4), bool] */;
  %149 = cast(%v14_conv_2_weight, dtype="float32") /* ty=Tensor[(160, 576, 1, 1), float32] */;
  %150 = nn.conv2d_transpose(%145, %149, channels=576, kernel_size=[1, 1], padding=[0, 0, 0, 0], kernel_layout="IOHW", out_dtype="float32") /* ty=Tensor[(1, 576, 4, 4), float32] */;
  %151 = abs(%150) /* ty=Tensor[(1, 576, 4, 4), float32] */;
  %152 = max(%151, axis=[1], keepdims=True) /* ty=Tensor[(1, 1, 4, 4), float32] */;
  %153 = divide(%152, 127f /* ty=float32 */) /* ty=Tensor[(1, 1, 4, 4), float32] */;
  %154 = divide(%150, %153) /* ty=Tensor[(1, 576, 4, 4), float32] */;
  %155 = multiply(%147, %148) /* ty=Tensor[(1, 576, 4, 4), bool] */;
  %156 = cast(%154, dtype="int8") /* ty=Tensor[(1, 576, 4, 4), int8] */;
  %157 = zeros(shape=[1, 576, 4, 4], dtype="int8") /* ty=Tensor[(1, 576, 4, 4), int8] */;
  %158 = where(%155, %156, %157) /* ty=Tensor[(1, 576, 4, 4), int8] */;
  %159 = cast(%158, dtype="int32") /* ty=Tensor[(1, 576, 4, 4), int32] */;
  %160 = greater_equal(%92, -128 /* ty=int32 */) /* ty=Tensor[(1, 576, 4, 4), bool] */;
  %161 = less_equal(%92, 127 /* ty=int32 */) /* ty=Tensor[(1, 576, 4, 4), bool] */;
  %162 = nn.conv2d_transpose(%158, %v14_conv_1_weight, channels=576, kernel_size=[3, 3], padding=[1, 1, 1, 1], groups=576, kernel_layout="IOHW", out_dtype="int32") /* ty=Tensor[(1, 576, 4, 4), int32] */;
  %163 = abs(%162) /* ty=Tensor[(1, 576, 4, 4), int32] */;
  %164 = max(%163, axis=[1], keepdims=True) /* ty=Tensor[(1, 1, 4, 4), int32] */;
  %165 = divide(%164, 127 /* ty=int32 */) /* ty=Tensor[(1, 1, 4, 4), int32] */;
  %166 = divide(%162, %165) /* ty=Tensor[(1, 576, 4, 4), int32] */;
  %167 = multiply(%160, %161) /* ty=Tensor[(1, 576, 4, 4), bool] */;
  %168 = cast(%166, dtype="int8") /* ty=Tensor[(1, 576, 4, 4), int8] */;
  %169 = zeros(shape=[1, 576, 4, 4], dtype="int8") /* ty=Tensor[(1, 576, 4, 4), int8] */;
  %170 = where(%167, %168, %169) /* ty=Tensor[(1, 576, 4, 4), int8] */;
  %171 = cast(%170, dtype="float32") /* ty=Tensor[(1, 576, 4, 4), float32] */;
  %172 = reshape(%v14_conv_0_scale, newshape=[1, -1, 1, 1]) /* ty=Tensor[(1, 576, 1, 1), float32] */;
  %173 = multiply(%171, %172) /* ty=Tensor[(1, 576, 4, 4), float32] */;
  %174 = cast(%91, dtype="float32") /* ty=Tensor[(1, 96, 4, 4), float32] */;
  %175 = strided_slice(%174, begin=[0, 0, 0, 0], end=[1, 48, 4, 4], strides=[1], axes=None) /* ty=Tensor[(1, 48, 4, 4), float32] */;
  %176 = tile(%173, reps=[1, 48, 1, 1]) /* ty=Tensor[(1, 27648, 4, 4), float32] */;
  %177 = reshape(%175, newshape=[1, -1, 0, 0]) /* ty=Tensor[(1, 48, 4, 4), float32] */;
  %178 = reshape(%176, newshape=[-1, 1, 0, 0]) /* ty=Tensor[(27648, 1, 4, 4), float32] */;
  %179 = nn.conv2d(%177, %178, padding=[0, 0, 0, 0], groups=48) /* ty=Tensor[(1, 27648, 1, 1), float32] */;
  %180 = reshape(%179, newshape=[1, 48, 576, 1, 1]) /* ty=Tensor[(1, 48, 576, 1, 1), float32] */;
  %181 = sum(%180, axis=[0]) /* ty=Tensor[(48, 576, 1, 1), float32] */;
  %182 = greater_equal(%88, -128 /* ty=int32 */) /* ty=Tensor[(1, 96, 4, 4), bool] */;
  %183 = less_equal(%88, 127 /* ty=int32 */) /* ty=Tensor[(1, 96, 4, 4), bool] */;
  %184 = greater_equal(%90, meta[relay.Constant][0] /* ty=int8 */) /* ty=Tensor[(1, 96, 4, 4), bool] */;
  %185 = less_equal(%90, meta[relay.Constant][1] /* ty=int8 */) /* ty=Tensor[(1, 96, 4, 4), bool] */;
  %186 = cast(%v14_conv_0_weight, dtype="float32") /* ty=Tensor[(576, 96, 1, 1), float32] */;
  %187 = multiply(%184, %185) /* ty=Tensor[(1, 96, 4, 4), bool] */;
  %188 = nn.conv2d_transpose(%173, %186, channels=96, kernel_size=[1, 1], padding=[0, 0, 0, 0], kernel_layout="IOHW") /* ty=Tensor[(1, 96, 4, 4), float32] */;
  %189 = zeros(shape=[1, 96, 4, 4], dtype="float32") /* ty=Tensor[(1, 96, 4, 4), float32] */;
  %190 = where(%187, %188, %189) /* ty=Tensor[(1, 96, 4, 4), float32] */;
  %191 = reshape(%v13_qadd_scale_y, newshape=[1, -1, 1, 1]) /* ty=Tensor[(1, 1, 1, 1), float32] */;
  %192 = divide(%190, %191) /* ty=Tensor[(1, 96, 4, 4), float32] */;
  %193 = reshape(%v13_qadd_scale_x2, newshape=[1, -1, 1, 1]) /* ty=Tensor[(1, 1, 1, 1), float32] */;
  %194 = multiply(%182, %183) /* ty=Tensor[(1, 96, 4, 4), bool] */;
  %195 = multiply(%192, %193) /* ty=Tensor[(1, 96, 4, 4), float32] */;
  %196 = zeros(shape=[1, 96, 4, 4], dtype="float32") /* ty=Tensor[(1, 96, 4, 4), float32] */;
  %197 = where(%194, %195, %196) /* ty=Tensor[(1, 96, 4, 4), float32] */;
  %198 = cast(%197, dtype="int32") /* ty=Tensor[(1, 96, 4, 4), int32] */;
  %199 = greater_equal(%86, -128 /* ty=int32 */) /* ty=Tensor[(1, 384, 4, 4), bool] */;
  %200 = less_equal(%86, 127 /* ty=int32 */) /* ty=Tensor[(1, 384, 4, 4), bool] */;
  %201 = cast(%v13_conv_2_weight, dtype="float32") /* ty=Tensor[(96, 384, 1, 1), float32] */;
  %202 = nn.conv2d_transpose(%197, %201, channels=384, kernel_size=[1, 1], padding=[0, 0, 0, 0], kernel_layout="IOHW", out_dtype="float32") /* ty=Tensor[(1, 384, 4, 4), float32] */;
  %203 = abs(%202) /* ty=Tensor[(1, 384, 4, 4), float32] */;
  %204 = max(%203, axis=[1], keepdims=True) /* ty=Tensor[(1, 1, 4, 4), float32] */;
  %205 = divide(%204, 127f /* ty=float32 */) /* ty=Tensor[(1, 1, 4, 4), float32] */;
  %206 = divide(%202, %205) /* ty=Tensor[(1, 384, 4, 4), float32] */;
  %207 = multiply(%199, %200) /* ty=Tensor[(1, 384, 4, 4), bool] */;
  %208 = cast(%206, dtype="int8") /* ty=Tensor[(1, 384, 4, 4), int8] */;
  %209 = zeros(shape=[1, 384, 4, 4], dtype="int8") /* ty=Tensor[(1, 384, 4, 4), int8] */;
  %210 = where(%207, %208, %209) /* ty=Tensor[(1, 384, 4, 4), int8] */;
  %211 = cast(%210, dtype="int32") /* ty=Tensor[(1, 384, 4, 4), int32] */;
  %212 = greater_equal(%84, -128 /* ty=int32 */) /* ty=Tensor[(1, 384, 4, 4), bool] */;
  %213 = less_equal(%84, 127 /* ty=int32 */) /* ty=Tensor[(1, 384, 4, 4), bool] */;
  %214 = nn.conv2d_transpose(%210, %v13_conv_1_weight, channels=384, kernel_size=[5, 5], padding=[2, 2, 2, 2], groups=384, kernel_layout="IOHW", out_dtype="int32") /* ty=Tensor[(1, 384, 4, 4), int32] */;
  %215 = abs(%214) /* ty=Tensor[(1, 384, 4, 4), int32] */;
  %216 = max(%215, axis=[1], keepdims=True) /* ty=Tensor[(1, 1, 4, 4), int32] */;
  %217 = divide(%216, 127 /* ty=int32 */) /* ty=Tensor[(1, 1, 4, 4), int32] */;
  %218 = divide(%214, %217) /* ty=Tensor[(1, 384, 4, 4), int32] */;
  %219 = multiply(%212, %213) /* ty=Tensor[(1, 384, 4, 4), bool] */;
  %220 = cast(%218, dtype="int8") /* ty=Tensor[(1, 384, 4, 4), int8] */;
  %221 = zeros(shape=[1, 384, 4, 4], dtype="int8") /* ty=Tensor[(1, 384, 4, 4), int8] */;
  %222 = where(%219, %220, %221) /* ty=Tensor[(1, 384, 4, 4), int8] */;
  %223 = cast(%222, dtype="int32") /* ty=Tensor[(1, 384, 4, 4), int32] */;
  %224 = greater_equal(%80, -128 /* ty=int32 */) /* ty=Tensor[(1, 96, 4, 4), bool] */;
  %225 = less_equal(%80, 127 /* ty=int32 */) /* ty=Tensor[(1, 96, 4, 4), bool] */;
  %226 = greater_equal(%82, meta[relay.Constant][2] /* ty=int8 */) /* ty=Tensor[(1, 96, 4, 4), bool] */;
  %227 = less_equal(%82, meta[relay.Constant][3] /* ty=int8 */) /* ty=Tensor[(1, 96, 4, 4), bool] */;
  %228 = nn.conv2d_transpose(%222, %v13_conv_0_weight, channels=96, kernel_size=[1, 1], padding=[0, 0, 0, 0], kernel_layout="IOHW", out_dtype="int32") /* ty=Tensor[(1, 96, 4, 4), int32] */;
  %229 = abs(%228) /* ty=Tensor[(1, 96, 4, 4), int32] */;
  %230 = max(%229, axis=[1], keepdims=True) /* ty=Tensor[(1, 1, 4, 4), int32] */;
  %231 = divide(%230, 127 /* ty=int32 */) /* ty=Tensor[(1, 1, 4, 4), int32] */;
  %232 = divide(%228, %231) /* ty=Tensor[(1, 96, 4, 4), int32] */;
  %233 = multiply(%226, %227) /* ty=Tensor[(1, 96, 4, 4), bool] */;
  %234 = cast(%232, dtype="int8") /* ty=Tensor[(1, 96, 4, 4), int8] */;
  %235 = zeros(shape=[1, 96, 4, 4], dtype="int8") /* ty=Tensor[(1, 96, 4, 4), int8] */;
  %236 = where(%233, %234, %235) /* ty=Tensor[(1, 96, 4, 4), int8] */;
  %237 = cast(%236, dtype="float32") /* ty=Tensor[(1, 96, 4, 4), float32] */;
  %238 = reshape(%v12_qadd_scale_y, newshape=[1, -1, 1, 1]) /* ty=Tensor[(1, 1, 1, 1), float32] */;
  %239 = divide(%237, %238) /* ty=Tensor[(1, 96, 4, 4), float32] */;
  %240 = reshape(%v12_qadd_scale_x2, newshape=[1, -1, 1, 1]) /* ty=Tensor[(1, 1, 1, 1), float32] */;
  %241 = multiply(%239, %240) /* ty=Tensor[(1, 96, 4, 4), float32] */;
  %242 = multiply(%224, %225) /* ty=Tensor[(1, 96, 4, 4), bool] */;
  %243 = cast(%241, dtype="int8") /* ty=Tensor[(1, 96, 4, 4), int8] */;
  %244 = zeros(shape=[1, 96, 4, 4], dtype="int8") /* ty=Tensor[(1, 96, 4, 4), int8] */;
  %245 = where(%242, %243, %244) /* ty=Tensor[(1, 96, 4, 4), int8] */;
  %246 = cast(%245, dtype="int32") /* ty=Tensor[(1, 96, 4, 4), int32] */;
  %247 = greater_equal(%78, -128 /* ty=int32 */) /* ty=Tensor[(1, 384, 4, 4), bool] */;
  %248 = less_equal(%78, 127 /* ty=int32 */) /* ty=Tensor[(1, 384, 4, 4), bool] */;
  %249 = nn.conv2d_transpose(%245, %v12_conv_2_weight, channels=384, kernel_size=[1, 1], padding=[0, 0, 0, 0], kernel_layout="IOHW", out_dtype="int32") /* ty=Tensor[(1, 384, 4, 4), int32] */;
  %250 = abs(%249) /* ty=Tensor[(1, 384, 4, 4), int32] */;
  %251 = max(%250, axis=[1], keepdims=True) /* ty=Tensor[(1, 1, 4, 4), int32] */;
  %252 = divide(%251, 127 /* ty=int32 */) /* ty=Tensor[(1, 1, 4, 4), int32] */;
  %253 = divide(%249, %252) /* ty=Tensor[(1, 384, 4, 4), int32] */;
  %254 = multiply(%247, %248) /* ty=Tensor[(1, 384, 4, 4), bool] */;
  %255 = cast(%253, dtype="int8") /* ty=Tensor[(1, 384, 4, 4), int8] */;
  %256 = zeros(shape=[1, 384, 4, 4], dtype="int8") /* ty=Tensor[(1, 384, 4, 4), int8] */;
  %257 = where(%254, %255, %256) /* ty=Tensor[(1, 384, 4, 4), int8] */;
  %258 = cast(%257, dtype="int32") /* ty=Tensor[(1, 384, 4, 4), int32] */;
  %259 = greater_equal(%76, -128 /* ty=int32 */) /* ty=Tensor[(1, 384, 4, 4), bool] */;
  %260 = less_equal(%76, 127 /* ty=int32 */) /* ty=Tensor[(1, 384, 4, 4), bool] */;
  %261 = nn.conv2d_transpose(%257, %v12_conv_1_weight, channels=384, kernel_size=[5, 5], padding=[2, 2, 2, 2], groups=384, kernel_layout="IOHW", out_dtype="int32") /* ty=Tensor[(1, 384, 4, 4), int32] */;
  %262 = abs(%261) /* ty=Tensor[(1, 384, 4, 4), int32] */;
  %263 = max(%262, axis=[1], keepdims=True) /* ty=Tensor[(1, 1, 4, 4), int32] */;
  %264 = divide(%263, 127 /* ty=int32 */) /* ty=Tensor[(1, 1, 4, 4), int32] */;
  %265 = divide(%261, %264) /* ty=Tensor[(1, 384, 4, 4), int32] */;
  %266 = multiply(%259, %260) /* ty=Tensor[(1, 384, 4, 4), bool] */;
  %267 = cast(%265, dtype="int8") /* ty=Tensor[(1, 384, 4, 4), int8] */;
  %268 = zeros(shape=[1, 384, 4, 4], dtype="int8") /* ty=Tensor[(1, 384, 4, 4), int8] */;
  %269 = where(%266, %267, %268) /* ty=Tensor[(1, 384, 4, 4), int8] */;
  %270 = cast(%269, dtype="float32") /* ty=Tensor[(1, 384, 4, 4), float32] */;
  %271 = reshape(%v12_conv_0_scale, newshape=[1, -1, 1, 1]) /* ty=Tensor[(1, 384, 1, 1), float32] */;
  %272 = multiply(%270, %271) /* ty=Tensor[(1, 384, 4, 4), float32] */;
  %273 = cast(%75, dtype="float32") /* ty=Tensor[(1, 96, 4, 4), float32] */;
  %274 = strided_slice(%273, begin=[0, 0, 0, 0], end=[1, 48, 4, 4], strides=[1], axes=None) /* ty=Tensor[(1, 48, 4, 4), float32] */;
  %275 = tile(%272, reps=[1, 48, 1, 1]) /* ty=Tensor[(1, 18432, 4, 4), float32] */;
  %276 = reshape(%274, newshape=[1, -1, 0, 0]) /* ty=Tensor[(1, 48, 4, 4), float32] */;
  %277 = reshape(%275, newshape=[-1, 1, 0, 0]) /* ty=Tensor[(18432, 1, 4, 4), float32] */;
  %278 = nn.conv2d(%276, %277, padding=[0, 0, 0, 0], groups=48) /* ty=Tensor[(1, 18432, 1, 1), float32] */;
  %279 = reshape(%278, newshape=[1, 48, 384, 1, 1]) /* ty=Tensor[(1, 48, 384, 1, 1), float32] */;
  %280 = sum(%279, axis=[0]) /* ty=Tensor[(48, 384, 1, 1), float32] */;
  %281 = greater_equal(%74, -128 /* ty=int32 */) /* ty=Tensor[(1, 96, 4, 4), bool] */;
  %282 = less_equal(%74, 127 /* ty=int32 */) /* ty=Tensor[(1, 96, 4, 4), bool] */;
  %283 = cast(%v12_conv_0_weight, dtype="float32") /* ty=Tensor[(384, 96, 1, 1), float32] */;
  %284 = multiply(%281, %282) /* ty=Tensor[(1, 96, 4, 4), bool] */;
  %285 = nn.conv2d_transpose(%272, %283, channels=96, kernel_size=[1, 1], padding=[0, 0, 0, 0], kernel_layout="IOHW") /* ty=Tensor[(1, 96, 4, 4), float32] */;
  %286 = zeros(shape=[1, 96, 4, 4], dtype="float32") /* ty=Tensor[(1, 96, 4, 4), float32] */;
  %287 = where(%284, %285, %286) /* ty=Tensor[(1, 96, 4, 4), float32] */;
  %288 = cast(%287, dtype="int32") /* ty=Tensor[(1, 96, 4, 4), int32] */;
  %289 = greater_equal(%72, -128 /* ty=int32 */) /* ty=Tensor[(1, 240, 4, 4), bool] */;
  %290 = less_equal(%72, 127 /* ty=int32 */) /* ty=Tensor[(1, 240, 4, 4), bool] */;
  %291 = cast(%v11_conv_2_weight, dtype="float32") /* ty=Tensor[(96, 240, 1, 1), float32] */;
  %292 = nn.conv2d_transpose(%287, %291, channels=240, kernel_size=[1, 1], padding=[0, 0, 0, 0], kernel_layout="IOHW", out_dtype="float32") /* ty=Tensor[(1, 240, 4, 4), float32] */;
  %293 = abs(%292) /* ty=Tensor[(1, 240, 4, 4), float32] */;
  %294 = max(%293, axis=[1], keepdims=True) /* ty=Tensor[(1, 1, 4, 4), float32] */;
  %295 = divide(%294, 127f /* ty=float32 */) /* ty=Tensor[(1, 1, 4, 4), float32] */;
  %296 = divide(%292, %295) /* ty=Tensor[(1, 240, 4, 4), float32] */;
  %297 = multiply(%289, %290) /* ty=Tensor[(1, 240, 4, 4), bool] */;
  %298 = cast(%296, dtype="int8") /* ty=Tensor[(1, 240, 4, 4), int8] */;
  %299 = zeros(shape=[1, 240, 4, 4], dtype="int8") /* ty=Tensor[(1, 240, 4, 4), int8] */;
  %300 = where(%297, %298, %299) /* ty=Tensor[(1, 240, 4, 4), int8] */;
  %301 = cast(%300, dtype="int32") /* ty=Tensor[(1, 240, 4, 4), int32] */;
  %302 = greater_equal(%70, -128 /* ty=int32 */) /* ty=Tensor[(1, 240, 8, 8), bool] */;
  %303 = less_equal(%70, 127 /* ty=int32 */) /* ty=Tensor[(1, 240, 8, 8), bool] */;
  %304 = nn.conv2d_transpose(%300, %v11_conv_1_weight, channels=240, kernel_size=[7, 7], strides=[2, 2], output_padding=[1, 1], padding=[3, 3, 3, 3], groups=240, kernel_layout="IOHW", out_dtype="int32") /* ty=Tensor[(1, 240, 8, 8), int32] */;
  %305 = abs(%304) /* ty=Tensor[(1, 240, 8, 8), int32] */;
  %306 = max(%305, axis=[1], keepdims=True) /* ty=Tensor[(1, 1, 8, 8), int32] */;
  %307 = divide(%306, 127 /* ty=int32 */) /* ty=Tensor[(1, 1, 8, 8), int32] */;
  %308 = divide(%304, %307) /* ty=Tensor[(1, 240, 8, 8), int32] */;
  %309 = multiply(%302, %303) /* ty=Tensor[(1, 240, 8, 8), bool] */;
  %310 = cast(%308, dtype="int8") /* ty=Tensor[(1, 240, 8, 8), int8] */;
  %311 = zeros(shape=[1, 240, 8, 8], dtype="int8") /* ty=Tensor[(1, 240, 8, 8), int8] */;
  %312 = where(%309, %310, %311) /* ty=Tensor[(1, 240, 8, 8), int8] */;
  %313 = cast(%312, dtype="int32") /* ty=Tensor[(1, 240, 8, 8), int32] */;
  %314 = tile(%312, reps=[1, 48, 1, 1]) /* ty=Tensor[(1, 11520, 8, 8), int8] */;
  %315 = reshape(%69, newshape=[1, -1, 0, 0]) /* ty=Tensor[(1, 48, 8, 8), int8] */;
  %316 = reshape(%314, newshape=[-1, 1, 0, 0]) /* ty=Tensor[(11520, 1, 8, 8), int8] */;
  %317 = nn.conv2d(%315, %316, padding=[0, 0, 0, 0], groups=48, out_dtype="int32") /* ty=Tensor[(1, 11520, 1, 1), int32] */;
  %318 = reshape(%317, newshape=[1, 48, 240, 1, 1]) /* ty=Tensor[(1, 48, 240, 1, 1), int32] */;
  %319 = sum(%318, axis=[0]) /* ty=Tensor[(48, 240, 1, 1), int32] */;
  %320 = transpose(%319, axes=[1, 0, 2, 3]) /* ty=Tensor[(240, 48, 1, 1), int32] */;
  %321 = abs(%320) /* ty=Tensor[(240, 48, 1, 1), int32] */;
  %322 = max(%321, axis=[1], keepdims=True) /* ty=Tensor[(240, 1, 1, 1), int32] */;
  %323 = divide(%322, 127 /* ty=int32 */) /* ty=Tensor[(240, 1, 1, 1), int32] */;
  %324 = divide(%320, %323) /* ty=Tensor[(240, 48, 1, 1), int32] */;
  %325 = greater_equal(%66, -128 /* ty=int32 */) /* ty=Tensor[(1, 48, 8, 8), bool] */;
  %326 = less_equal(%66, 127 /* ty=int32 */) /* ty=Tensor[(1, 48, 8, 8), bool] */;
  %327 = greater_equal(%68, meta[relay.Constant][4] /* ty=int8 */) /* ty=Tensor[(1, 48, 8, 8), bool] */;
  %328 = less_equal(%68, meta[relay.Constant][5] /* ty=int8 */) /* ty=Tensor[(1, 48, 8, 8), bool] */;
  %329 = nn.conv2d_transpose(%312, %v11_conv_0_weight, channels=48, kernel_size=[1, 1], padding=[0, 0, 0, 0], kernel_layout="IOHW", out_dtype="int32") /* ty=Tensor[(1, 48, 8, 8), int32] */;
  %330 = abs(%329) /* ty=Tensor[(1, 48, 8, 8), int32] */;
  %331 = max(%330, axis=[1], keepdims=True) /* ty=Tensor[(1, 1, 8, 8), int32] */;
  %332 = divide(%331, 127 /* ty=int32 */) /* ty=Tensor[(1, 1, 8, 8), int32] */;
  %333 = divide(%329, %332) /* ty=Tensor[(1, 48, 8, 8), int32] */;
  %334 = multiply(%327, %328) /* ty=Tensor[(1, 48, 8, 8), bool] */;
  %335 = cast(%333, dtype="int8") /* ty=Tensor[(1, 48, 8, 8), int8] */;
  %336 = zeros(shape=[1, 48, 8, 8], dtype="int8") /* ty=Tensor[(1, 48, 8, 8), int8] */;
  %337 = where(%334, %335, %336) /* ty=Tensor[(1, 48, 8, 8), int8] */;
  %338 = cast(%337, dtype="float32") /* ty=Tensor[(1, 48, 8, 8), float32] */;
  %339 = reshape(%v10_qadd_scale_y, newshape=[1, -1, 1, 1]) /* ty=Tensor[(1, 1, 1, 1), float32] */;
  %340 = divide(%338, %339) /* ty=Tensor[(1, 48, 8, 8), float32] */;
  %341 = reshape(%v10_qadd_scale_x2, newshape=[1, -1, 1, 1]) /* ty=Tensor[(1, 1, 1, 1), float32] */;
  %342 = multiply(%340, %341) /* ty=Tensor[(1, 48, 8, 8), float32] */;
  %343 = multiply(%325, %326) /* ty=Tensor[(1, 48, 8, 8), bool] */;
  %344 = cast(%342, dtype="int8") /* ty=Tensor[(1, 48, 8, 8), int8] */;
  %345 = zeros(shape=[1, 48, 8, 8], dtype="int8") /* ty=Tensor[(1, 48, 8, 8), int8] */;
  %346 = where(%343, %344, %345) /* ty=Tensor[(1, 48, 8, 8), int8] */;
  %347 = cast(%346, dtype="int32") /* ty=Tensor[(1, 48, 8, 8), int32] */;
  %348 = greater_equal(%64, -128 /* ty=int32 */) /* ty=Tensor[(1, 192, 8, 8), bool] */;
  %349 = less_equal(%64, 127 /* ty=int32 */) /* ty=Tensor[(1, 192, 8, 8), bool] */;
  %350 = nn.conv2d_transpose(%346, %v10_conv_2_weight, channels=192, kernel_size=[1, 1], padding=[0, 0, 0, 0], kernel_layout="IOHW", out_dtype="int32") /* ty=Tensor[(1, 192, 8, 8), int32] */;
  %351 = abs(%350) /* ty=Tensor[(1, 192, 8, 8), int32] */;
  %352 = max(%351, axis=[1], keepdims=True) /* ty=Tensor[(1, 1, 8, 8), int32] */;
  %353 = divide(%352, 127 /* ty=int32 */) /* ty=Tensor[(1, 1, 8, 8), int32] */;
  %354 = divide(%350, %353) /* ty=Tensor[(1, 192, 8, 8), int32] */;
  %355 = multiply(%348, %349) /* ty=Tensor[(1, 192, 8, 8), bool] */;
  %356 = cast(%354, dtype="int8") /* ty=Tensor[(1, 192, 8, 8), int8] */;
  %357 = zeros(shape=[1, 192, 8, 8], dtype="int8") /* ty=Tensor[(1, 192, 8, 8), int8] */;
  %358 = where(%355, %356, %357) /* ty=Tensor[(1, 192, 8, 8), int8] */;
  %359 = cast(%358, dtype="int32") /* ty=Tensor[(1, 192, 8, 8), int32] */;
  %360 = greater_equal(%62, -128 /* ty=int32 */) /* ty=Tensor[(1, 192, 8, 8), bool] */;
  %361 = less_equal(%62, 127 /* ty=int32 */) /* ty=Tensor[(1, 192, 8, 8), bool] */;
  %362 = nn.conv2d_transpose(%358, %v10_conv_1_weight, channels=192, kernel_size=[3, 3], padding=[1, 1, 1, 1], groups=192, kernel_layout="IOHW", out_dtype="int32") /* ty=Tensor[(1, 192, 8, 8), int32] */;
  %363 = abs(%362) /* ty=Tensor[(1, 192, 8, 8), int32] */;
  %364 = max(%363, axis=[1], keepdims=True) /* ty=Tensor[(1, 1, 8, 8), int32] */;
  %365 = divide(%364, 127 /* ty=int32 */) /* ty=Tensor[(1, 1, 8, 8), int32] */;
  %366 = divide(%362, %365) /* ty=Tensor[(1, 192, 8, 8), int32] */;
  %367 = multiply(%360, %361) /* ty=Tensor[(1, 192, 8, 8), bool] */;
  %368 = cast(%366, dtype="int8") /* ty=Tensor[(1, 192, 8, 8), int8] */;
  %369 = zeros(shape=[1, 192, 8, 8], dtype="int8") /* ty=Tensor[(1, 192, 8, 8), int8] */;
  %370 = where(%367, %368, %369) /* ty=Tensor[(1, 192, 8, 8), int8] */;
  %371 = cast(%370, dtype="int32") /* ty=Tensor[(1, 192, 8, 8), int32] */;
  %372 = tile(%370, reps=[1, 48, 1, 1]) /* ty=Tensor[(1, 9216, 8, 8), int8] */;
  %373 = reshape(%61, newshape=[1, -1, 0, 0]) /* ty=Tensor[(1, 48, 8, 8), int8] */;
  %374 = reshape(%372, newshape=[-1, 1, 0, 0]) /* ty=Tensor[(9216, 1, 8, 8), int8] */;
  %375 = nn.conv2d(%373, %374, padding=[0, 0, 0, 0], groups=48, out_dtype="int32") /* ty=Tensor[(1, 9216, 1, 1), int32] */;
  %376 = reshape(%375, newshape=[1, 48, 192, 1, 1]) /* ty=Tensor[(1, 48, 192, 1, 1), int32] */;
  %377 = sum(%376, axis=[0]) /* ty=Tensor[(48, 192, 1, 1), int32] */;
  %378 = transpose(%377, axes=[1, 0, 2, 3]) /* ty=Tensor[(192, 48, 1, 1), int32] */;
  %379 = abs(%378) /* ty=Tensor[(192, 48, 1, 1), int32] */;
  %380 = max(%379, axis=[1], keepdims=True) /* ty=Tensor[(192, 1, 1, 1), int32] */;
  %381 = divide(%380, 127 /* ty=int32 */) /* ty=Tensor[(192, 1, 1, 1), int32] */;
  %382 = divide(%378, %381) /* ty=Tensor[(192, 48, 1, 1), int32] */;
  %383 = greater_equal(%58, -128 /* ty=int32 */) /* ty=Tensor[(1, 48, 8, 8), bool] */;
  %384 = less_equal(%58, 127 /* ty=int32 */) /* ty=Tensor[(1, 48, 8, 8), bool] */;
  %385 = greater_equal(%60, meta[relay.Constant][6] /* ty=int8 */) /* ty=Tensor[(1, 48, 8, 8), bool] */;
  %386 = less_equal(%60, meta[relay.Constant][7] /* ty=int8 */) /* ty=Tensor[(1, 48, 8, 8), bool] */;
  %387 = nn.conv2d_transpose(%370, %v10_conv_0_weight, channels=48, kernel_size=[1, 1], padding=[0, 0, 0, 0], kernel_layout="IOHW", out_dtype="int32") /* ty=Tensor[(1, 48, 8, 8), int32] */;
  %388 = abs(%387) /* ty=Tensor[(1, 48, 8, 8), int32] */;
  %389 = max(%388, axis=[1], keepdims=True) /* ty=Tensor[(1, 1, 8, 8), int32] */;
  %390 = divide(%389, 127 /* ty=int32 */) /* ty=Tensor[(1, 1, 8, 8), int32] */;
  %391 = divide(%387, %390) /* ty=Tensor[(1, 48, 8, 8), int32] */;
  %392 = multiply(%385, %386) /* ty=Tensor[(1, 48, 8, 8), bool] */;
  %393 = cast(%391, dtype="int8") /* ty=Tensor[(1, 48, 8, 8), int8] */;
  %394 = zeros(shape=[1, 48, 8, 8], dtype="int8") /* ty=Tensor[(1, 48, 8, 8), int8] */;
  %395 = where(%392, %393, %394) /* ty=Tensor[(1, 48, 8, 8), int8] */;
  %396 = cast(%395, dtype="float32") /* ty=Tensor[(1, 48, 8, 8), float32] */;
  %397 = reshape(%v9_qadd_scale_y, newshape=[1, -1, 1, 1]) /* ty=Tensor[(1, 1, 1, 1), float32] */;
  %398 = divide(%396, %397) /* ty=Tensor[(1, 48, 8, 8), float32] */;
  %399 = reshape(%v9_qadd_scale_x2, newshape=[1, -1, 1, 1]) /* ty=Tensor[(1, 1, 1, 1), float32] */;
  %400 = multiply(%398, %399) /* ty=Tensor[(1, 48, 8, 8), float32] */;
  %401 = multiply(%383, %384) /* ty=Tensor[(1, 48, 8, 8), bool] */;
  %402 = cast(%400, dtype="int8") /* ty=Tensor[(1, 48, 8, 8), int8] */;
  %403 = zeros(shape=[1, 48, 8, 8], dtype="int8") /* ty=Tensor[(1, 48, 8, 8), int8] */;
  %404 = where(%401, %402, %403) /* ty=Tensor[(1, 48, 8, 8), int8] */;
  %405 = cast(%404, dtype="int32") /* ty=Tensor[(1, 48, 8, 8), int32] */;
  %406 = greater_equal(%56, -128 /* ty=int32 */) /* ty=Tensor[(1, 144, 8, 8), bool] */;
  %407 = less_equal(%56, 127 /* ty=int32 */) /* ty=Tensor[(1, 144, 8, 8), bool] */;
  %408 = nn.conv2d_transpose(%404, %v9_conv_2_weight, channels=144, kernel_size=[1, 1], padding=[0, 0, 0, 0], kernel_layout="IOHW", out_dtype="int32") /* ty=Tensor[(1, 144, 8, 8), int32] */;
  %409 = abs(%408) /* ty=Tensor[(1, 144, 8, 8), int32] */;
  %410 = max(%409, axis=[1], keepdims=True) /* ty=Tensor[(1, 1, 8, 8), int32] */;
  %411 = divide(%410, 127 /* ty=int32 */) /* ty=Tensor[(1, 1, 8, 8), int32] */;
  %412 = divide(%408, %411) /* ty=Tensor[(1, 144, 8, 8), int32] */;
  %413 = multiply(%406, %407) /* ty=Tensor[(1, 144, 8, 8), bool] */;
  %414 = cast(%412, dtype="int8") /* ty=Tensor[(1, 144, 8, 8), int8] */;
  %415 = zeros(shape=[1, 144, 8, 8], dtype="int8") /* ty=Tensor[(1, 144, 8, 8), int8] */;
  %416 = where(%413, %414, %415) /* ty=Tensor[(1, 144, 8, 8), int8] */;
  %417 = cast(%416, dtype="int32") /* ty=Tensor[(1, 144, 8, 8), int32] */;
  %418 = greater_equal(%54, -128 /* ty=int32 */) /* ty=Tensor[(1, 144, 8, 8), bool] */;
  %419 = less_equal(%54, 127 /* ty=int32 */) /* ty=Tensor[(1, 144, 8, 8), bool] */;
  %420 = nn.conv2d_transpose(%416, %v9_conv_1_weight, channels=144, kernel_size=[3, 3], padding=[1, 1, 1, 1], groups=144, kernel_layout="IOHW", out_dtype="int32") /* ty=Tensor[(1, 144, 8, 8), int32] */;
  %421 = abs(%420) /* ty=Tensor[(1, 144, 8, 8), int32] */;
  %422 = max(%421, axis=[1], keepdims=True) /* ty=Tensor[(1, 1, 8, 8), int32] */;
  %423 = divide(%422, 127 /* ty=int32 */) /* ty=Tensor[(1, 1, 8, 8), int32] */;
  %424 = divide(%420, %423) /* ty=Tensor[(1, 144, 8, 8), int32] */;
  %425 = multiply(%418, %419) /* ty=Tensor[(1, 144, 8, 8), bool] */;
  %426 = cast(%424, dtype="int8") /* ty=Tensor[(1, 144, 8, 8), int8] */;
  %427 = zeros(shape=[1, 144, 8, 8], dtype="int8") /* ty=Tensor[(1, 144, 8, 8), int8] */;
  %428 = where(%425, %426, %427) /* ty=Tensor[(1, 144, 8, 8), int8] */;
  %429 = cast(%428, dtype="int32") /* ty=Tensor[(1, 144, 8, 8), int32] */;
  %430 = tile(%428, reps=[1, 48, 1, 1]) /* ty=Tensor[(1, 6912, 8, 8), int8] */;
  %431 = reshape(%53, newshape=[1, -1, 0, 0]) /* ty=Tensor[(1, 48, 8, 8), int8] */;
  %432 = reshape(%430, newshape=[-1, 1, 0, 0]) /* ty=Tensor[(6912, 1, 8, 8), int8] */;
  %433 = nn.conv2d(%431, %432, padding=[0, 0, 0, 0], groups=48, out_dtype="int32") /* ty=Tensor[(1, 6912, 1, 1), int32] */;
  %434 = reshape(%433, newshape=[1, 48, 144, 1, 1]) /* ty=Tensor[(1, 48, 144, 1, 1), int32] */;
  %435 = sum(%434, axis=[0]) /* ty=Tensor[(48, 144, 1, 1), int32] */;
  %436 = transpose(%435, axes=[1, 0, 2, 3]) /* ty=Tensor[(144, 48, 1, 1), int32] */;
  %437 = abs(%436) /* ty=Tensor[(144, 48, 1, 1), int32] */;
  %438 = max(%437, axis=[1], keepdims=True) /* ty=Tensor[(144, 1, 1, 1), int32] */;
  %439 = divide(%438, 127 /* ty=int32 */) /* ty=Tensor[(144, 1, 1, 1), int32] */;
  %440 = divide(%436, %439) /* ty=Tensor[(144, 48, 1, 1), int32] */;
  %441 = greater_equal(%52, -128 /* ty=int32 */) /* ty=Tensor[(1, 48, 8, 8), bool] */;
  %442 = less_equal(%52, 127 /* ty=int32 */) /* ty=Tensor[(1, 48, 8, 8), bool] */;
  %443 = nn.conv2d_transpose(%428, %v9_conv_0_weight, channels=48, kernel_size=[1, 1], padding=[0, 0, 0, 0], kernel_layout="IOHW", out_dtype="int32") /* ty=Tensor[(1, 48, 8, 8), int32] */;
  %444 = abs(%443) /* ty=Tensor[(1, 48, 8, 8), int32] */;
  %445 = max(%444, axis=[1], keepdims=True) /* ty=Tensor[(1, 1, 8, 8), int32] */;
  %446 = divide(%445, 127 /* ty=int32 */) /* ty=Tensor[(1, 1, 8, 8), int32] */;
  %447 = divide(%443, %446) /* ty=Tensor[(1, 48, 8, 8), int32] */;
  %448 = multiply(%441, %442) /* ty=Tensor[(1, 48, 8, 8), bool] */;
  %449 = cast(%447, dtype="int8") /* ty=Tensor[(1, 48, 8, 8), int8] */;
  %450 = zeros(shape=[1, 48, 8, 8], dtype="int8") /* ty=Tensor[(1, 48, 8, 8), int8] */;
  %451 = where(%448, %449, %450) /* ty=Tensor[(1, 48, 8, 8), int8] */;
  %452 = cast(%451, dtype="int32") /* ty=Tensor[(1, 48, 8, 8), int32] */;
  %453 = greater_equal(%50, -128 /* ty=int32 */) /* ty=Tensor[(1, 160, 8, 8), bool] */;
  %454 = less_equal(%50, 127 /* ty=int32 */) /* ty=Tensor[(1, 160, 8, 8), bool] */;
  %455 = nn.conv2d_transpose(%451, %v8_conv_2_weight, channels=160, kernel_size=[1, 1], padding=[0, 0, 0, 0], kernel_layout="IOHW", out_dtype="int32") /* ty=Tensor[(1, 160, 8, 8), int32] */;
  %456 = abs(%455) /* ty=Tensor[(1, 160, 8, 8), int32] */;
  %457 = max(%456, axis=[1], keepdims=True) /* ty=Tensor[(1, 1, 8, 8), int32] */;
  %458 = divide(%457, 127 /* ty=int32 */) /* ty=Tensor[(1, 1, 8, 8), int32] */;
  %459 = divide(%455, %458) /* ty=Tensor[(1, 160, 8, 8), int32] */;
  %460 = multiply(%453, %454) /* ty=Tensor[(1, 160, 8, 8), bool] */;
  %461 = cast(%459, dtype="int8") /* ty=Tensor[(1, 160, 8, 8), int8] */;
  %462 = zeros(shape=[1, 160, 8, 8], dtype="int8") /* ty=Tensor[(1, 160, 8, 8), int8] */;
  %463 = where(%460, %461, %462) /* ty=Tensor[(1, 160, 8, 8), int8] */;
  %464 = cast(%463, dtype="int32") /* ty=Tensor[(1, 160, 8, 8), int32] */;
  %465 = greater_equal(%48, -128 /* ty=int32 */) /* ty=Tensor[(1, 160, 8, 8), bool] */;
  %466 = less_equal(%48, 127 /* ty=int32 */) /* ty=Tensor[(1, 160, 8, 8), bool] */;
  %467 = nn.conv2d_transpose(%463, %v8_conv_1_weight, channels=160, kernel_size=[5, 5], padding=[2, 2, 2, 2], groups=160, kernel_layout="IOHW", out_dtype="int32") /* ty=Tensor[(1, 160, 8, 8), int32] */;
  %468 = abs(%467) /* ty=Tensor[(1, 160, 8, 8), int32] */;
  %469 = max(%468, axis=[1], keepdims=True) /* ty=Tensor[(1, 1, 8, 8), int32] */;
  %470 = divide(%469, 127 /* ty=int32 */) /* ty=Tensor[(1, 1, 8, 8), int32] */;
  %471 = divide(%467, %470) /* ty=Tensor[(1, 160, 8, 8), int32] */;
  %472 = multiply(%465, %466) /* ty=Tensor[(1, 160, 8, 8), bool] */;
  %473 = cast(%471, dtype="int8") /* ty=Tensor[(1, 160, 8, 8), int8] */;
  %474 = zeros(shape=[1, 160, 8, 8], dtype="int8") /* ty=Tensor[(1, 160, 8, 8), int8] */;
  %475 = where(%472, %473, %474) /* ty=Tensor[(1, 160, 8, 8), int8] */;
  %476 = cast(%475, dtype="float32") /* ty=Tensor[(1, 160, 8, 8), float32] */;
  %477 = reshape(%v8_conv_0_scale, newshape=[1, -1, 1, 1]) /* ty=Tensor[(1, 160, 1, 1), float32] */;
  %478 = multiply(%476, %477) /* ty=Tensor[(1, 160, 8, 8), float32] */;
  %479 = cast(%47, dtype="float32") /* ty=Tensor[(1, 40, 8, 8), float32] */;
  %480 = strided_slice(%479, begin=[0, 0, 0, 0], end=[1, 10, 8, 8], strides=[1], axes=None) /* ty=Tensor[(1, 10, 8, 8), float32] */;
  %481 = tile(%478, reps=[1, 10, 1, 1]) /* ty=Tensor[(1, 1600, 8, 8), float32] */;
  %482 = reshape(%480, newshape=[1, -1, 0, 0]) /* ty=Tensor[(1, 10, 8, 8), float32] */;
  %483 = reshape(%481, newshape=[-1, 1, 0, 0]) /* ty=Tensor[(1600, 1, 8, 8), float32] */;
  %484 = nn.conv2d(%482, %483, padding=[0, 0, 0, 0], groups=10) /* ty=Tensor[(1, 1600, 1, 1), float32] */;
  %485 = reshape(%484, newshape=[1, 10, 160, 1, 1]) /* ty=Tensor[(1, 10, 160, 1, 1), float32] */;
  %486 = sum(%485, axis=[0]) /* ty=Tensor[(10, 160, 1, 1), float32] */;
  %487 = greater_equal(%44, -128 /* ty=int32 */) /* ty=Tensor[(1, 40, 8, 8), bool] */;
  %488 = less_equal(%44, 127 /* ty=int32 */) /* ty=Tensor[(1, 40, 8, 8), bool] */;
  %489 = greater_equal(%46, meta[relay.Constant][8] /* ty=int8 */) /* ty=Tensor[(1, 40, 8, 8), bool] */;
  %490 = less_equal(%46, meta[relay.Constant][9] /* ty=int8 */) /* ty=Tensor[(1, 40, 8, 8), bool] */;
  %491 = cast(%v8_conv_0_weight, dtype="float32") /* ty=Tensor[(160, 40, 1, 1), float32] */;
  %492 = multiply(%489, %490) /* ty=Tensor[(1, 40, 8, 8), bool] */;
  %493 = nn.conv2d_transpose(%478, %491, channels=40, kernel_size=[1, 1], padding=[0, 0, 0, 0], kernel_layout="IOHW") /* ty=Tensor[(1, 40, 8, 8), float32] */;
  %494 = zeros(shape=[1, 40, 8, 8], dtype="float32") /* ty=Tensor[(1, 40, 8, 8), float32] */;
  %495 = where(%492, %493, %494) /* ty=Tensor[(1, 40, 8, 8), float32] */;
  %496 = reshape(%v7_qadd_scale_y, newshape=[1, -1, 1, 1]) /* ty=Tensor[(1, 1, 1, 1), float32] */;
  %497 = divide(%495, %496) /* ty=Tensor[(1, 40, 8, 8), float32] */;
  %498 = reshape(%v7_qadd_scale_x2, newshape=[1, -1, 1, 1]) /* ty=Tensor[(1, 1, 1, 1), float32] */;
  %499 = multiply(%487, %488) /* ty=Tensor[(1, 40, 8, 8), bool] */;
  %500 = multiply(%497, %498) /* ty=Tensor[(1, 40, 8, 8), float32] */;
  %501 = zeros(shape=[1, 40, 8, 8], dtype="float32") /* ty=Tensor[(1, 40, 8, 8), float32] */;
  %502 = where(%499, %500, %501) /* ty=Tensor[(1, 40, 8, 8), float32] */;
  %503 = cast(%502, dtype="int32") /* ty=Tensor[(1, 40, 8, 8), int32] */;
  %504 = greater_equal(%42, -128 /* ty=int32 */) /* ty=Tensor[(1, 160, 8, 8), bool] */;
  %505 = less_equal(%42, 127 /* ty=int32 */) /* ty=Tensor[(1, 160, 8, 8), bool] */;
  %506 = cast(%v7_conv_2_weight, dtype="float32") /* ty=Tensor[(40, 160, 1, 1), float32] */;
  %507 = nn.conv2d_transpose(%502, %506, channels=160, kernel_size=[1, 1], padding=[0, 0, 0, 0], kernel_layout="IOHW", out_dtype="float32") /* ty=Tensor[(1, 160, 8, 8), float32] */;
  %508 = abs(%507) /* ty=Tensor[(1, 160, 8, 8), float32] */;
  %509 = max(%508, axis=[1], keepdims=True) /* ty=Tensor[(1, 1, 8, 8), float32] */;
  %510 = divide(%509, 127f /* ty=float32 */) /* ty=Tensor[(1, 1, 8, 8), float32] */;
  %511 = divide(%507, %510) /* ty=Tensor[(1, 160, 8, 8), float32] */;
  %512 = multiply(%504, %505) /* ty=Tensor[(1, 160, 8, 8), bool] */;
  %513 = cast(%511, dtype="int8") /* ty=Tensor[(1, 160, 8, 8), int8] */;
  %514 = zeros(shape=[1, 160, 8, 8], dtype="int8") /* ty=Tensor[(1, 160, 8, 8), int8] */;
  %515 = where(%512, %513, %514) /* ty=Tensor[(1, 160, 8, 8), int8] */;
  %516 = cast(%515, dtype="int32") /* ty=Tensor[(1, 160, 8, 8), int32] */;
  %517 = greater_equal(%40, -128 /* ty=int32 */) /* ty=Tensor[(1, 160, 8, 8), bool] */;
  %518 = less_equal(%40, 127 /* ty=int32 */) /* ty=Tensor[(1, 160, 8, 8), bool] */;
  %519 = nn.conv2d_transpose(%515, %v7_conv_1_weight, channels=160, kernel_size=[7, 7], padding=[3, 3, 3, 3], groups=160, kernel_layout="IOHW", out_dtype="int32") /* ty=Tensor[(1, 160, 8, 8), int32] */;
  %520 = abs(%519) /* ty=Tensor[(1, 160, 8, 8), int32] */;
  %521 = max(%520, axis=[1], keepdims=True) /* ty=Tensor[(1, 1, 8, 8), int32] */;
  %522 = divide(%521, 127 /* ty=int32 */) /* ty=Tensor[(1, 1, 8, 8), int32] */;
  %523 = divide(%519, %522) /* ty=Tensor[(1, 160, 8, 8), int32] */;
  %524 = multiply(%517, %518) /* ty=Tensor[(1, 160, 8, 8), bool] */;
  %525 = cast(%523, dtype="int8") /* ty=Tensor[(1, 160, 8, 8), int8] */;
  %526 = zeros(shape=[1, 160, 8, 8], dtype="int8") /* ty=Tensor[(1, 160, 8, 8), int8] */;
  %527 = where(%524, %525, %526) /* ty=Tensor[(1, 160, 8, 8), int8] */;
  %528 = cast(%527, dtype="int32") /* ty=Tensor[(1, 160, 8, 8), int32] */;
  %529 = nn.cross_entropy_with_logits(%103, %label) /* ty=float32 */;
  %530 = sum(%117, axis=[1], exclude=True) /* ty=Tensor[(10), int32] */;
  %531 = cast(%129, dtype="int8") /* ty=Tensor[(10, 160, 1, 1), int8] */;
  %532 = sum(%146, axis=[1], exclude=True) /* ty=Tensor[(160), int32] */;
  %533 = sum(%159, axis=[1], exclude=True) /* ty=Tensor[(576), int32] */;
  %534 = sum(%173, axis=[1], exclude=True) /* ty=Tensor[(576), float32] */;
  %535 = transpose(%181, axes=[1, 0, 2, 3]) /* ty=Tensor[(576, 48, 1, 1), float32] */;
  %536 = sum(%198, axis=[1], exclude=True) /* ty=Tensor[(96), int32] */;
  %537 = sum(%211, axis=[1], exclude=True) /* ty=Tensor[(384), int32] */;
  %538 = sum(%223, axis=[1], exclude=True) /* ty=Tensor[(384), int32] */;
  %539 = sum(%246, axis=[1], exclude=True) /* ty=Tensor[(96), int32] */;
  %540 = sum(%258, axis=[1], exclude=True) /* ty=Tensor[(384), int32] */;
  %541 = sum(%272, axis=[1], exclude=True) /* ty=Tensor[(384), float32] */;
  %542 = transpose(%280, axes=[1, 0, 2, 3]) /* ty=Tensor[(384, 48, 1, 1), float32] */;
  %543 = sum(%288, axis=[1], exclude=True) /* ty=Tensor[(96), int32] */;
  %544 = sum(%301, axis=[1], exclude=True) /* ty=Tensor[(240), int32] */;
  %545 = sum(%313, axis=[1], exclude=True) /* ty=Tensor[(240), int32] */;
  %546 = cast(%324, dtype="int8") /* ty=Tensor[(240, 48, 1, 1), int8] */;
  %547 = sum(%347, axis=[1], exclude=True) /* ty=Tensor[(48), int32] */;
  %548 = sum(%359, axis=[1], exclude=True) /* ty=Tensor[(192), int32] */;
  %549 = sum(%371, axis=[1], exclude=True) /* ty=Tensor[(192), int32] */;
  %550 = cast(%382, dtype="int8") /* ty=Tensor[(192, 48, 1, 1), int8] */;
  %551 = sum(%405, axis=[1], exclude=True) /* ty=Tensor[(48), int32] */;
  %552 = sum(%417, axis=[1], exclude=True) /* ty=Tensor[(144), int32] */;
  %553 = sum(%429, axis=[1], exclude=True) /* ty=Tensor[(144), int32] */;
  %554 = cast(%440, dtype="int8") /* ty=Tensor[(144, 48, 1, 1), int8] */;
  %555 = sum(%452, axis=[1], exclude=True) /* ty=Tensor[(48), int32] */;
  %556 = sum(%464, axis=[1], exclude=True) /* ty=Tensor[(160), int32] */;
  %557 = sum(%478, axis=[1], exclude=True) /* ty=Tensor[(160), float32] */;
  %558 = transpose(%486, axes=[1, 0, 2, 3]) /* ty=Tensor[(160, 10, 1, 1), float32] */;
  %559 = sum(%503, axis=[1], exclude=True) /* ty=Tensor[(40), int32] */;
  %560 = sum(%516, axis=[1], exclude=True) /* ty=Tensor[(160), int32] */;
  %561 = sum(%528, axis=[1], exclude=True) /* ty=Tensor[(160), int32] */;
  (%529, %530, %531, %532, %533, %534, %535, %536, %537, %538, %539, %540, %541, %542, %543, %544, %545, %546, %547, %548, %549, %550, %551, %552, %553, %554, %555, %556, %557, %558, %559, %560, %561)
}

