fn (%input: Tensor[(1, 3, 128, 128), int8], %v0_weight: Tensor[(16, 3, 3, 3), int8], %v0_bias: Tensor[(16), int32], %v0_zero_x: Tensor[(1), int8], %v0_zero_y: Tensor[(1), int8], %v0_scale: Tensor[(16), float32], %v1_conv_0_weight: Tensor[(16, 1, 3, 3), int8], %v1_conv_0_bias: Tensor[(16), int32], %v1_conv_0_zero_x: Tensor[(1), int8], %v1_conv_0_zero_y: Tensor[(1), int8], %v1_conv_0_scale: Tensor[(16), float32], %v1_conv_1_weight: Tensor[(8, 16, 1, 1), int8], %v1_conv_1_bias: Tensor[(8), int32], %v1_conv_1_zero_x: Tensor[(1), int8], %v1_conv_1_zero_y: Tensor[(1), int8], %v1_conv_1_scale: Tensor[(8), float32], %v2_conv_0_weight: Tensor[(24, 8, 1, 1), int8], %v2_conv_0_bias: Tensor[(24), int32], %v2_conv_0_zero_x: Tensor[(1), int8], %v2_conv_0_zero_y: Tensor[(1), int8], %v2_conv_0_scale: Tensor[(24), float32], %v2_conv_1_weight: Tensor[(24, 1, 5, 5), int8], %v2_conv_1_bias: Tensor[(24), int32], %v2_conv_1_zero_x: Tensor[(1), int8], %v2_conv_1_zero_y: Tensor[(1), int8], %v2_conv_1_scale: Tensor[(24), float32], %v2_conv_2_weight: Tensor[(16, 24, 1, 1), int8], %v2_conv_2_bias: Tensor[(16), int32], %v2_conv_2_zero_x: Tensor[(1), int8], %v2_conv_2_zero_y: Tensor[(1), int8], %v2_conv_2_scale: Tensor[(16), float32], %v3_conv_0_weight: Tensor[(48, 16, 1, 1), int8], %v3_conv_0_bias: Tensor[(48), int32], %v3_conv_0_zero_x: Tensor[(1), int8], %v3_conv_0_zero_y: Tensor[(1), int8], %v3_conv_0_scale: Tensor[(48), float32], %v3_conv_1_weight: Tensor[(48, 1, 3, 3), int8], %v3_conv_1_bias: Tensor[(48), int32], %v3_conv_1_zero_x: Tensor[(1), int8], %v3_conv_1_zero_y: Tensor[(1), int8], %v3_conv_1_scale: Tensor[(48), float32], %v3_conv_2_weight: Tensor[(16, 48, 1, 1), int8], %v3_conv_2_bias: Tensor[(16), int32], %v3_conv_2_zero_x: Tensor[(1), int8], %v3_conv_2_zero_y: Tensor[(1), int8], %v3_conv_2_scale: Tensor[(16), float32], %v3_qadd_zero_x1: Tensor[(1), int8], %v3_qadd_zero_x2: Tensor[(1), int8], %v3_qadd_scale_x1: Tensor[(1), float32], %v3_qadd_scale_x2: Tensor[(1), float32], %v3_qadd_zero_y: Tensor[(1), int8], %v3_qadd_scale_y: Tensor[(1), float32], %v4_conv_0_weight: Tensor[(48, 16, 1, 1), int8], %v4_conv_0_bias: Tensor[(48), int32], %v4_conv_0_zero_x: Tensor[(1), int8], %v4_conv_0_zero_y: Tensor[(1), int8], %v4_conv_0_scale: Tensor[(48), float32], %v4_conv_1_weight: Tensor[(48, 1, 7, 7), int8], %v4_conv_1_bias: Tensor[(48), int32], %v4_conv_1_zero_x: Tensor[(1), int8], %v4_conv_1_zero_y: Tensor[(1), int8], %v4_conv_1_scale: Tensor[(48), float32], %v4_conv_2_weight: Tensor[(16, 48, 1, 1), int8], %v4_conv_2_bias: Tensor[(16), int32], %v4_conv_2_zero_x: Tensor[(1), int8], %v4_conv_2_zero_y: Tensor[(1), int8], %v4_conv_2_scale: Tensor[(16), float32], %v5_conv_0_weight: Tensor[(48, 16, 1, 1), int8], %v5_conv_0_bias: Tensor[(48), int32], %v5_conv_0_zero_x: Tensor[(1), int8], %v5_conv_0_zero_y: Tensor[(1), int8], %v5_conv_0_scale: Tensor[(48), float32], %v5_conv_1_weight: Tensor[(48, 1, 3, 3), int8], %v5_conv_1_bias: Tensor[(48), int32], %v5_conv_1_zero_x: Tensor[(1), int8], %v5_conv_1_zero_y: Tensor[(1), int8], %v5_conv_1_scale: Tensor[(48), float32], %v5_conv_2_weight: Tensor[(16, 48, 1, 1), int8], %v5_conv_2_bias: Tensor[(16), int32], %v5_conv_2_zero_x: Tensor[(1), int8], %v5_conv_2_zero_y: Tensor[(1), int8], %v5_conv_2_scale: Tensor[(16), float32], %v5_qadd_zero_x1: Tensor[(1), int8], %v5_qadd_zero_x2: Tensor[(1), int8], %v5_qadd_scale_x1: Tensor[(1), float32], %v5_qadd_scale_x2: Tensor[(1), float32], %v5_qadd_zero_y: Tensor[(1), int8], %v5_qadd_scale_y: Tensor[(1), float32], %v6_conv_0_weight: Tensor[(48, 16, 1, 1), int8], %v6_conv_0_bias: Tensor[(48), int32], %v6_conv_0_zero_x: Tensor[(1), int8], %v6_conv_0_zero_y: Tensor[(1), int8], %v6_conv_0_scale: Tensor[(48), float32], %v6_conv_1_weight: Tensor[(48, 1, 5, 5), int8], %v6_conv_1_bias: Tensor[(48), int32], %v6_conv_1_zero_x: Tensor[(1), int8], %v6_conv_1_zero_y: Tensor[(1), int8], %v6_conv_1_scale: Tensor[(48), float32], %v6_conv_2_weight: Tensor[(16, 48, 1, 1), int8], %v6_conv_2_bias: Tensor[(16), int32], %v6_conv_2_zero_x: Tensor[(1), int8], %v6_conv_2_zero_y: Tensor[(1), int8], %v6_conv_2_scale: Tensor[(16), float32], %v6_qadd_zero_x1: Tensor[(1), int8], %v6_qadd_zero_x2: Tensor[(1), int8], %v6_qadd_scale_x1: Tensor[(1), float32], %v6_qadd_scale_x2: Tensor[(1), float32], %v6_qadd_zero_y: Tensor[(1), int8], %v6_qadd_scale_y: Tensor[(1), float32], %v7_conv_0_weight: Tensor[(48, 16, 1, 1), int8], %v7_conv_0_bias: Tensor[(48), int32], %v7_conv_0_zero_x: Tensor[(1), int8], %v7_conv_0_zero_y: Tensor[(1), int8], %v7_conv_0_scale: Tensor[(48), float32], %v7_conv_1_weight: Tensor[(48, 1, 5, 5), int8], %v7_conv_1_bias: Tensor[(48), int32], %v7_conv_1_zero_x: Tensor[(1), int8], %v7_conv_1_zero_y: Tensor[(1), int8], %v7_conv_1_scale: Tensor[(48), float32], %v7_conv_2_weight: Tensor[(16, 48, 1, 1), int8], %v7_conv_2_bias: Tensor[(16), int32], %v7_conv_2_zero_x: Tensor[(1), int8], %v7_conv_2_zero_y: Tensor[(1), int8], %v7_conv_2_scale: Tensor[(16), float32], %v7_qadd_zero_x1: Tensor[(1), int8], %v7_qadd_zero_x2: Tensor[(1), int8], %v7_qadd_scale_x1: Tensor[(1), float32], %v7_qadd_scale_x2: Tensor[(1), float32], %v7_qadd_zero_y: Tensor[(1), int8], %v7_qadd_scale_y: Tensor[(1), float32], %v8_conv_0_weight: Tensor[(96, 16, 1, 1), int8], %v8_conv_0_bias: Tensor[(96), int32], %v8_conv_0_zero_x: Tensor[(1), int8], %v8_conv_0_zero_y: Tensor[(1), int8], %v8_conv_0_scale: Tensor[(96), float32], %v8_conv_1_weight: Tensor[(96, 1, 7, 7), int8], %v8_conv_1_bias: Tensor[(96), int32], %v8_conv_1_zero_x: Tensor[(1), int8], %v8_conv_1_zero_y: Tensor[(1), int8], %v8_conv_1_scale: Tensor[(96), float32], %v8_conv_2_weight: Tensor[(24, 96, 1, 1), int8], %v8_conv_2_bias: Tensor[(24), int32], %v8_conv_2_zero_x: Tensor[(1), int8], %v8_conv_2_zero_y: Tensor[(1), int8], %v8_conv_2_scale: Tensor[(24), float32], %v9_conv_0_weight: Tensor[(72, 24, 1, 1), int8], %v9_conv_0_bias: Tensor[(72), int32], %v9_conv_0_zero_x: Tensor[(1), int8], %v9_conv_0_zero_y: Tensor[(1), int8], %v9_conv_0_scale: Tensor[(72), float32], %v9_conv_1_weight: Tensor[(72, 1, 5, 5), int8], %v9_conv_1_bias: Tensor[(72), int32], %v9_conv_1_zero_x: Tensor[(1), int8], %v9_conv_1_zero_y: Tensor[(1), int8], %v9_conv_1_scale: Tensor[(72), float32], %v9_conv_2_weight: Tensor[(24, 72, 1, 1), int8], %v9_conv_2_bias: Tensor[(24), int32], %v9_conv_2_zero_x: Tensor[(1), int8], %v9_conv_2_zero_y: Tensor[(1), int8], %v9_conv_2_scale: Tensor[(24), float32], %v9_qadd_zero_x1: Tensor[(1), int8], %v9_qadd_zero_x2: Tensor[(1), int8], %v9_qadd_scale_x1: Tensor[(1), float32], %v9_qadd_scale_x2: Tensor[(1), float32], %v9_qadd_zero_y: Tensor[(1), int8], %v9_qadd_scale_y: Tensor[(1), float32], %v10_conv_0_weight: Tensor[(72, 24, 1, 1), int8], %v10_conv_0_bias: Tensor[(72), int32], %v10_conv_0_zero_x: Tensor[(1), int8], %v10_conv_0_zero_y: Tensor[(1), int8], %v10_conv_0_scale: Tensor[(72), float32], %v10_conv_1_weight: Tensor[(72, 1, 5, 5), int8], %v10_conv_1_bias: Tensor[(72), int32], %v10_conv_1_zero_x: Tensor[(1), int8], %v10_conv_1_zero_y: Tensor[(1), int8], %v10_conv_1_scale: Tensor[(72), float32], %v10_conv_2_weight: Tensor[(24, 72, 1, 1), int8], %v10_conv_2_bias: Tensor[(24), int32], %v10_conv_2_zero_x: Tensor[(1), int8], %v10_conv_2_zero_y: Tensor[(1), int8], %v10_conv_2_scale: Tensor[(24), float32], %v10_qadd_zero_x1: Tensor[(1), int8], %v10_qadd_zero_x2: Tensor[(1), int8], %v10_qadd_scale_x1: Tensor[(1), float32], %v10_qadd_scale_x2: Tensor[(1), float32], %v10_qadd_zero_y: Tensor[(1), int8], %v10_qadd_scale_y: Tensor[(1), float32], %v11_conv_0_weight: Tensor[(72, 24, 1, 1), int8], %v11_conv_0_bias: Tensor[(72), int32], %v11_conv_0_zero_x: Tensor[(1), int8], %v11_conv_0_zero_y: Tensor[(1), int8], %v11_conv_0_scale: Tensor[(72), float32], %v11_conv_1_weight: Tensor[(72, 1, 5, 5), int8], %v11_conv_1_bias: Tensor[(72), int32], %v11_conv_1_zero_x: Tensor[(1), int8], %v11_conv_1_zero_y: Tensor[(1), int8], %v11_conv_1_scale: Tensor[(72), float32], %v11_conv_2_weight: Tensor[(24, 72, 1, 1), int8], %v11_conv_2_bias: Tensor[(24), int32], %v11_conv_2_zero_x: Tensor[(1), int8], %v11_conv_2_zero_y: Tensor[(1), int8], %v11_conv_2_scale: Tensor[(24), float32], %v11_qadd_zero_x1: Tensor[(1), int8], %v11_qadd_zero_x2: Tensor[(1), int8], %v11_qadd_scale_x1: Tensor[(1), float32], %v11_qadd_scale_x2: Tensor[(1), float32], %v11_qadd_zero_y: Tensor[(1), int8], %v11_qadd_scale_y: Tensor[(1), float32], %v12_conv_0_weight: Tensor[(144, 24, 1, 1), int8], %v12_conv_0_bias: Tensor[(144), int32], %v12_conv_0_zero_x: Tensor[(1), int8], %v12_conv_0_zero_y: Tensor[(1), int8], %v12_conv_0_scale: Tensor[(144), float32], %v12_conv_1_weight: Tensor[(144, 1, 5, 5), int8], %v12_conv_1_bias: Tensor[(144), int32], %v12_conv_1_zero_x: Tensor[(1), int8], %v12_conv_1_zero_y: Tensor[(1), int8], %v12_conv_1_scale: Tensor[(144), float32], %v12_conv_2_weight: Tensor[(32, 144, 1, 1), int8], %v12_conv_2_bias: Tensor[(32), int32], %v12_conv_2_zero_x: Tensor[(1), int8], %v12_conv_2_zero_y: Tensor[(1), int8], %v12_conv_2_scale: Tensor[(32), float32], %v13_conv_0_weight: Tensor[(96, 32, 1, 1), int8], %v13_conv_0_bias: Tensor[(96), int32], %v13_conv_0_zero_x: Tensor[(1), int8], %v13_conv_0_zero_y: Tensor[(1), int8], %v13_conv_0_scale: Tensor[(96), float32], %v13_conv_1_weight: Tensor[(96, 1, 5, 5), int8], %v13_conv_1_bias: Tensor[(96), int32], %v13_conv_1_zero_x: Tensor[(1), int8], %v13_conv_1_zero_y: Tensor[(1), int8], %v13_conv_1_scale: Tensor[(96), float32], %v13_conv_2_weight: Tensor[(32, 96, 1, 1), int8], %v13_conv_2_bias: Tensor[(32), int32], %v13_conv_2_zero_x: Tensor[(1), int8], %v13_conv_2_zero_y: Tensor[(1), int8], %v13_conv_2_scale: Tensor[(32), float32], %v13_qadd_zero_x1: Tensor[(1), int8], %v13_qadd_zero_x2: Tensor[(1), int8], %v13_qadd_scale_x1: Tensor[(1), float32], %v13_qadd_scale_x2: Tensor[(1), float32], %v13_qadd_zero_y: Tensor[(1), int8], %v13_qadd_scale_y: Tensor[(1), float32], %v14_conv_0_weight: Tensor[(96, 32, 1, 1), int8], %v14_conv_0_bias: Tensor[(96), int32], %v14_conv_0_zero_x: Tensor[(1), int8], %v14_conv_0_zero_y: Tensor[(1), int8], %v14_conv_0_scale: Tensor[(96), float32], %v14_conv_1_weight: Tensor[(96, 1, 5, 5), int8], %v14_conv_1_bias: Tensor[(96), int32], %v14_conv_1_zero_x: Tensor[(1), int8], %v14_conv_1_zero_y: Tensor[(1), int8], %v14_conv_1_scale: Tensor[(96), float32], %v14_conv_2_weight: Tensor[(32, 96, 1, 1), int8], %v14_conv_2_bias: Tensor[(32), int32], %v14_conv_2_zero_x: Tensor[(1), int8], %v14_conv_2_zero_y: Tensor[(1), int8], %v14_conv_2_scale: Tensor[(32), float32], %v14_qadd_zero_x1: Tensor[(1), int8], %v14_qadd_zero_x2: Tensor[(1), int8], %v14_qadd_scale_x1: Tensor[(1), float32], %v14_qadd_scale_x2: Tensor[(1), float32], %v14_qadd_zero_y: Tensor[(1), int8], %v14_qadd_scale_y: Tensor[(1), float32], %v15_conv_0_weight: Tensor[(96, 32, 1, 1), int8], %v15_conv_0_bias: Tensor[(96), int32], %v15_conv_0_zero_x: Tensor[(1), int8], %v15_conv_0_zero_y: Tensor[(1), int8], %v15_conv_0_scale: Tensor[(96), float32], %v15_conv_1_weight: Tensor[(96, 1, 5, 5), int8], %v15_conv_1_bias: Tensor[(96), int32], %v15_conv_1_zero_x: Tensor[(1), int8], %v15_conv_1_zero_y: Tensor[(1), int8], %v15_conv_1_scale: Tensor[(96), float32], %v15_conv_2_weight: Tensor[(32, 96, 1, 1), int8], %v15_conv_2_bias: Tensor[(32), int32], %v15_conv_2_zero_x: Tensor[(1), int8], %v15_conv_2_zero_y: Tensor[(1), int8], %v15_conv_2_scale: Tensor[(32), float32], %v15_qadd_zero_x1: Tensor[(1), int8], %v15_qadd_zero_x2: Tensor[(1), int8], %v15_qadd_scale_x1: Tensor[(1), float32], %v15_qadd_scale_x2: Tensor[(1), float32], %v15_qadd_zero_y: Tensor[(1), int8], %v15_qadd_scale_y: Tensor[(1), float32], %v16_conv_0_weight: Tensor[(192, 32, 1, 1), int8], %v16_conv_0_bias: Tensor[(192), int32], %v16_conv_0_zero_x: Tensor[(1), int8], %v16_conv_0_zero_y: Tensor[(1), int8], %v16_conv_0_scale: Tensor[(192), float32], %v16_conv_1_weight: Tensor[(192, 1, 7, 7), int8], %v16_conv_1_bias: Tensor[(192), int32], %v16_conv_1_zero_x: Tensor[(1), int8], %v16_conv_1_zero_y: Tensor[(1), int8], %v16_conv_1_scale: Tensor[(192), float32], %v16_conv_2_weight: Tensor[(64, 192, 1, 1), int8], %v16_conv_2_bias: Tensor[(64), int32], %v16_conv_2_zero_x: Tensor[(1), int8], %v16_conv_2_zero_y: Tensor[(1), int8], %v16_conv_2_scale: Tensor[(64), float32], %v17_conv_0_weight: Tensor[(384, 64, 1, 1), int8], %v17_conv_0_bias: Tensor[(384), int32], %v17_conv_0_zero_x: Tensor[(1), int8], %v17_conv_0_zero_y: Tensor[(1), int8], %v17_conv_0_scale: Tensor[(384), float32], %v17_conv_1_weight: Tensor[(384, 1, 7, 7), int8], %v17_conv_1_bias: Tensor[(384), int32], %v17_conv_1_zero_x: Tensor[(1), int8], %v17_conv_1_zero_y: Tensor[(1), int8], %v17_conv_1_scale: Tensor[(384), float32], %v17_conv_2_weight: Tensor[(64, 384, 1, 1), int8], %v17_conv_2_bias: Tensor[(64), int32], %v17_conv_2_zero_x: Tensor[(1), int8], %v17_conv_2_zero_y: Tensor[(1), int8], %v17_conv_2_scale: Tensor[(64), float32], %v17_qadd_zero_x1: Tensor[(1), int8], %v17_qadd_zero_x2: Tensor[(1), int8], %v17_qadd_scale_x1: Tensor[(1), float32], %v17_qadd_scale_x2: Tensor[(1), float32], %v17_qadd_zero_y: Tensor[(1), int8], %v17_qadd_scale_y: Tensor[(1), float32], %v18_conv_0_weight: Tensor[(192, 64, 1, 1), int8], %v18_conv_0_bias: Tensor[(192), int32], %v18_conv_0_zero_x: Tensor[(1), int8], %v18_conv_0_zero_y: Tensor[(1), int8], %v18_conv_0_scale: Tensor[(192), float32], %v18_conv_1_weight: Tensor[(192, 1, 7, 7), int8], %v18_conv_1_bias: Tensor[(192), int32], %v18_conv_1_zero_x: Tensor[(1), int8], %v18_conv_1_zero_y: Tensor[(1), int8], %v18_conv_1_scale: Tensor[(192), float32], %v18_conv_2_weight: Tensor[(64, 192, 1, 1), int8], %v18_conv_2_bias: Tensor[(64), int32], %v18_conv_2_zero_x: Tensor[(1), int8], %v18_conv_2_zero_y: Tensor[(1), int8], %v18_conv_2_scale: Tensor[(64), float32], %v18_qadd_zero_x1: Tensor[(1), int8], %v18_qadd_zero_x2: Tensor[(1), int8], %v18_qadd_scale_x1: Tensor[(1), float32], %v18_qadd_scale_x2: Tensor[(1), float32], %v18_qadd_zero_y: Tensor[(1), int8], %v18_qadd_scale_y: Tensor[(1), float32], %v19_conv_0_weight: Tensor[(192, 64, 1, 1), int8], %v19_conv_0_bias: Tensor[(192), int32], %v19_conv_0_zero_x: Tensor[(1), int8], %v19_conv_0_zero_y: Tensor[(1), int8], %v19_conv_0_scale: Tensor[(192), float32], %v19_conv_1_weight: Tensor[(192, 1, 7, 7), int8], %v19_conv_1_bias: Tensor[(192), int32], %v19_conv_1_zero_x: Tensor[(1), int8], %v19_conv_1_zero_y: Tensor[(1), int8], %v19_conv_1_scale: Tensor[(192), float32], %v19_conv_2_weight: Tensor[(64, 192, 1, 1), int8], %v19_conv_2_bias: Tensor[(64), int32], %v19_conv_2_zero_x: Tensor[(1), int8], %v19_conv_2_zero_y: Tensor[(1), int8], %v19_conv_2_scale: Tensor[(64), float32], %v19_qadd_zero_x1: Tensor[(1), int8], %v19_qadd_zero_x2: Tensor[(1), int8], %v19_qadd_scale_x1: Tensor[(1), float32], %v19_qadd_scale_x2: Tensor[(1), float32], %v19_qadd_zero_y: Tensor[(1), int8], %v19_qadd_scale_y: Tensor[(1), float32], %v20_conv_0_weight: Tensor[(384, 64, 1, 1), int8], %v20_conv_0_bias: Tensor[(384), int32], %v20_conv_0_zero_x: Tensor[(1), int8], %v20_conv_0_zero_y: Tensor[(1), int8], %v20_conv_0_scale: Tensor[(384), float32], %v20_conv_1_weight: Tensor[(384, 1, 7, 7), int8], %v20_conv_1_bias: Tensor[(384), int32], %v20_conv_1_zero_x: Tensor[(1), int8], %v20_conv_1_zero_y: Tensor[(1), int8], %v20_conv_1_scale: Tensor[(384), float32], %v20_conv_2_weight: Tensor[(96, 384, 1, 1), int8], %v20_conv_2_bias: Tensor[(96), int32], %v20_conv_2_zero_x: Tensor[(1), int8], %v20_conv_2_zero_y: Tensor[(1), int8], %v20_conv_2_scale: Tensor[(96), float32], %v21_weight: Tensor[(10, 96, 1, 1), int8], %v21_bias: Tensor[(10), int32], %v21_zero_x: Tensor[(1), int8], %v21_zero_y: Tensor[(1), int8], %v21_scale: Tensor[(10), float32], %label: Tensor[(1, 10), float32]) -> (float32, Tensor[(10), int32], Tensor[(10, 96, 1, 1), int8], Tensor[(96), int32], Tensor[(384), int32], Tensor[(384), int32], Tensor[(384, 64, 1, 1), int8], Tensor[(64), int32], Tensor[(192), int32], Tensor[(192), int32], Tensor[(192, 64, 1, 1), int8], Tensor[(64), int32], Tensor[(192), int32], Tensor[(192), int32], Tensor[(192, 32, 1, 1), int8], Tensor[(64), int32], Tensor[(384), int32], Tensor[(384), int32], Tensor[(384, 16, 1, 1), int8], Tensor[(64), int32], Tensor[(192), int32], Tensor[(192), int32], Tensor[(192, 32, 1, 1), int8], Tensor[(32), int32], Tensor[(96), int32], Tensor[(96), int32], Tensor[(96, 32, 1, 1), int8], Tensor[(32), int32], Tensor[(96), int32], Tensor[(96), int32], Tensor[(96, 16, 1, 1), int8], Tensor[(32), int32], Tensor[(96), int32], Tensor[(96), int32], Tensor[(96, 32, 1, 1), int8], Tensor[(32), int32]) {
  %0 = nn.mcuconv2d(%input, %v0_weight, %v0_bias, %v0_zero_x, %v0_zero_y, %v0_scale, strides=[2, 2], padding=[1, 1, 1, 1]) /* from_string */ /* ty=Tensor[(1, 16, 64, 64), int32] */;
  %1 = nn.mcutruncate(%0) /* from_string */ /* ty=Tensor[(1, 16, 64, 64), int8] */;
  %2 = nn.mcuconv2d(%1, %v1_conv_0_weight, %v1_conv_0_bias, %v1_conv_0_zero_x, %v1_conv_0_zero_y, %v1_conv_0_scale, padding=[1, 1, 1, 1], groups=16) /* from_string */ /* ty=Tensor[(1, 16, 64, 64), int32] */;
  %3 = nn.mcutruncate(%2) /* from_string */ /* ty=Tensor[(1, 16, 64, 64), int8] */;
  %4 = nn.mcuconv2d(%3, %v1_conv_1_weight, %v1_conv_1_bias, %v1_conv_1_zero_x, %v1_conv_1_zero_y, %v1_conv_1_scale, padding=[0, 0, 0, 0]) /* from_string */ /* ty=Tensor[(1, 8, 64, 64), int32] */;
  %5 = nn.mcutruncate(%4) /* from_string */ /* ty=Tensor[(1, 8, 64, 64), int8] */;
  %6 = nn.mcuconv2d(%5, %v2_conv_0_weight, %v2_conv_0_bias, %v2_conv_0_zero_x, %v2_conv_0_zero_y, %v2_conv_0_scale, padding=[0, 0, 0, 0]) /* from_string */ /* ty=Tensor[(1, 24, 64, 64), int32] */;
  %7 = nn.mcutruncate(%6) /* from_string */ /* ty=Tensor[(1, 24, 64, 64), int8] */;
  %8 = nn.mcuconv2d(%7, %v2_conv_1_weight, %v2_conv_1_bias, %v2_conv_1_zero_x, %v2_conv_1_zero_y, %v2_conv_1_scale, strides=[2, 2], padding=[2, 2, 2, 2], groups=24) /* from_string */ /* ty=Tensor[(1, 24, 32, 32), int32] */;
  %9 = nn.mcutruncate(%8) /* from_string */ /* ty=Tensor[(1, 24, 32, 32), int8] */;
  %10 = nn.mcuconv2d(%9, %v2_conv_2_weight, %v2_conv_2_bias, %v2_conv_2_zero_x, %v2_conv_2_zero_y, %v2_conv_2_scale, padding=[0, 0, 0, 0]) /* from_string */ /* ty=Tensor[(1, 16, 32, 32), int32] */;
  %11 = nn.mcutruncate(%10) /* from_string */ /* ty=Tensor[(1, 16, 32, 32), int8] */;
  %12 = nn.mcuconv2d(%11, %v3_conv_0_weight, %v3_conv_0_bias, %v3_conv_0_zero_x, %v3_conv_0_zero_y, %v3_conv_0_scale, padding=[0, 0, 0, 0]) /* from_string */ /* ty=Tensor[(1, 48, 32, 32), int32] */;
  %13 = nn.mcutruncate(%12) /* from_string */ /* ty=Tensor[(1, 48, 32, 32), int8] */;
  %14 = nn.mcuconv2d(%13, %v3_conv_1_weight, %v3_conv_1_bias, %v3_conv_1_zero_x, %v3_conv_1_zero_y, %v3_conv_1_scale, padding=[1, 1, 1, 1], groups=48) /* from_string */ /* ty=Tensor[(1, 48, 32, 32), int32] */;
  %15 = nn.mcutruncate(%14) /* from_string */ /* ty=Tensor[(1, 48, 32, 32), int8] */;
  %16 = nn.mcuconv2d(%15, %v3_conv_2_weight, %v3_conv_2_bias, %v3_conv_2_zero_x, %v3_conv_2_zero_y, %v3_conv_2_scale, padding=[0, 0, 0, 0]) /* from_string */ /* ty=Tensor[(1, 16, 32, 32), int32] */;
  %17 = nn.mcutruncate(%16) /* from_string */ /* ty=Tensor[(1, 16, 32, 32), int8] */;
  %18 = nn.mcuadd(%11, %17, %v3_qadd_zero_x1, %v3_qadd_zero_x2, %v3_qadd_scale_x1, %v3_qadd_scale_x2, %v3_qadd_zero_y, %v3_qadd_scale_y, axis=0) /* from_string */ /* ty=Tensor[(1, 16, 32, 32), int8] */;
  %19 = nn.mcutruncate(%18) /* from_string */ /* ty=Tensor[(1, 16, 32, 32), int8] */;
  %20 = nn.mcuconv2d(%19, %v4_conv_0_weight, %v4_conv_0_bias, %v4_conv_0_zero_x, %v4_conv_0_zero_y, %v4_conv_0_scale, padding=[0, 0, 0, 0]) /* from_string */ /* ty=Tensor[(1, 48, 32, 32), int32] */;
  %21 = nn.mcutruncate(%20) /* from_string */ /* ty=Tensor[(1, 48, 32, 32), int8] */;
  %22 = nn.mcuconv2d(%21, %v4_conv_1_weight, %v4_conv_1_bias, %v4_conv_1_zero_x, %v4_conv_1_zero_y, %v4_conv_1_scale, strides=[2, 2], padding=[3, 3, 3, 3], groups=48) /* from_string */ /* ty=Tensor[(1, 48, 16, 16), int32] */;
  %23 = nn.mcutruncate(%22) /* from_string */ /* ty=Tensor[(1, 48, 16, 16), int8] */;
  %24 = nn.mcuconv2d(%23, %v4_conv_2_weight, %v4_conv_2_bias, %v4_conv_2_zero_x, %v4_conv_2_zero_y, %v4_conv_2_scale, padding=[0, 0, 0, 0]) /* from_string */ /* ty=Tensor[(1, 16, 16, 16), int32] */;
  %25 = nn.mcutruncate(%24) /* from_string */ /* ty=Tensor[(1, 16, 16, 16), int8] */;
  %26 = nn.mcuconv2d(%25, %v5_conv_0_weight, %v5_conv_0_bias, %v5_conv_0_zero_x, %v5_conv_0_zero_y, %v5_conv_0_scale, padding=[0, 0, 0, 0]) /* from_string */ /* ty=Tensor[(1, 48, 16, 16), int32] */;
  %27 = nn.mcutruncate(%26) /* from_string */ /* ty=Tensor[(1, 48, 16, 16), int8] */;
  %28 = nn.mcuconv2d(%27, %v5_conv_1_weight, %v5_conv_1_bias, %v5_conv_1_zero_x, %v5_conv_1_zero_y, %v5_conv_1_scale, padding=[1, 1, 1, 1], groups=48) /* from_string */ /* ty=Tensor[(1, 48, 16, 16), int32] */;
  %29 = nn.mcutruncate(%28) /* from_string */ /* ty=Tensor[(1, 48, 16, 16), int8] */;
  %30 = nn.mcuconv2d(%29, %v5_conv_2_weight, %v5_conv_2_bias, %v5_conv_2_zero_x, %v5_conv_2_zero_y, %v5_conv_2_scale, padding=[0, 0, 0, 0]) /* from_string */ /* ty=Tensor[(1, 16, 16, 16), int32] */;
  %31 = nn.mcutruncate(%30) /* from_string */ /* ty=Tensor[(1, 16, 16, 16), int8] */;
  %32 = nn.mcuadd(%25, %31, %v5_qadd_zero_x1, %v5_qadd_zero_x2, %v5_qadd_scale_x1, %v5_qadd_scale_x2, %v5_qadd_zero_y, %v5_qadd_scale_y, axis=0) /* from_string */ /* ty=Tensor[(1, 16, 16, 16), int8] */;
  %33 = nn.mcutruncate(%32) /* from_string */ /* ty=Tensor[(1, 16, 16, 16), int8] */;
  %34 = nn.mcuconv2d(%33, %v6_conv_0_weight, %v6_conv_0_bias, %v6_conv_0_zero_x, %v6_conv_0_zero_y, %v6_conv_0_scale, padding=[0, 0, 0, 0]) /* from_string */ /* ty=Tensor[(1, 48, 16, 16), int32] */;
  %35 = nn.mcutruncate(%34) /* from_string */ /* ty=Tensor[(1, 48, 16, 16), int8] */;
  %36 = nn.mcuconv2d(%35, %v6_conv_1_weight, %v6_conv_1_bias, %v6_conv_1_zero_x, %v6_conv_1_zero_y, %v6_conv_1_scale, padding=[2, 2, 2, 2], groups=48) /* from_string */ /* ty=Tensor[(1, 48, 16, 16), int32] */;
  %37 = nn.mcutruncate(%36) /* from_string */ /* ty=Tensor[(1, 48, 16, 16), int8] */;
  %38 = nn.mcuconv2d(%37, %v6_conv_2_weight, %v6_conv_2_bias, %v6_conv_2_zero_x, %v6_conv_2_zero_y, %v6_conv_2_scale, padding=[0, 0, 0, 0]) /* from_string */ /* ty=Tensor[(1, 16, 16, 16), int32] */;
  %39 = nn.mcutruncate(%38) /* from_string */ /* ty=Tensor[(1, 16, 16, 16), int8] */;
  %40 = nn.mcuadd(%33, %39, %v6_qadd_zero_x1, %v6_qadd_zero_x2, %v6_qadd_scale_x1, %v6_qadd_scale_x2, %v6_qadd_zero_y, %v6_qadd_scale_y, axis=0) /* from_string */ /* ty=Tensor[(1, 16, 16, 16), int8] */;
  %41 = nn.mcutruncate(%40) /* from_string */ /* ty=Tensor[(1, 16, 16, 16), int8] */;
  %42 = nn.mcuconv2d(%41, %v7_conv_0_weight, %v7_conv_0_bias, %v7_conv_0_zero_x, %v7_conv_0_zero_y, %v7_conv_0_scale, padding=[0, 0, 0, 0]) /* from_string */ /* ty=Tensor[(1, 48, 16, 16), int32] */;
  %43 = nn.mcutruncate(%42) /* from_string */ /* ty=Tensor[(1, 48, 16, 16), int8] */;
  %44 = nn.mcuconv2d(%43, %v7_conv_1_weight, %v7_conv_1_bias, %v7_conv_1_zero_x, %v7_conv_1_zero_y, %v7_conv_1_scale, padding=[2, 2, 2, 2], groups=48) /* from_string */ /* ty=Tensor[(1, 48, 16, 16), int32] */;
  %45 = nn.mcutruncate(%44) /* from_string */ /* ty=Tensor[(1, 48, 16, 16), int8] */;
  %46 = nn.mcuconv2d(%45, %v7_conv_2_weight, %v7_conv_2_bias, %v7_conv_2_zero_x, %v7_conv_2_zero_y, %v7_conv_2_scale, padding=[0, 0, 0, 0]) /* from_string */ /* ty=Tensor[(1, 16, 16, 16), int32] */;
  %47 = nn.mcutruncate(%46) /* from_string */ /* ty=Tensor[(1, 16, 16, 16), int8] */;
  %48 = nn.mcuadd(%41, %47, %v7_qadd_zero_x1, %v7_qadd_zero_x2, %v7_qadd_scale_x1, %v7_qadd_scale_x2, %v7_qadd_zero_y, %v7_qadd_scale_y, axis=0) /* from_string */ /* ty=Tensor[(1, 16, 16, 16), int8] */;
  %49 = nn.mcutruncate(%48) /* from_string */ /* ty=Tensor[(1, 16, 16, 16), int8] */;
  %50 = nn.mcuconv2d(%49, %v8_conv_0_weight, %v8_conv_0_bias, %v8_conv_0_zero_x, %v8_conv_0_zero_y, %v8_conv_0_scale, padding=[0, 0, 0, 0]) /* from_string */ /* ty=Tensor[(1, 96, 16, 16), int32] */;
  %51 = nn.mcutruncate(%50) /* from_string */ /* ty=Tensor[(1, 96, 16, 16), int8] */;
  %52 = nn.mcuconv2d(%51, %v8_conv_1_weight, %v8_conv_1_bias, %v8_conv_1_zero_x, %v8_conv_1_zero_y, %v8_conv_1_scale, strides=[2, 2], padding=[3, 3, 3, 3], groups=96) /* from_string */ /* ty=Tensor[(1, 96, 8, 8), int32] */;
  %53 = nn.mcutruncate(%52) /* from_string */ /* ty=Tensor[(1, 96, 8, 8), int8] */;
  %54 = nn.mcuconv2d(%53, %v8_conv_2_weight, %v8_conv_2_bias, %v8_conv_2_zero_x, %v8_conv_2_zero_y, %v8_conv_2_scale, padding=[0, 0, 0, 0]) /* from_string */ /* ty=Tensor[(1, 24, 8, 8), int32] */;
  %55 = nn.mcutruncate(%54) /* from_string */ /* ty=Tensor[(1, 24, 8, 8), int8] */;
  %56 = nn.mcuconv2d(%55, %v9_conv_0_weight, %v9_conv_0_bias, %v9_conv_0_zero_x, %v9_conv_0_zero_y, %v9_conv_0_scale, padding=[0, 0, 0, 0]) /* from_string */ /* ty=Tensor[(1, 72, 8, 8), int32] */;
  %57 = nn.mcutruncate(%56) /* from_string */ /* ty=Tensor[(1, 72, 8, 8), int8] */;
  %58 = nn.mcuconv2d(%57, %v9_conv_1_weight, %v9_conv_1_bias, %v9_conv_1_zero_x, %v9_conv_1_zero_y, %v9_conv_1_scale, padding=[2, 2, 2, 2], groups=72) /* from_string */ /* ty=Tensor[(1, 72, 8, 8), int32] */;
  %59 = nn.mcutruncate(%58) /* from_string */ /* ty=Tensor[(1, 72, 8, 8), int8] */;
  %60 = nn.mcuconv2d(%59, %v9_conv_2_weight, %v9_conv_2_bias, %v9_conv_2_zero_x, %v9_conv_2_zero_y, %v9_conv_2_scale, padding=[0, 0, 0, 0]) /* from_string */ /* ty=Tensor[(1, 24, 8, 8), int32] */;
  %61 = nn.mcutruncate(%60) /* from_string */ /* ty=Tensor[(1, 24, 8, 8), int8] */;
  %62 = nn.mcuadd(%55, %61, %v9_qadd_zero_x1, %v9_qadd_zero_x2, %v9_qadd_scale_x1, %v9_qadd_scale_x2, %v9_qadd_zero_y, %v9_qadd_scale_y, axis=0) /* from_string */ /* ty=Tensor[(1, 24, 8, 8), int8] */;
  %63 = nn.mcutruncate(%62) /* from_string */ /* ty=Tensor[(1, 24, 8, 8), int8] */;
  %64 = nn.mcuconv2d(%63, %v10_conv_0_weight, %v10_conv_0_bias, %v10_conv_0_zero_x, %v10_conv_0_zero_y, %v10_conv_0_scale, padding=[0, 0, 0, 0]) /* from_string */ /* ty=Tensor[(1, 72, 8, 8), int32] */;
  %65 = nn.mcutruncate(%64) /* from_string */ /* ty=Tensor[(1, 72, 8, 8), int8] */;
  %66 = nn.mcuconv2d(%65, %v10_conv_1_weight, %v10_conv_1_bias, %v10_conv_1_zero_x, %v10_conv_1_zero_y, %v10_conv_1_scale, padding=[2, 2, 2, 2], groups=72) /* from_string */ /* ty=Tensor[(1, 72, 8, 8), int32] */;
  %67 = nn.mcutruncate(%66) /* from_string */ /* ty=Tensor[(1, 72, 8, 8), int8] */;
  %68 = nn.mcuconv2d(%67, %v10_conv_2_weight, %v10_conv_2_bias, %v10_conv_2_zero_x, %v10_conv_2_zero_y, %v10_conv_2_scale, padding=[0, 0, 0, 0]) /* from_string */ /* ty=Tensor[(1, 24, 8, 8), int32] */;
  %69 = nn.mcutruncate(%68) /* from_string */ /* ty=Tensor[(1, 24, 8, 8), int8] */;
  %70 = nn.mcuadd(%63, %69, %v10_qadd_zero_x1, %v10_qadd_zero_x2, %v10_qadd_scale_x1, %v10_qadd_scale_x2, %v10_qadd_zero_y, %v10_qadd_scale_y, axis=0) /* from_string */ /* ty=Tensor[(1, 24, 8, 8), int8] */;
  %71 = nn.mcutruncate(%70) /* from_string */ /* ty=Tensor[(1, 24, 8, 8), int8] */;
  %72 = nn.mcuconv2d(%71, %v11_conv_0_weight, %v11_conv_0_bias, %v11_conv_0_zero_x, %v11_conv_0_zero_y, %v11_conv_0_scale, padding=[0, 0, 0, 0]) /* from_string */ /* ty=Tensor[(1, 72, 8, 8), int32] */;
  %73 = nn.mcutruncate(%72) /* from_string */ /* ty=Tensor[(1, 72, 8, 8), int8] */;
  %74 = nn.mcuconv2d(%73, %v11_conv_1_weight, %v11_conv_1_bias, %v11_conv_1_zero_x, %v11_conv_1_zero_y, %v11_conv_1_scale, padding=[2, 2, 2, 2], groups=72) /* from_string */ /* ty=Tensor[(1, 72, 8, 8), int32] */;
  %75 = nn.mcutruncate(%74) /* from_string */ /* ty=Tensor[(1, 72, 8, 8), int8] */;
  %76 = nn.mcuconv2d(%75, %v11_conv_2_weight, %v11_conv_2_bias, %v11_conv_2_zero_x, %v11_conv_2_zero_y, %v11_conv_2_scale, padding=[0, 0, 0, 0]) /* from_string */ /* ty=Tensor[(1, 24, 8, 8), int32] */;
  %77 = nn.mcutruncate(%76) /* from_string */ /* ty=Tensor[(1, 24, 8, 8), int8] */;
  %78 = nn.mcuadd(%71, %77, %v11_qadd_zero_x1, %v11_qadd_zero_x2, %v11_qadd_scale_x1, %v11_qadd_scale_x2, %v11_qadd_zero_y, %v11_qadd_scale_y, axis=0) /* from_string */ /* ty=Tensor[(1, 24, 8, 8), int8] */;
  %79 = nn.mcutruncate(%78) /* from_string */ /* ty=Tensor[(1, 24, 8, 8), int8] */;
  %80 = nn.mcuconv2d(%79, %v12_conv_0_weight, %v12_conv_0_bias, %v12_conv_0_zero_x, %v12_conv_0_zero_y, %v12_conv_0_scale, padding=[0, 0, 0, 0]) /* from_string */ /* ty=Tensor[(1, 144, 8, 8), int32] */;
  %81 = nn.mcutruncate(%80) /* from_string */ /* ty=Tensor[(1, 144, 8, 8), int8] */;
  %82 = nn.mcuconv2d(%81, %v12_conv_1_weight, %v12_conv_1_bias, %v12_conv_1_zero_x, %v12_conv_1_zero_y, %v12_conv_1_scale, padding=[2, 2, 2, 2], groups=144) /* from_string */ /* ty=Tensor[(1, 144, 8, 8), int32] */;
  %83 = nn.mcutruncate(%82) /* from_string */ /* ty=Tensor[(1, 144, 8, 8), int8] */;
  %84 = nn.mcuconv2d(%83, %v12_conv_2_weight, %v12_conv_2_bias, %v12_conv_2_zero_x, %v12_conv_2_zero_y, %v12_conv_2_scale, padding=[0, 0, 0, 0]) /* from_string */ /* ty=Tensor[(1, 32, 8, 8), int32] */;
  %85 = nn.mcutruncate(%84) /* from_string */ /* ty=Tensor[(1, 32, 8, 8), int8] */;
  %86 = nn.mcuconv2d(%85, %v13_conv_0_weight, %v13_conv_0_bias, %v13_conv_0_zero_x, %v13_conv_0_zero_y, %v13_conv_0_scale, padding=[0, 0, 0, 0]) /* from_string */ /* ty=Tensor[(1, 96, 8, 8), int32] */;
  %87 = nn.mcutruncate(%86) /* from_string */ /* ty=Tensor[(1, 96, 8, 8), int8] */;
  %88 = nn.mcuconv2d(%87, %v13_conv_1_weight, %v13_conv_1_bias, %v13_conv_1_zero_x, %v13_conv_1_zero_y, %v13_conv_1_scale, padding=[2, 2, 2, 2], groups=96) /* from_string */ /* ty=Tensor[(1, 96, 8, 8), int32] */;
  %89 = nn.mcutruncate(%88) /* from_string */ /* ty=Tensor[(1, 96, 8, 8), int8] */;
  %90 = nn.mcuconv2d(%89, %v13_conv_2_weight, %v13_conv_2_bias, %v13_conv_2_zero_x, %v13_conv_2_zero_y, %v13_conv_2_scale, padding=[0, 0, 0, 0]) /* from_string */ /* ty=Tensor[(1, 32, 8, 8), int32] */;
  %91 = nn.mcutruncate(%90) /* from_string */ /* ty=Tensor[(1, 32, 8, 8), int8] */;
  %92 = nn.mcuadd(%85, %91, %v13_qadd_zero_x1, %v13_qadd_zero_x2, %v13_qadd_scale_x1, %v13_qadd_scale_x2, %v13_qadd_zero_y, %v13_qadd_scale_y, axis=0) /* from_string */ /* ty=Tensor[(1, 32, 8, 8), int8] */;
  %93 = nn.mcutruncate(%92) /* from_string */ /* ty=Tensor[(1, 32, 8, 8), int8] */;
  %94 = nn.mcuconv2d(%93, %v14_conv_0_weight, %v14_conv_0_bias, %v14_conv_0_zero_x, %v14_conv_0_zero_y, %v14_conv_0_scale, padding=[0, 0, 0, 0]) /* from_string */ /* ty=Tensor[(1, 96, 8, 8), int32] */;
  %95 = nn.mcutruncate(%94) /* from_string */ /* ty=Tensor[(1, 96, 8, 8), int8] */;
  %96 = nn.mcuconv2d(%95, %v14_conv_1_weight, %v14_conv_1_bias, %v14_conv_1_zero_x, %v14_conv_1_zero_y, %v14_conv_1_scale, padding=[2, 2, 2, 2], groups=96) /* from_string */ /* ty=Tensor[(1, 96, 8, 8), int32] */;
  %97 = nn.mcutruncate(%96) /* from_string */ /* ty=Tensor[(1, 96, 8, 8), int8] */;
  %98 = nn.mcuconv2d(%97, %v14_conv_2_weight, %v14_conv_2_bias, %v14_conv_2_zero_x, %v14_conv_2_zero_y, %v14_conv_2_scale, padding=[0, 0, 0, 0]) /* from_string */ /* ty=Tensor[(1, 32, 8, 8), int32] */;
  %99 = nn.mcutruncate(%98) /* from_string */ /* ty=Tensor[(1, 32, 8, 8), int8] */;
  %100 = nn.mcuadd(%93, %99, %v14_qadd_zero_x1, %v14_qadd_zero_x2, %v14_qadd_scale_x1, %v14_qadd_scale_x2, %v14_qadd_zero_y, %v14_qadd_scale_y, axis=0) /* from_string */ /* ty=Tensor[(1, 32, 8, 8), int8] */;
  %101 = nn.mcutruncate(%100) /* from_string */ /* ty=Tensor[(1, 32, 8, 8), int8] */;
  %102 = nn.mcuconv2d(%101, %v15_conv_0_weight, %v15_conv_0_bias, %v15_conv_0_zero_x, %v15_conv_0_zero_y, %v15_conv_0_scale, padding=[0, 0, 0, 0]) /* from_string */ /* ty=Tensor[(1, 96, 8, 8), int32] */;
  %103 = nn.mcutruncate(%102) /* from_string */ /* ty=Tensor[(1, 96, 8, 8), int8] */;
  %104 = nn.mcuconv2d(%103, %v15_conv_1_weight, %v15_conv_1_bias, %v15_conv_1_zero_x, %v15_conv_1_zero_y, %v15_conv_1_scale, padding=[2, 2, 2, 2], groups=96) /* from_string */ /* ty=Tensor[(1, 96, 8, 8), int32] */;
  %105 = nn.mcutruncate(%104) /* from_string */ /* ty=Tensor[(1, 96, 8, 8), int8] */;
  %106 = nn.mcuconv2d(%105, %v15_conv_2_weight, %v15_conv_2_bias, %v15_conv_2_zero_x, %v15_conv_2_zero_y, %v15_conv_2_scale, padding=[0, 0, 0, 0]) /* from_string */ /* ty=Tensor[(1, 32, 8, 8), int32] */;
  %107 = nn.mcutruncate(%106) /* from_string */ /* ty=Tensor[(1, 32, 8, 8), int8] */;
  %108 = nn.mcuadd(%101, %107, %v15_qadd_zero_x1, %v15_qadd_zero_x2, %v15_qadd_scale_x1, %v15_qadd_scale_x2, %v15_qadd_zero_y, %v15_qadd_scale_y, axis=0) /* from_string */ /* ty=Tensor[(1, 32, 8, 8), int8] */;
  %109 = nn.mcutruncate(%108) /* from_string */ /* ty=Tensor[(1, 32, 8, 8), int8] */;
  %110 = nn.mcuconv2d(%109, %v16_conv_0_weight, %v16_conv_0_bias, %v16_conv_0_zero_x, %v16_conv_0_zero_y, %v16_conv_0_scale, padding=[0, 0, 0, 0]) /* from_string */ /* ty=Tensor[(1, 192, 8, 8), int32] */;
  %111 = nn.mcutruncate(%110) /* from_string */ /* ty=Tensor[(1, 192, 8, 8), int8] */;
  %112 = nn.mcuconv2d(%111, %v16_conv_1_weight, %v16_conv_1_bias, %v16_conv_1_zero_x, %v16_conv_1_zero_y, %v16_conv_1_scale, strides=[2, 2], padding=[3, 3, 3, 3], groups=192) /* from_string */ /* ty=Tensor[(1, 192, 4, 4), int32] */;
  %113 = nn.mcutruncate(%112) /* from_string */ /* ty=Tensor[(1, 192, 4, 4), int8] */;
  %114 = nn.mcuconv2d(%113, %v16_conv_2_weight, %v16_conv_2_bias, %v16_conv_2_zero_x, %v16_conv_2_zero_y, %v16_conv_2_scale, padding=[0, 0, 0, 0]) /* from_string */ /* ty=Tensor[(1, 64, 4, 4), int32] */;
  %115 = nn.mcutruncate(%114) /* from_string */ /* ty=Tensor[(1, 64, 4, 4), int8] */;
  %116 = nn.mcuconv2d(%115, %v17_conv_0_weight, %v17_conv_0_bias, %v17_conv_0_zero_x, %v17_conv_0_zero_y, %v17_conv_0_scale, padding=[0, 0, 0, 0]) /* from_string */ /* ty=Tensor[(1, 384, 4, 4), int32] */;
  %117 = nn.mcutruncate(%116) /* from_string */ /* ty=Tensor[(1, 384, 4, 4), int8] */;
  %118 = nn.mcuconv2d(%117, %v17_conv_1_weight, %v17_conv_1_bias, %v17_conv_1_zero_x, %v17_conv_1_zero_y, %v17_conv_1_scale, padding=[3, 3, 3, 3], groups=384) /* from_string */ /* ty=Tensor[(1, 384, 4, 4), int32] */;
  %119 = nn.mcutruncate(%118) /* from_string */ /* ty=Tensor[(1, 384, 4, 4), int8] */;
  %120 = nn.mcuconv2d(%119, %v17_conv_2_weight, %v17_conv_2_bias, %v17_conv_2_zero_x, %v17_conv_2_zero_y, %v17_conv_2_scale, padding=[0, 0, 0, 0]) /* from_string */ /* ty=Tensor[(1, 64, 4, 4), int32] */;
  %121 = nn.mcutruncate(%120) /* from_string */ /* ty=Tensor[(1, 64, 4, 4), int8] */;
  %122 = nn.mcuadd(%115, %121, %v17_qadd_zero_x1, %v17_qadd_zero_x2, %v17_qadd_scale_x1, %v17_qadd_scale_x2, %v17_qadd_zero_y, %v17_qadd_scale_y, axis=0) /* from_string */ /* ty=Tensor[(1, 64, 4, 4), int8] */;
  %123 = nn.mcutruncate(%122) /* from_string */ /* ty=Tensor[(1, 64, 4, 4), int8] */;
  %124 = nn.mcuconv2d(%123, %v18_conv_0_weight, %v18_conv_0_bias, %v18_conv_0_zero_x, %v18_conv_0_zero_y, %v18_conv_0_scale, padding=[0, 0, 0, 0]) /* from_string */ /* ty=Tensor[(1, 192, 4, 4), int32] */;
  %125 = nn.mcutruncate(%124) /* from_string */ /* ty=Tensor[(1, 192, 4, 4), int8] */;
  %126 = nn.mcuconv2d(%125, %v18_conv_1_weight, %v18_conv_1_bias, %v18_conv_1_zero_x, %v18_conv_1_zero_y, %v18_conv_1_scale, padding=[3, 3, 3, 3], groups=192) /* from_string */ /* ty=Tensor[(1, 192, 4, 4), int32] */;
  %127 = nn.mcutruncate(%126) /* from_string */ /* ty=Tensor[(1, 192, 4, 4), int8] */;
  %128 = nn.mcuconv2d(%127, %v18_conv_2_weight, %v18_conv_2_bias, %v18_conv_2_zero_x, %v18_conv_2_zero_y, %v18_conv_2_scale, padding=[0, 0, 0, 0]) /* from_string */ /* ty=Tensor[(1, 64, 4, 4), int32] */;
  %129 = nn.mcutruncate(%128) /* from_string */ /* ty=Tensor[(1, 64, 4, 4), int8] */;
  %130 = nn.mcuadd(%123, %129, %v18_qadd_zero_x1, %v18_qadd_zero_x2, %v18_qadd_scale_x1, %v18_qadd_scale_x2, %v18_qadd_zero_y, %v18_qadd_scale_y, axis=0) /* from_string */ /* ty=Tensor[(1, 64, 4, 4), int8] */;
  %131 = nn.mcutruncate(%130) /* from_string */ /* ty=Tensor[(1, 64, 4, 4), int8] */;
  %132 = nn.mcuconv2d(%131, %v19_conv_0_weight, %v19_conv_0_bias, %v19_conv_0_zero_x, %v19_conv_0_zero_y, %v19_conv_0_scale, padding=[0, 0, 0, 0]) /* from_string */ /* ty=Tensor[(1, 192, 4, 4), int32] */;
  %133 = nn.mcutruncate(%132) /* from_string */ /* ty=Tensor[(1, 192, 4, 4), int8] */;
  %134 = nn.mcuconv2d(%133, %v19_conv_1_weight, %v19_conv_1_bias, %v19_conv_1_zero_x, %v19_conv_1_zero_y, %v19_conv_1_scale, padding=[3, 3, 3, 3], groups=192) /* from_string */ /* ty=Tensor[(1, 192, 4, 4), int32] */;
  %135 = nn.mcutruncate(%134) /* from_string */ /* ty=Tensor[(1, 192, 4, 4), int8] */;
  %136 = nn.mcuconv2d(%135, %v19_conv_2_weight, %v19_conv_2_bias, %v19_conv_2_zero_x, %v19_conv_2_zero_y, %v19_conv_2_scale, padding=[0, 0, 0, 0]) /* from_string */ /* ty=Tensor[(1, 64, 4, 4), int32] */;
  %137 = nn.mcutruncate(%136) /* from_string */ /* ty=Tensor[(1, 64, 4, 4), int8] */;
  %138 = nn.mcuadd(%131, %137, %v19_qadd_zero_x1, %v19_qadd_zero_x2, %v19_qadd_scale_x1, %v19_qadd_scale_x2, %v19_qadd_zero_y, %v19_qadd_scale_y, axis=0) /* from_string */ /* ty=Tensor[(1, 64, 4, 4), int8] */;
  %139 = nn.mcutruncate(%138) /* from_string */ /* ty=Tensor[(1, 64, 4, 4), int8] */;
  %140 = nn.mcuconv2d(%139, %v20_conv_0_weight, %v20_conv_0_bias, %v20_conv_0_zero_x, %v20_conv_0_zero_y, %v20_conv_0_scale, padding=[0, 0, 0, 0]) /* from_string */ /* ty=Tensor[(1, 384, 4, 4), int32] */;
  %141 = nn.mcutruncate(%140) /* from_string */ /* ty=Tensor[(1, 384, 4, 4), int8] */;
  %142 = nn.mcuconv2d(%141, %v20_conv_1_weight, %v20_conv_1_bias, %v20_conv_1_zero_x, %v20_conv_1_zero_y, %v20_conv_1_scale, padding=[3, 3, 3, 3], groups=384) /* from_string */ /* ty=Tensor[(1, 384, 4, 4), int32] */;
  %143 = nn.mcutruncate(%142) /* from_string */ /* ty=Tensor[(1, 384, 4, 4), int8] */;
  %144 = nn.mcuconv2d(%143, %v20_conv_2_weight, %v20_conv_2_bias, %v20_conv_2_zero_x, %v20_conv_2_zero_y, %v20_conv_2_scale, padding=[0, 0, 0, 0]) /* from_string */ /* ty=Tensor[(1, 96, 4, 4), int32] */;
  %145 = nn.mcutruncate(%144) /* from_string */ /* ty=Tensor[(1, 96, 4, 4), int8] */;
  %146 = mcumean(%145, axis=[2, 3], keepdims=True) /* from_string */ /* ty=Tensor[(1, 96, 1, 1), int8] */;
  %147 = nn.mcuconv2d(%146, %v21_weight, %v21_bias, %v21_zero_x, %v21_zero_y, %v21_scale, padding=[0, 0, 0, 0]) /* from_string */ /* ty=Tensor[(1, 10, 1, 1), int32] */;
  %148 = nn.mcutruncate(%147) /* from_string */ /* ty=Tensor[(1, 10, 1, 1), int8] */;
  %149 = reshape(%148, newshape=[0, 0]) /* from_string */ /* ty=Tensor[(1, 10), int8] */;
  %150 = cast(%149, dtype="float32") /* from_string */ /* ty=Tensor[(1, 10), float32] */;
  %151 = nn.log_softmax(%150) /* from_string */ /* ty=Tensor[(1, 10), float32] */;
  %152 = greater_equal(%147, -128 /* ty=int32 */) /* from_string */ /* ty=Tensor[(1, 10, 1, 1), bool] */;
  %153 = less_equal(%147, 127 /* ty=int32 */) /* from_string */ /* ty=Tensor[(1, 10, 1, 1), bool] */;
  %154 = ones(shape=[], dtype="float32") /* from_string */ /* ty=float32 */;
  %155 = negative(%154) /* from_string */ /* ty=float32 */;
  %156 = multiply(%155, %label) /* from_string */ /* ty=Tensor[(1, 10), float32] */;
  %157 = sum(%156, axis=[-1], keepdims=True) /* from_string */ /* ty=Tensor[(1, 1), float32] */;
  %158 = exp(%151) /* from_string */ /* ty=Tensor[(1, 10), float32] */;
  %159 = multiply(%157, %158) /* from_string */ /* ty=Tensor[(1, 10), float32] */;
  %160 = subtract(%156, %159) /* from_string */ /* ty=Tensor[(1, 10), float32] */;
  %161 = multiply(%152, %153) /* from_string */ /* ty=Tensor[(1, 10, 1, 1), bool] */;
  %162 = reshape(%160, newshape=[1, 10, 1, 1]) /* from_string */ /* ty=Tensor[(1, 10, 1, 1), float32] */;
  %163 = zeros(shape=[1, 10, 1, 1], dtype="float32") /* from_string */ /* ty=Tensor[(1, 10, 1, 1), float32] */;
  %164 = where(%161, %162, %163) /* from_string */ /* ty=Tensor[(1, 10, 1, 1), float32] */;
  %165 = cast(%164, dtype="int32") /* from_string */ /* ty=Tensor[(1, 10, 1, 1), int32] */;
  %166 = reshape(%146, newshape=[1, -1, 0, 0]) /* from_string */ /* ty=Tensor[(1, 96, 1, 1), int8] */;
  %167 = tile(%164, reps=[1, 96, 1, 1]) /* from_string */ /* ty=Tensor[(1, 960, 1, 1), float32] */;
  %168 = cast(%166, dtype="float32") /* from_string */ /* ty=Tensor[(1, 96, 1, 1), float32] */;
  %169 = reshape(%167, newshape=[-1, 1, 0, 0]) /* from_string */ /* ty=Tensor[(960, 1, 1, 1), float32] */;
  %170 = nn.conv2d(%168, %169, padding=[0, 0, 0, 0], groups=96, out_dtype="float32") /* from_string */ /* ty=Tensor[(1, 960, 1, 1), float32] */;
  %171 = reshape(%170, newshape=[1, 96, 10, 1, 1]) /* from_string */ /* ty=Tensor[(1, 96, 10, 1, 1), float32] */;
  %172 = sum(%171, axis=[0]) /* from_string */ /* ty=Tensor[(96, 10, 1, 1), float32] */;
  %173 = transpose(%172, axes=[1, 0, 2, 3]) /* from_string */ /* ty=Tensor[(10, 96, 1, 1), float32] */;
  %174 = abs(%173) /* from_string */ /* ty=Tensor[(10, 96, 1, 1), float32] */;
  %175 = max(%174, axis=[1], keepdims=True) /* from_string */ /* ty=Tensor[(10, 1, 1, 1), float32] */;
  %176 = divide(%175, 127f /* ty=float32 */) /* from_string */ /* ty=Tensor[(10, 1, 1, 1), float32] */;
  %177 = divide(%173, %176) /* from_string */ /* ty=Tensor[(10, 96, 1, 1), float32] */;
  %178 = greater_equal(%144, -128 /* ty=int32 */) /* from_string */ /* ty=Tensor[(1, 96, 4, 4), bool] */;
  %179 = less_equal(%144, 127 /* ty=int32 */) /* from_string */ /* ty=Tensor[(1, 96, 4, 4), bool] */;
  %180 = cast(%v21_weight, dtype="float32") /* from_string */ /* ty=Tensor[(10, 96, 1, 1), float32] */;
  %181 = nn.conv2d_transpose(%164, %180, channels=96, kernel_size=[1, 1], padding=[0, 0, 0, 0], kernel_layout="IOHW", out_dtype="float32") /* from_string */ /* ty=Tensor[(1, 96, 1, 1), float32] */;
  %182 = abs(%181) /* from_string */ /* ty=Tensor[(1, 96, 1, 1), float32] */;
  %183 = max(%182, axis=[1], keepdims=True) /* from_string */ /* ty=Tensor[(1, 1, 1, 1), float32] */;
  %184 = divide(%183, 127f /* ty=float32 */) /* from_string */ /* ty=Tensor[(1, 1, 1, 1), float32] */;
  %185 = divide(%181, %184) /* from_string */ /* ty=Tensor[(1, 96, 1, 1), float32] */;
  %186 = cast(%185, dtype="int8") /* from_string */ /* ty=Tensor[(1, 96, 1, 1), int8] */;
  %187 = cast(%186, dtype="float32") /* from_string */ /* ty=Tensor[(1, 96, 1, 1), float32] */;
  %188 = multiply(%187, 0.0625f /* ty=float32 */) /* from_string */ /* ty=Tensor[(1, 96, 1, 1), float32] */;
  %189 = ones(shape=[1, 96, 4, 4], dtype="float32") /* from_string */ /* ty=Tensor[(1, 96, 4, 4), float32] */;
  %190 = multiply(%178, %179) /* from_string */ /* ty=Tensor[(1, 96, 4, 4), bool] */;
  %191 = multiply(%188, %189) /* from_string */ /* ty=Tensor[(1, 96, 4, 4), float32] */;
  %192 = zeros(shape=[1, 96, 4, 4], dtype="float32") /* from_string */ /* ty=Tensor[(1, 96, 4, 4), float32] */;
  %193 = where(%190, %191, %192) /* from_string */ /* ty=Tensor[(1, 96, 4, 4), float32] */;
  %194 = cast(%193, dtype="int32") /* from_string */ /* ty=Tensor[(1, 96, 4, 4), int32] */;
  %195 = greater_equal(%142, -128 /* ty=int32 */) /* from_string */ /* ty=Tensor[(1, 384, 4, 4), bool] */;
  %196 = less_equal(%142, 127 /* ty=int32 */) /* from_string */ /* ty=Tensor[(1, 384, 4, 4), bool] */;
  %197 = cast(%v20_conv_2_weight, dtype="float32") /* from_string */ /* ty=Tensor[(96, 384, 1, 1), float32] */;
  %198 = nn.conv2d_transpose(%193, %197, channels=384, kernel_size=[1, 1], padding=[0, 0, 0, 0], kernel_layout="IOHW", out_dtype="float32") /* from_string */ /* ty=Tensor[(1, 384, 4, 4), float32] */;
  %199 = abs(%198) /* from_string */ /* ty=Tensor[(1, 384, 4, 4), float32] */;
  %200 = max(%199, axis=[1], keepdims=True) /* from_string */ /* ty=Tensor[(1, 1, 4, 4), float32] */;
  %201 = divide(%200, 127f /* ty=float32 */) /* from_string */ /* ty=Tensor[(1, 1, 4, 4), float32] */;
  %202 = divide(%198, %201) /* from_string */ /* ty=Tensor[(1, 384, 4, 4), float32] */;
  %203 = multiply(%195, %196) /* from_string */ /* ty=Tensor[(1, 384, 4, 4), bool] */;
  %204 = cast(%202, dtype="int8") /* from_string */ /* ty=Tensor[(1, 384, 4, 4), int8] */;
  %205 = zeros(shape=[1, 384, 4, 4], dtype="int8") /* from_string */ /* ty=Tensor[(1, 384, 4, 4), int8] */;
  %206 = where(%203, %204, %205) /* from_string */ /* ty=Tensor[(1, 384, 4, 4), int8] */;
  %207 = cast(%206, dtype="int32") /* from_string */ /* ty=Tensor[(1, 384, 4, 4), int32] */;
  %208 = greater_equal(%140, -128 /* ty=int32 */) /* from_string */ /* ty=Tensor[(1, 384, 4, 4), bool] */;
  %209 = less_equal(%140, 127 /* ty=int32 */) /* from_string */ /* ty=Tensor[(1, 384, 4, 4), bool] */;
  %210 = nn.conv2d_transpose(%206, %v20_conv_1_weight, channels=384, kernel_size=[7, 7], padding=[3, 3, 3, 3], groups=384, kernel_layout="IOHW", out_dtype="int32") /* from_string */ /* ty=Tensor[(1, 384, 4, 4), int32] */;
  %211 = abs(%210) /* from_string */ /* ty=Tensor[(1, 384, 4, 4), int32] */;
  %212 = max(%211, axis=[1], keepdims=True) /* from_string */ /* ty=Tensor[(1, 1, 4, 4), int32] */;
  %213 = divide(%212, 127 /* ty=int32 */) /* from_string */ /* ty=Tensor[(1, 1, 4, 4), int32] */;
  %214 = divide(%210, %213) /* from_string */ /* ty=Tensor[(1, 384, 4, 4), int32] */;
  %215 = multiply(%208, %209) /* from_string */ /* ty=Tensor[(1, 384, 4, 4), bool] */;
  %216 = cast(%214, dtype="int8") /* from_string */ /* ty=Tensor[(1, 384, 4, 4), int8] */;
  %217 = zeros(shape=[1, 384, 4, 4], dtype="int8") /* from_string */ /* ty=Tensor[(1, 384, 4, 4), int8] */;
  %218 = where(%215, %216, %217) /* from_string */ /* ty=Tensor[(1, 384, 4, 4), int8] */;
  %219 = cast(%218, dtype="int32") /* from_string */ /* ty=Tensor[(1, 384, 4, 4), int32] */;
  %220 = tile(%218, reps=[1, 64, 1, 1]) /* from_string */ /* ty=Tensor[(1, 24576, 4, 4), int8] */;
  %221 = reshape(%139, newshape=[1, -1, 0, 0]) /* from_string */ /* ty=Tensor[(1, 64, 4, 4), int8] */;
  %222 = reshape(%220, newshape=[-1, 1, 0, 0]) /* from_string */ /* ty=Tensor[(24576, 1, 4, 4), int8] */;
  %223 = nn.conv2d(%221, %222, padding=[0, 0, 0, 0], groups=64, out_dtype="int32") /* from_string */ /* ty=Tensor[(1, 24576, 1, 1), int32] */;
  %224 = reshape(%223, newshape=[1, 64, 384, 1, 1]) /* from_string */ /* ty=Tensor[(1, 64, 384, 1, 1), int32] */;
  %225 = sum(%224, axis=[0]) /* from_string */ /* ty=Tensor[(64, 384, 1, 1), int32] */;
  %226 = transpose(%225, axes=[1, 0, 2, 3]) /* from_string */ /* ty=Tensor[(384, 64, 1, 1), int32] */;
  %227 = abs(%226) /* from_string */ /* ty=Tensor[(384, 64, 1, 1), int32] */;
  %228 = max(%227, axis=[1], keepdims=True) /* from_string */ /* ty=Tensor[(384, 1, 1, 1), int32] */;
  %229 = divide(%228, 127 /* ty=int32 */) /* from_string */ /* ty=Tensor[(384, 1, 1, 1), int32] */;
  %230 = divide(%226, %229) /* from_string */ /* ty=Tensor[(384, 64, 1, 1), int32] */;
  %231 = greater_equal(%136, -128 /* ty=int32 */) /* from_string */ /* ty=Tensor[(1, 64, 4, 4), bool] */;
  %232 = less_equal(%136, 127 /* ty=int32 */) /* from_string */ /* ty=Tensor[(1, 64, 4, 4), bool] */;
  %233 = greater_equal(%138, meta[relay.Constant][0] /* ty=int8 */) /* from_string */ /* ty=Tensor[(1, 64, 4, 4), bool] */;
  %234 = less_equal(%138, meta[relay.Constant][1] /* ty=int8 */) /* from_string */ /* ty=Tensor[(1, 64, 4, 4), bool] */;
  %235 = nn.conv2d_transpose(%218, %v20_conv_0_weight, channels=64, kernel_size=[1, 1], padding=[0, 0, 0, 0], kernel_layout="IOHW", out_dtype="int32") /* from_string */ /* ty=Tensor[(1, 64, 4, 4), int32] */;
  %236 = abs(%235) /* from_string */ /* ty=Tensor[(1, 64, 4, 4), int32] */;
  %237 = max(%236, axis=[1], keepdims=True) /* from_string */ /* ty=Tensor[(1, 1, 4, 4), int32] */;
  %238 = divide(%237, 127 /* ty=int32 */) /* from_string */ /* ty=Tensor[(1, 1, 4, 4), int32] */;
  %239 = divide(%235, %238) /* from_string */ /* ty=Tensor[(1, 64, 4, 4), int32] */;
  %240 = multiply(%233, %234) /* from_string */ /* ty=Tensor[(1, 64, 4, 4), bool] */;
  %241 = cast(%239, dtype="int8") /* from_string */ /* ty=Tensor[(1, 64, 4, 4), int8] */;
  %242 = zeros(shape=[1, 64, 4, 4], dtype="int8") /* from_string */ /* ty=Tensor[(1, 64, 4, 4), int8] */;
  %243 = where(%240, %241, %242) /* from_string */ /* ty=Tensor[(1, 64, 4, 4), int8] */;
  %244 = cast(%243, dtype="float32") /* from_string */ /* ty=Tensor[(1, 64, 4, 4), float32] */;
  %245 = reshape(%v19_qadd_scale_y, newshape=[1, -1, 1, 1]) /* from_string */ /* ty=Tensor[(1, 1, 1, 1), float32] */;
  %246 = divide(%244, %245) /* from_string */ /* ty=Tensor[(1, 64, 4, 4), float32] */;
  %247 = reshape(%v19_qadd_scale_x2, newshape=[1, -1, 1, 1]) /* from_string */ /* ty=Tensor[(1, 1, 1, 1), float32] */;
  %248 = multiply(%246, %247) /* from_string */ /* ty=Tensor[(1, 64, 4, 4), float32] */;
  %249 = multiply(%231, %232) /* from_string */ /* ty=Tensor[(1, 64, 4, 4), bool] */;
  %250 = cast(%248, dtype="int8") /* from_string */ /* ty=Tensor[(1, 64, 4, 4), int8] */;
  %251 = zeros(shape=[1, 64, 4, 4], dtype="int8") /* from_string */ /* ty=Tensor[(1, 64, 4, 4), int8] */;
  %252 = where(%249, %250, %251) /* from_string */ /* ty=Tensor[(1, 64, 4, 4), int8] */;
  %253 = cast(%252, dtype="int32") /* from_string */ /* ty=Tensor[(1, 64, 4, 4), int32] */;
  %254 = greater_equal(%134, -128 /* ty=int32 */) /* from_string */ /* ty=Tensor[(1, 192, 4, 4), bool] */;
  %255 = less_equal(%134, 127 /* ty=int32 */) /* from_string */ /* ty=Tensor[(1, 192, 4, 4), bool] */;
  %256 = nn.conv2d_transpose(%252, %v19_conv_2_weight, channels=192, kernel_size=[1, 1], padding=[0, 0, 0, 0], kernel_layout="IOHW", out_dtype="int32") /* from_string */ /* ty=Tensor[(1, 192, 4, 4), int32] */;
  %257 = abs(%256) /* from_string */ /* ty=Tensor[(1, 192, 4, 4), int32] */;
  %258 = max(%257, axis=[1], keepdims=True) /* from_string */ /* ty=Tensor[(1, 1, 4, 4), int32] */;
  %259 = divide(%258, 127 /* ty=int32 */) /* from_string */ /* ty=Tensor[(1, 1, 4, 4), int32] */;
  %260 = divide(%256, %259) /* from_string */ /* ty=Tensor[(1, 192, 4, 4), int32] */;
  %261 = multiply(%254, %255) /* from_string */ /* ty=Tensor[(1, 192, 4, 4), bool] */;
  %262 = cast(%260, dtype="int8") /* from_string */ /* ty=Tensor[(1, 192, 4, 4), int8] */;
  %263 = zeros(shape=[1, 192, 4, 4], dtype="int8") /* from_string */ /* ty=Tensor[(1, 192, 4, 4), int8] */;
  %264 = where(%261, %262, %263) /* from_string */ /* ty=Tensor[(1, 192, 4, 4), int8] */;
  %265 = cast(%264, dtype="int32") /* from_string */ /* ty=Tensor[(1, 192, 4, 4), int32] */;
  %266 = greater_equal(%132, -128 /* ty=int32 */) /* from_string */ /* ty=Tensor[(1, 192, 4, 4), bool] */;
  %267 = less_equal(%132, 127 /* ty=int32 */) /* from_string */ /* ty=Tensor[(1, 192, 4, 4), bool] */;
  %268 = nn.conv2d_transpose(%264, %v19_conv_1_weight, channels=192, kernel_size=[7, 7], padding=[3, 3, 3, 3], groups=192, kernel_layout="IOHW", out_dtype="int32") /* from_string */ /* ty=Tensor[(1, 192, 4, 4), int32] */;
  %269 = abs(%268) /* from_string */ /* ty=Tensor[(1, 192, 4, 4), int32] */;
  %270 = max(%269, axis=[1], keepdims=True) /* from_string */ /* ty=Tensor[(1, 1, 4, 4), int32] */;
  %271 = divide(%270, 127 /* ty=int32 */) /* from_string */ /* ty=Tensor[(1, 1, 4, 4), int32] */;
  %272 = divide(%268, %271) /* from_string */ /* ty=Tensor[(1, 192, 4, 4), int32] */;
  %273 = multiply(%266, %267) /* from_string */ /* ty=Tensor[(1, 192, 4, 4), bool] */;
  %274 = cast(%272, dtype="int8") /* from_string */ /* ty=Tensor[(1, 192, 4, 4), int8] */;
  %275 = zeros(shape=[1, 192, 4, 4], dtype="int8") /* from_string */ /* ty=Tensor[(1, 192, 4, 4), int8] */;
  %276 = where(%273, %274, %275) /* from_string */ /* ty=Tensor[(1, 192, 4, 4), int8] */;
  %277 = cast(%276, dtype="int32") /* from_string */ /* ty=Tensor[(1, 192, 4, 4), int32] */;
  %278 = tile(%276, reps=[1, 64, 1, 1]) /* from_string */ /* ty=Tensor[(1, 12288, 4, 4), int8] */;
  %279 = reshape(%131, newshape=[1, -1, 0, 0]) /* from_string */ /* ty=Tensor[(1, 64, 4, 4), int8] */;
  %280 = reshape(%278, newshape=[-1, 1, 0, 0]) /* from_string */ /* ty=Tensor[(12288, 1, 4, 4), int8] */;
  %281 = nn.conv2d(%279, %280, padding=[0, 0, 0, 0], groups=64, out_dtype="int32") /* from_string */ /* ty=Tensor[(1, 12288, 1, 1), int32] */;
  %282 = reshape(%281, newshape=[1, 64, 192, 1, 1]) /* from_string */ /* ty=Tensor[(1, 64, 192, 1, 1), int32] */;
  %283 = sum(%282, axis=[0]) /* from_string */ /* ty=Tensor[(64, 192, 1, 1), int32] */;
  %284 = transpose(%283, axes=[1, 0, 2, 3]) /* from_string */ /* ty=Tensor[(192, 64, 1, 1), int32] */;
  %285 = abs(%284) /* from_string */ /* ty=Tensor[(192, 64, 1, 1), int32] */;
  %286 = max(%285, axis=[1], keepdims=True) /* from_string */ /* ty=Tensor[(192, 1, 1, 1), int32] */;
  %287 = divide(%286, 127 /* ty=int32 */) /* from_string */ /* ty=Tensor[(192, 1, 1, 1), int32] */;
  %288 = divide(%284, %287) /* from_string */ /* ty=Tensor[(192, 64, 1, 1), int32] */;
  %289 = greater_equal(%128, -128 /* ty=int32 */) /* from_string */ /* ty=Tensor[(1, 64, 4, 4), bool] */;
  %290 = less_equal(%128, 127 /* ty=int32 */) /* from_string */ /* ty=Tensor[(1, 64, 4, 4), bool] */;
  %291 = greater_equal(%130, meta[relay.Constant][2] /* ty=int8 */) /* from_string */ /* ty=Tensor[(1, 64, 4, 4), bool] */;
  %292 = less_equal(%130, meta[relay.Constant][3] /* ty=int8 */) /* from_string */ /* ty=Tensor[(1, 64, 4, 4), bool] */;
  %293 = nn.conv2d_transpose(%276, %v19_conv_0_weight, channels=64, kernel_size=[1, 1], padding=[0, 0, 0, 0], kernel_layout="IOHW", out_dtype="int32") /* from_string */ /* ty=Tensor[(1, 64, 4, 4), int32] */;
  %294 = abs(%293) /* from_string */ /* ty=Tensor[(1, 64, 4, 4), int32] */;
  %295 = max(%294, axis=[1], keepdims=True) /* from_string */ /* ty=Tensor[(1, 1, 4, 4), int32] */;
  %296 = divide(%295, 127 /* ty=int32 */) /* from_string */ /* ty=Tensor[(1, 1, 4, 4), int32] */;
  %297 = divide(%293, %296) /* from_string */ /* ty=Tensor[(1, 64, 4, 4), int32] */;
  %298 = multiply(%291, %292) /* from_string */ /* ty=Tensor[(1, 64, 4, 4), bool] */;
  %299 = cast(%297, dtype="int8") /* from_string */ /* ty=Tensor[(1, 64, 4, 4), int8] */;
  %300 = zeros(shape=[1, 64, 4, 4], dtype="int8") /* from_string */ /* ty=Tensor[(1, 64, 4, 4), int8] */;
  %301 = where(%298, %299, %300) /* from_string */ /* ty=Tensor[(1, 64, 4, 4), int8] */;
  %302 = cast(%301, dtype="float32") /* from_string */ /* ty=Tensor[(1, 64, 4, 4), float32] */;
  %303 = reshape(%v18_qadd_scale_y, newshape=[1, -1, 1, 1]) /* from_string */ /* ty=Tensor[(1, 1, 1, 1), float32] */;
  %304 = divide(%302, %303) /* from_string */ /* ty=Tensor[(1, 64, 4, 4), float32] */;
  %305 = reshape(%v18_qadd_scale_x2, newshape=[1, -1, 1, 1]) /* from_string */ /* ty=Tensor[(1, 1, 1, 1), float32] */;
  %306 = multiply(%304, %305) /* from_string */ /* ty=Tensor[(1, 64, 4, 4), float32] */;
  %307 = multiply(%289, %290) /* from_string */ /* ty=Tensor[(1, 64, 4, 4), bool] */;
  %308 = cast(%306, dtype="int8") /* from_string */ /* ty=Tensor[(1, 64, 4, 4), int8] */;
  %309 = zeros(shape=[1, 64, 4, 4], dtype="int8") /* from_string */ /* ty=Tensor[(1, 64, 4, 4), int8] */;
  %310 = where(%307, %308, %309) /* from_string */ /* ty=Tensor[(1, 64, 4, 4), int8] */;
  %311 = cast(%310, dtype="int32") /* from_string */ /* ty=Tensor[(1, 64, 4, 4), int32] */;
  %312 = greater_equal(%126, -128 /* ty=int32 */) /* from_string */ /* ty=Tensor[(1, 192, 4, 4), bool] */;
  %313 = less_equal(%126, 127 /* ty=int32 */) /* from_string */ /* ty=Tensor[(1, 192, 4, 4), bool] */;
  %314 = nn.conv2d_transpose(%310, %v18_conv_2_weight, channels=192, kernel_size=[1, 1], padding=[0, 0, 0, 0], kernel_layout="IOHW", out_dtype="int32") /* from_string */ /* ty=Tensor[(1, 192, 4, 4), int32] */;
  %315 = abs(%314) /* from_string */ /* ty=Tensor[(1, 192, 4, 4), int32] */;
  %316 = max(%315, axis=[1], keepdims=True) /* from_string */ /* ty=Tensor[(1, 1, 4, 4), int32] */;
  %317 = divide(%316, 127 /* ty=int32 */) /* from_string */ /* ty=Tensor[(1, 1, 4, 4), int32] */;
  %318 = divide(%314, %317) /* from_string */ /* ty=Tensor[(1, 192, 4, 4), int32] */;
  %319 = multiply(%312, %313) /* from_string */ /* ty=Tensor[(1, 192, 4, 4), bool] */;
  %320 = cast(%318, dtype="int8") /* from_string */ /* ty=Tensor[(1, 192, 4, 4), int8] */;
  %321 = zeros(shape=[1, 192, 4, 4], dtype="int8") /* from_string */ /* ty=Tensor[(1, 192, 4, 4), int8] */;
  %322 = where(%319, %320, %321) /* from_string */ /* ty=Tensor[(1, 192, 4, 4), int8] */;
  %323 = cast(%322, dtype="int32") /* from_string */ /* ty=Tensor[(1, 192, 4, 4), int32] */;
  %324 = greater_equal(%124, -128 /* ty=int32 */) /* from_string */ /* ty=Tensor[(1, 192, 4, 4), bool] */;
  %325 = less_equal(%124, 127 /* ty=int32 */) /* from_string */ /* ty=Tensor[(1, 192, 4, 4), bool] */;
  %326 = nn.conv2d_transpose(%322, %v18_conv_1_weight, channels=192, kernel_size=[7, 7], padding=[3, 3, 3, 3], groups=192, kernel_layout="IOHW", out_dtype="int32") /* from_string */ /* ty=Tensor[(1, 192, 4, 4), int32] */;
  %327 = abs(%326) /* from_string */ /* ty=Tensor[(1, 192, 4, 4), int32] */;
  %328 = max(%327, axis=[1], keepdims=True) /* from_string */ /* ty=Tensor[(1, 1, 4, 4), int32] */;
  %329 = divide(%328, 127 /* ty=int32 */) /* from_string */ /* ty=Tensor[(1, 1, 4, 4), int32] */;
  %330 = divide(%326, %329) /* from_string */ /* ty=Tensor[(1, 192, 4, 4), int32] */;
  %331 = multiply(%324, %325) /* from_string */ /* ty=Tensor[(1, 192, 4, 4), bool] */;
  %332 = cast(%330, dtype="int8") /* from_string */ /* ty=Tensor[(1, 192, 4, 4), int8] */;
  %333 = zeros(shape=[1, 192, 4, 4], dtype="int8") /* from_string */ /* ty=Tensor[(1, 192, 4, 4), int8] */;
  %334 = where(%331, %332, %333) /* from_string */ /* ty=Tensor[(1, 192, 4, 4), int8] */;
  %335 = cast(%334, dtype="int32") /* from_string */ /* ty=Tensor[(1, 192, 4, 4), int32] */;
  %336 = strided_slice(%123, begin=[0, 0, 0, 0], end=[1, 32, 4, 4], strides=[1], axes=None) /* from_string */ /* ty=Tensor[(1, 32, 4, 4), int8] */;
  %337 = tile(%334, reps=[1, 32, 1, 1]) /* from_string */ /* ty=Tensor[(1, 6144, 4, 4), int8] */;
  %338 = reshape(%336, newshape=[1, -1, 0, 0]) /* from_string */ /* ty=Tensor[(1, 32, 4, 4), int8] */;
  %339 = reshape(%337, newshape=[-1, 1, 0, 0]) /* from_string */ /* ty=Tensor[(6144, 1, 4, 4), int8] */;
  %340 = nn.conv2d(%338, %339, padding=[0, 0, 0, 0], groups=32, out_dtype="int32") /* from_string */ /* ty=Tensor[(1, 6144, 1, 1), int32] */;
  %341 = reshape(%340, newshape=[1, 32, 192, 1, 1]) /* from_string */ /* ty=Tensor[(1, 32, 192, 1, 1), int32] */;
  %342 = sum(%341, axis=[0]) /* from_string */ /* ty=Tensor[(32, 192, 1, 1), int32] */;
  %343 = transpose(%342, axes=[1, 0, 2, 3]) /* from_string */ /* ty=Tensor[(192, 32, 1, 1), int32] */;
  %344 = abs(%343) /* from_string */ /* ty=Tensor[(192, 32, 1, 1), int32] */;
  %345 = max(%344, axis=[1], keepdims=True) /* from_string */ /* ty=Tensor[(192, 1, 1, 1), int32] */;
  %346 = divide(%345, 127 /* ty=int32 */) /* from_string */ /* ty=Tensor[(192, 1, 1, 1), int32] */;
  %347 = divide(%343, %346) /* from_string */ /* ty=Tensor[(192, 32, 1, 1), int32] */;
  %348 = greater_equal(%120, -128 /* ty=int32 */) /* from_string */ /* ty=Tensor[(1, 64, 4, 4), bool] */;
  %349 = less_equal(%120, 127 /* ty=int32 */) /* from_string */ /* ty=Tensor[(1, 64, 4, 4), bool] */;
  %350 = greater_equal(%122, meta[relay.Constant][4] /* ty=int8 */) /* from_string */ /* ty=Tensor[(1, 64, 4, 4), bool] */;
  %351 = less_equal(%122, meta[relay.Constant][5] /* ty=int8 */) /* from_string */ /* ty=Tensor[(1, 64, 4, 4), bool] */;
  %352 = nn.conv2d_transpose(%334, %v18_conv_0_weight, channels=64, kernel_size=[1, 1], padding=[0, 0, 0, 0], kernel_layout="IOHW", out_dtype="int32") /* from_string */ /* ty=Tensor[(1, 64, 4, 4), int32] */;
  %353 = abs(%352) /* from_string */ /* ty=Tensor[(1, 64, 4, 4), int32] */;
  %354 = max(%353, axis=[1], keepdims=True) /* from_string */ /* ty=Tensor[(1, 1, 4, 4), int32] */;
  %355 = divide(%354, 127 /* ty=int32 */) /* from_string */ /* ty=Tensor[(1, 1, 4, 4), int32] */;
  %356 = divide(%352, %355) /* from_string */ /* ty=Tensor[(1, 64, 4, 4), int32] */;
  %357 = multiply(%350, %351) /* from_string */ /* ty=Tensor[(1, 64, 4, 4), bool] */;
  %358 = cast(%356, dtype="int8") /* from_string */ /* ty=Tensor[(1, 64, 4, 4), int8] */;
  %359 = zeros(shape=[1, 64, 4, 4], dtype="int8") /* from_string */ /* ty=Tensor[(1, 64, 4, 4), int8] */;
  %360 = where(%357, %358, %359) /* from_string */ /* ty=Tensor[(1, 64, 4, 4), int8] */;
  %361 = cast(%360, dtype="float32") /* from_string */ /* ty=Tensor[(1, 64, 4, 4), float32] */;
  %362 = reshape(%v17_qadd_scale_y, newshape=[1, -1, 1, 1]) /* from_string */ /* ty=Tensor[(1, 1, 1, 1), float32] */;
  %363 = divide(%361, %362) /* from_string */ /* ty=Tensor[(1, 64, 4, 4), float32] */;
  %364 = reshape(%v17_qadd_scale_x2, newshape=[1, -1, 1, 1]) /* from_string */ /* ty=Tensor[(1, 1, 1, 1), float32] */;
  %365 = multiply(%363, %364) /* from_string */ /* ty=Tensor[(1, 64, 4, 4), float32] */;
  %366 = multiply(%348, %349) /* from_string */ /* ty=Tensor[(1, 64, 4, 4), bool] */;
  %367 = cast(%365, dtype="int8") /* from_string */ /* ty=Tensor[(1, 64, 4, 4), int8] */;
  %368 = zeros(shape=[1, 64, 4, 4], dtype="int8") /* from_string */ /* ty=Tensor[(1, 64, 4, 4), int8] */;
  %369 = where(%366, %367, %368) /* from_string */ /* ty=Tensor[(1, 64, 4, 4), int8] */;
  %370 = cast(%369, dtype="int32") /* from_string */ /* ty=Tensor[(1, 64, 4, 4), int32] */;
  %371 = greater_equal(%118, -128 /* ty=int32 */) /* from_string */ /* ty=Tensor[(1, 384, 4, 4), bool] */;
  %372 = less_equal(%118, 127 /* ty=int32 */) /* from_string */ /* ty=Tensor[(1, 384, 4, 4), bool] */;
  %373 = nn.conv2d_transpose(%369, %v17_conv_2_weight, channels=384, kernel_size=[1, 1], padding=[0, 0, 0, 0], kernel_layout="IOHW", out_dtype="int32") /* from_string */ /* ty=Tensor[(1, 384, 4, 4), int32] */;
  %374 = abs(%373) /* from_string */ /* ty=Tensor[(1, 384, 4, 4), int32] */;
  %375 = max(%374, axis=[1], keepdims=True) /* from_string */ /* ty=Tensor[(1, 1, 4, 4), int32] */;
  %376 = divide(%375, 127 /* ty=int32 */) /* from_string */ /* ty=Tensor[(1, 1, 4, 4), int32] */;
  %377 = divide(%373, %376) /* from_string */ /* ty=Tensor[(1, 384, 4, 4), int32] */;
  %378 = multiply(%371, %372) /* from_string */ /* ty=Tensor[(1, 384, 4, 4), bool] */;
  %379 = cast(%377, dtype="int8") /* from_string */ /* ty=Tensor[(1, 384, 4, 4), int8] */;
  %380 = zeros(shape=[1, 384, 4, 4], dtype="int8") /* from_string */ /* ty=Tensor[(1, 384, 4, 4), int8] */;
  %381 = where(%378, %379, %380) /* from_string */ /* ty=Tensor[(1, 384, 4, 4), int8] */;
  %382 = cast(%381, dtype="int32") /* from_string */ /* ty=Tensor[(1, 384, 4, 4), int32] */;
  %383 = greater_equal(%116, -128 /* ty=int32 */) /* from_string */ /* ty=Tensor[(1, 384, 4, 4), bool] */;
  %384 = less_equal(%116, 127 /* ty=int32 */) /* from_string */ /* ty=Tensor[(1, 384, 4, 4), bool] */;
  %385 = nn.conv2d_transpose(%381, %v17_conv_1_weight, channels=384, kernel_size=[7, 7], padding=[3, 3, 3, 3], groups=384, kernel_layout="IOHW", out_dtype="int32") /* from_string */ /* ty=Tensor[(1, 384, 4, 4), int32] */;
  %386 = abs(%385) /* from_string */ /* ty=Tensor[(1, 384, 4, 4), int32] */;
  %387 = max(%386, axis=[1], keepdims=True) /* from_string */ /* ty=Tensor[(1, 1, 4, 4), int32] */;
  %388 = divide(%387, 127 /* ty=int32 */) /* from_string */ /* ty=Tensor[(1, 1, 4, 4), int32] */;
  %389 = divide(%385, %388) /* from_string */ /* ty=Tensor[(1, 384, 4, 4), int32] */;
  %390 = multiply(%383, %384) /* from_string */ /* ty=Tensor[(1, 384, 4, 4), bool] */;
  %391 = cast(%389, dtype="int8") /* from_string */ /* ty=Tensor[(1, 384, 4, 4), int8] */;
  %392 = zeros(shape=[1, 384, 4, 4], dtype="int8") /* from_string */ /* ty=Tensor[(1, 384, 4, 4), int8] */;
  %393 = where(%390, %391, %392) /* from_string */ /* ty=Tensor[(1, 384, 4, 4), int8] */;
  %394 = cast(%393, dtype="int32") /* from_string */ /* ty=Tensor[(1, 384, 4, 4), int32] */;
  %395 = strided_slice(%115, begin=[0, 0, 0, 0], end=[1, 16, 4, 4], strides=[1], axes=None) /* from_string */ /* ty=Tensor[(1, 16, 4, 4), int8] */;
  %396 = tile(%393, reps=[1, 16, 1, 1]) /* from_string */ /* ty=Tensor[(1, 6144, 4, 4), int8] */;
  %397 = reshape(%395, newshape=[1, -1, 0, 0]) /* from_string */ /* ty=Tensor[(1, 16, 4, 4), int8] */;
  %398 = reshape(%396, newshape=[-1, 1, 0, 0]) /* from_string */ /* ty=Tensor[(6144, 1, 4, 4), int8] */;
  %399 = nn.conv2d(%397, %398, padding=[0, 0, 0, 0], groups=16, out_dtype="int32") /* from_string */ /* ty=Tensor[(1, 6144, 1, 1), int32] */;
  %400 = reshape(%399, newshape=[1, 16, 384, 1, 1]) /* from_string */ /* ty=Tensor[(1, 16, 384, 1, 1), int32] */;
  %401 = sum(%400, axis=[0]) /* from_string */ /* ty=Tensor[(16, 384, 1, 1), int32] */;
  %402 = transpose(%401, axes=[1, 0, 2, 3]) /* from_string */ /* ty=Tensor[(384, 16, 1, 1), int32] */;
  %403 = abs(%402) /* from_string */ /* ty=Tensor[(384, 16, 1, 1), int32] */;
  %404 = max(%403, axis=[1], keepdims=True) /* from_string */ /* ty=Tensor[(384, 1, 1, 1), int32] */;
  %405 = divide(%404, 127 /* ty=int32 */) /* from_string */ /* ty=Tensor[(384, 1, 1, 1), int32] */;
  %406 = divide(%402, %405) /* from_string */ /* ty=Tensor[(384, 16, 1, 1), int32] */;
  %407 = greater_equal(%114, -128 /* ty=int32 */) /* from_string */ /* ty=Tensor[(1, 64, 4, 4), bool] */;
  %408 = less_equal(%114, 127 /* ty=int32 */) /* from_string */ /* ty=Tensor[(1, 64, 4, 4), bool] */;
  %409 = nn.conv2d_transpose(%393, %v17_conv_0_weight, channels=64, kernel_size=[1, 1], padding=[0, 0, 0, 0], kernel_layout="IOHW", out_dtype="int32") /* from_string */ /* ty=Tensor[(1, 64, 4, 4), int32] */;
  %410 = abs(%409) /* from_string */ /* ty=Tensor[(1, 64, 4, 4), int32] */;
  %411 = max(%410, axis=[1], keepdims=True) /* from_string */ /* ty=Tensor[(1, 1, 4, 4), int32] */;
  %412 = divide(%411, 127 /* ty=int32 */) /* from_string */ /* ty=Tensor[(1, 1, 4, 4), int32] */;
  %413 = divide(%409, %412) /* from_string */ /* ty=Tensor[(1, 64, 4, 4), int32] */;
  %414 = multiply(%407, %408) /* from_string */ /* ty=Tensor[(1, 64, 4, 4), bool] */;
  %415 = cast(%413, dtype="int8") /* from_string */ /* ty=Tensor[(1, 64, 4, 4), int8] */;
  %416 = zeros(shape=[1, 64, 4, 4], dtype="int8") /* from_string */ /* ty=Tensor[(1, 64, 4, 4), int8] */;
  %417 = where(%414, %415, %416) /* from_string */ /* ty=Tensor[(1, 64, 4, 4), int8] */;
  %418 = cast(%417, dtype="int32") /* from_string */ /* ty=Tensor[(1, 64, 4, 4), int32] */;
  %419 = greater_equal(%112, -128 /* ty=int32 */) /* from_string */ /* ty=Tensor[(1, 192, 4, 4), bool] */;
  %420 = less_equal(%112, 127 /* ty=int32 */) /* from_string */ /* ty=Tensor[(1, 192, 4, 4), bool] */;
  %421 = nn.conv2d_transpose(%417, %v16_conv_2_weight, channels=192, kernel_size=[1, 1], padding=[0, 0, 0, 0], kernel_layout="IOHW", out_dtype="int32") /* from_string */ /* ty=Tensor[(1, 192, 4, 4), int32] */;
  %422 = abs(%421) /* from_string */ /* ty=Tensor[(1, 192, 4, 4), int32] */;
  %423 = max(%422, axis=[1], keepdims=True) /* from_string */ /* ty=Tensor[(1, 1, 4, 4), int32] */;
  %424 = divide(%423, 127 /* ty=int32 */) /* from_string */ /* ty=Tensor[(1, 1, 4, 4), int32] */;
  %425 = divide(%421, %424) /* from_string */ /* ty=Tensor[(1, 192, 4, 4), int32] */;
  %426 = multiply(%419, %420) /* from_string */ /* ty=Tensor[(1, 192, 4, 4), bool] */;
  %427 = cast(%425, dtype="int8") /* from_string */ /* ty=Tensor[(1, 192, 4, 4), int8] */;
  %428 = zeros(shape=[1, 192, 4, 4], dtype="int8") /* from_string */ /* ty=Tensor[(1, 192, 4, 4), int8] */;
  %429 = where(%426, %427, %428) /* from_string */ /* ty=Tensor[(1, 192, 4, 4), int8] */;
  %430 = cast(%429, dtype="int32") /* from_string */ /* ty=Tensor[(1, 192, 4, 4), int32] */;
  %431 = greater_equal(%110, -128 /* ty=int32 */) /* from_string */ /* ty=Tensor[(1, 192, 8, 8), bool] */;
  %432 = less_equal(%110, 127 /* ty=int32 */) /* from_string */ /* ty=Tensor[(1, 192, 8, 8), bool] */;
  %433 = nn.conv2d_transpose(%429, %v16_conv_1_weight, channels=192, kernel_size=[7, 7], strides=[2, 2], output_padding=[1, 1], padding=[3, 3, 3, 3], groups=192, kernel_layout="IOHW", out_dtype="int32") /* from_string */ /* ty=Tensor[(1, 192, 8, 8), int32] */;
  %434 = abs(%433) /* from_string */ /* ty=Tensor[(1, 192, 8, 8), int32] */;
  %435 = max(%434, axis=[1], keepdims=True) /* from_string */ /* ty=Tensor[(1, 1, 8, 8), int32] */;
  %436 = divide(%435, 127 /* ty=int32 */) /* from_string */ /* ty=Tensor[(1, 1, 8, 8), int32] */;
  %437 = divide(%433, %436) /* from_string */ /* ty=Tensor[(1, 192, 8, 8), int32] */;
  %438 = multiply(%431, %432) /* from_string */ /* ty=Tensor[(1, 192, 8, 8), bool] */;
  %439 = cast(%437, dtype="int8") /* from_string */ /* ty=Tensor[(1, 192, 8, 8), int8] */;
  %440 = zeros(shape=[1, 192, 8, 8], dtype="int8") /* from_string */ /* ty=Tensor[(1, 192, 8, 8), int8] */;
  %441 = where(%438, %439, %440) /* from_string */ /* ty=Tensor[(1, 192, 8, 8), int8] */;
  %442 = cast(%441, dtype="int32") /* from_string */ /* ty=Tensor[(1, 192, 8, 8), int32] */;
  %443 = tile(%441, reps=[1, 32, 1, 1]) /* from_string */ /* ty=Tensor[(1, 6144, 8, 8), int8] */;
  %444 = reshape(%109, newshape=[1, -1, 0, 0]) /* from_string */ /* ty=Tensor[(1, 32, 8, 8), int8] */;
  %445 = reshape(%443, newshape=[-1, 1, 0, 0]) /* from_string */ /* ty=Tensor[(6144, 1, 8, 8), int8] */;
  %446 = nn.conv2d(%444, %445, padding=[0, 0, 0, 0], groups=32, out_dtype="int32") /* from_string */ /* ty=Tensor[(1, 6144, 1, 1), int32] */;
  %447 = reshape(%446, newshape=[1, 32, 192, 1, 1]) /* from_string */ /* ty=Tensor[(1, 32, 192, 1, 1), int32] */;
  %448 = sum(%447, axis=[0]) /* from_string */ /* ty=Tensor[(32, 192, 1, 1), int32] */;
  %449 = transpose(%448, axes=[1, 0, 2, 3]) /* from_string */ /* ty=Tensor[(192, 32, 1, 1), int32] */;
  %450 = abs(%449) /* from_string */ /* ty=Tensor[(192, 32, 1, 1), int32] */;
  %451 = max(%450, axis=[1], keepdims=True) /* from_string */ /* ty=Tensor[(192, 1, 1, 1), int32] */;
  %452 = divide(%451, 127 /* ty=int32 */) /* from_string */ /* ty=Tensor[(192, 1, 1, 1), int32] */;
  %453 = divide(%449, %452) /* from_string */ /* ty=Tensor[(192, 32, 1, 1), int32] */;
  %454 = greater_equal(%106, -128 /* ty=int32 */) /* from_string */ /* ty=Tensor[(1, 32, 8, 8), bool] */;
  %455 = less_equal(%106, 127 /* ty=int32 */) /* from_string */ /* ty=Tensor[(1, 32, 8, 8), bool] */;
  %456 = greater_equal(%108, meta[relay.Constant][6] /* ty=int8 */) /* from_string */ /* ty=Tensor[(1, 32, 8, 8), bool] */;
  %457 = less_equal(%108, meta[relay.Constant][7] /* ty=int8 */) /* from_string */ /* ty=Tensor[(1, 32, 8, 8), bool] */;
  %458 = nn.conv2d_transpose(%441, %v16_conv_0_weight, channels=32, kernel_size=[1, 1], padding=[0, 0, 0, 0], kernel_layout="IOHW", out_dtype="int32") /* from_string */ /* ty=Tensor[(1, 32, 8, 8), int32] */;
  %459 = abs(%458) /* from_string */ /* ty=Tensor[(1, 32, 8, 8), int32] */;
  %460 = max(%459, axis=[1], keepdims=True) /* from_string */ /* ty=Tensor[(1, 1, 8, 8), int32] */;
  %461 = divide(%460, 127 /* ty=int32 */) /* from_string */ /* ty=Tensor[(1, 1, 8, 8), int32] */;
  %462 = divide(%458, %461) /* from_string */ /* ty=Tensor[(1, 32, 8, 8), int32] */;
  %463 = multiply(%456, %457) /* from_string */ /* ty=Tensor[(1, 32, 8, 8), bool] */;
  %464 = cast(%462, dtype="int8") /* from_string */ /* ty=Tensor[(1, 32, 8, 8), int8] */;
  %465 = zeros(shape=[1, 32, 8, 8], dtype="int8") /* from_string */ /* ty=Tensor[(1, 32, 8, 8), int8] */;
  %466 = where(%463, %464, %465) /* from_string */ /* ty=Tensor[(1, 32, 8, 8), int8] */;
  %467 = cast(%466, dtype="float32") /* from_string */ /* ty=Tensor[(1, 32, 8, 8), float32] */;
  %468 = reshape(%v15_qadd_scale_y, newshape=[1, -1, 1, 1]) /* from_string */ /* ty=Tensor[(1, 1, 1, 1), float32] */;
  %469 = divide(%467, %468) /* from_string */ /* ty=Tensor[(1, 32, 8, 8), float32] */;
  %470 = reshape(%v15_qadd_scale_x2, newshape=[1, -1, 1, 1]) /* from_string */ /* ty=Tensor[(1, 1, 1, 1), float32] */;
  %471 = multiply(%469, %470) /* from_string */ /* ty=Tensor[(1, 32, 8, 8), float32] */;
  %472 = multiply(%454, %455) /* from_string */ /* ty=Tensor[(1, 32, 8, 8), bool] */;
  %473 = cast(%471, dtype="int8") /* from_string */ /* ty=Tensor[(1, 32, 8, 8), int8] */;
  %474 = zeros(shape=[1, 32, 8, 8], dtype="int8") /* from_string */ /* ty=Tensor[(1, 32, 8, 8), int8] */;
  %475 = where(%472, %473, %474) /* from_string */ /* ty=Tensor[(1, 32, 8, 8), int8] */;
  %476 = cast(%475, dtype="int32") /* from_string */ /* ty=Tensor[(1, 32, 8, 8), int32] */;
  %477 = greater_equal(%104, -128 /* ty=int32 */) /* from_string */ /* ty=Tensor[(1, 96, 8, 8), bool] */;
  %478 = less_equal(%104, 127 /* ty=int32 */) /* from_string */ /* ty=Tensor[(1, 96, 8, 8), bool] */;
  %479 = nn.conv2d_transpose(%475, %v15_conv_2_weight, channels=96, kernel_size=[1, 1], padding=[0, 0, 0, 0], kernel_layout="IOHW", out_dtype="int32") /* from_string */ /* ty=Tensor[(1, 96, 8, 8), int32] */;
  %480 = abs(%479) /* from_string */ /* ty=Tensor[(1, 96, 8, 8), int32] */;
  %481 = max(%480, axis=[1], keepdims=True) /* from_string */ /* ty=Tensor[(1, 1, 8, 8), int32] */;
  %482 = divide(%481, 127 /* ty=int32 */) /* from_string */ /* ty=Tensor[(1, 1, 8, 8), int32] */;
  %483 = divide(%479, %482) /* from_string */ /* ty=Tensor[(1, 96, 8, 8), int32] */;
  %484 = multiply(%477, %478) /* from_string */ /* ty=Tensor[(1, 96, 8, 8), bool] */;
  %485 = cast(%483, dtype="int8") /* from_string */ /* ty=Tensor[(1, 96, 8, 8), int8] */;
  %486 = zeros(shape=[1, 96, 8, 8], dtype="int8") /* from_string */ /* ty=Tensor[(1, 96, 8, 8), int8] */;
  %487 = where(%484, %485, %486) /* from_string */ /* ty=Tensor[(1, 96, 8, 8), int8] */;
  %488 = cast(%487, dtype="int32") /* from_string */ /* ty=Tensor[(1, 96, 8, 8), int32] */;
  %489 = greater_equal(%102, -128 /* ty=int32 */) /* from_string */ /* ty=Tensor[(1, 96, 8, 8), bool] */;
  %490 = less_equal(%102, 127 /* ty=int32 */) /* from_string */ /* ty=Tensor[(1, 96, 8, 8), bool] */;
  %491 = nn.conv2d_transpose(%487, %v15_conv_1_weight, channels=96, kernel_size=[5, 5], padding=[2, 2, 2, 2], groups=96, kernel_layout="IOHW", out_dtype="int32") /* from_string */ /* ty=Tensor[(1, 96, 8, 8), int32] */;
  %492 = abs(%491) /* from_string */ /* ty=Tensor[(1, 96, 8, 8), int32] */;
  %493 = max(%492, axis=[1], keepdims=True) /* from_string */ /* ty=Tensor[(1, 1, 8, 8), int32] */;
  %494 = divide(%493, 127 /* ty=int32 */) /* from_string */ /* ty=Tensor[(1, 1, 8, 8), int32] */;
  %495 = divide(%491, %494) /* from_string */ /* ty=Tensor[(1, 96, 8, 8), int32] */;
  %496 = multiply(%489, %490) /* from_string */ /* ty=Tensor[(1, 96, 8, 8), bool] */;
  %497 = cast(%495, dtype="int8") /* from_string */ /* ty=Tensor[(1, 96, 8, 8), int8] */;
  %498 = zeros(shape=[1, 96, 8, 8], dtype="int8") /* from_string */ /* ty=Tensor[(1, 96, 8, 8), int8] */;
  %499 = where(%496, %497, %498) /* from_string */ /* ty=Tensor[(1, 96, 8, 8), int8] */;
  %500 = cast(%499, dtype="int32") /* from_string */ /* ty=Tensor[(1, 96, 8, 8), int32] */;
  %501 = tile(%499, reps=[1, 32, 1, 1]) /* from_string */ /* ty=Tensor[(1, 3072, 8, 8), int8] */;
  %502 = reshape(%101, newshape=[1, -1, 0, 0]) /* from_string */ /* ty=Tensor[(1, 32, 8, 8), int8] */;
  %503 = reshape(%501, newshape=[-1, 1, 0, 0]) /* from_string */ /* ty=Tensor[(3072, 1, 8, 8), int8] */;
  %504 = nn.conv2d(%502, %503, padding=[0, 0, 0, 0], groups=32, out_dtype="int32") /* from_string */ /* ty=Tensor[(1, 3072, 1, 1), int32] */;
  %505 = reshape(%504, newshape=[1, 32, 96, 1, 1]) /* from_string */ /* ty=Tensor[(1, 32, 96, 1, 1), int32] */;
  %506 = sum(%505, axis=[0]) /* from_string */ /* ty=Tensor[(32, 96, 1, 1), int32] */;
  %507 = transpose(%506, axes=[1, 0, 2, 3]) /* from_string */ /* ty=Tensor[(96, 32, 1, 1), int32] */;
  %508 = abs(%507) /* from_string */ /* ty=Tensor[(96, 32, 1, 1), int32] */;
  %509 = max(%508, axis=[1], keepdims=True) /* from_string */ /* ty=Tensor[(96, 1, 1, 1), int32] */;
  %510 = divide(%509, 127 /* ty=int32 */) /* from_string */ /* ty=Tensor[(96, 1, 1, 1), int32] */;
  %511 = divide(%507, %510) /* from_string */ /* ty=Tensor[(96, 32, 1, 1), int32] */;
  %512 = greater_equal(%98, -128 /* ty=int32 */) /* from_string */ /* ty=Tensor[(1, 32, 8, 8), bool] */;
  %513 = less_equal(%98, 127 /* ty=int32 */) /* from_string */ /* ty=Tensor[(1, 32, 8, 8), bool] */;
  %514 = greater_equal(%100, meta[relay.Constant][8] /* ty=int8 */) /* from_string */ /* ty=Tensor[(1, 32, 8, 8), bool] */;
  %515 = less_equal(%100, meta[relay.Constant][9] /* ty=int8 */) /* from_string */ /* ty=Tensor[(1, 32, 8, 8), bool] */;
  %516 = nn.conv2d_transpose(%499, %v15_conv_0_weight, channels=32, kernel_size=[1, 1], padding=[0, 0, 0, 0], kernel_layout="IOHW", out_dtype="int32") /* from_string */ /* ty=Tensor[(1, 32, 8, 8), int32] */;
  %517 = abs(%516) /* from_string */ /* ty=Tensor[(1, 32, 8, 8), int32] */;
  %518 = max(%517, axis=[1], keepdims=True) /* from_string */ /* ty=Tensor[(1, 1, 8, 8), int32] */;
  %519 = divide(%518, 127 /* ty=int32 */) /* from_string */ /* ty=Tensor[(1, 1, 8, 8), int32] */;
  %520 = divide(%516, %519) /* from_string */ /* ty=Tensor[(1, 32, 8, 8), int32] */;
  %521 = multiply(%514, %515) /* from_string */ /* ty=Tensor[(1, 32, 8, 8), bool] */;
  %522 = cast(%520, dtype="int8") /* from_string */ /* ty=Tensor[(1, 32, 8, 8), int8] */;
  %523 = zeros(shape=[1, 32, 8, 8], dtype="int8") /* from_string */ /* ty=Tensor[(1, 32, 8, 8), int8] */;
  %524 = where(%521, %522, %523) /* from_string */ /* ty=Tensor[(1, 32, 8, 8), int8] */;
  %525 = cast(%524, dtype="float32") /* from_string */ /* ty=Tensor[(1, 32, 8, 8), float32] */;
  %526 = reshape(%v14_qadd_scale_y, newshape=[1, -1, 1, 1]) /* from_string */ /* ty=Tensor[(1, 1, 1, 1), float32] */;
  %527 = divide(%525, %526) /* from_string */ /* ty=Tensor[(1, 32, 8, 8), float32] */;
  %528 = reshape(%v14_qadd_scale_x2, newshape=[1, -1, 1, 1]) /* from_string */ /* ty=Tensor[(1, 1, 1, 1), float32] */;
  %529 = multiply(%527, %528) /* from_string */ /* ty=Tensor[(1, 32, 8, 8), float32] */;
  %530 = multiply(%512, %513) /* from_string */ /* ty=Tensor[(1, 32, 8, 8), bool] */;
  %531 = cast(%529, dtype="int8") /* from_string */ /* ty=Tensor[(1, 32, 8, 8), int8] */;
  %532 = zeros(shape=[1, 32, 8, 8], dtype="int8") /* from_string */ /* ty=Tensor[(1, 32, 8, 8), int8] */;
  %533 = where(%530, %531, %532) /* from_string */ /* ty=Tensor[(1, 32, 8, 8), int8] */;
  %534 = cast(%533, dtype="int32") /* from_string */ /* ty=Tensor[(1, 32, 8, 8), int32] */;
  %535 = greater_equal(%96, -128 /* ty=int32 */) /* from_string */ /* ty=Tensor[(1, 96, 8, 8), bool] */;
  %536 = less_equal(%96, 127 /* ty=int32 */) /* from_string */ /* ty=Tensor[(1, 96, 8, 8), bool] */;
  %537 = nn.conv2d_transpose(%533, %v14_conv_2_weight, channels=96, kernel_size=[1, 1], padding=[0, 0, 0, 0], kernel_layout="IOHW", out_dtype="int32") /* from_string */ /* ty=Tensor[(1, 96, 8, 8), int32] */;
  %538 = abs(%537) /* from_string */ /* ty=Tensor[(1, 96, 8, 8), int32] */;
  %539 = max(%538, axis=[1], keepdims=True) /* from_string */ /* ty=Tensor[(1, 1, 8, 8), int32] */;
  %540 = divide(%539, 127 /* ty=int32 */) /* from_string */ /* ty=Tensor[(1, 1, 8, 8), int32] */;
  %541 = divide(%537, %540) /* from_string */ /* ty=Tensor[(1, 96, 8, 8), int32] */;
  %542 = multiply(%535, %536) /* from_string */ /* ty=Tensor[(1, 96, 8, 8), bool] */;
  %543 = cast(%541, dtype="int8") /* from_string */ /* ty=Tensor[(1, 96, 8, 8), int8] */;
  %544 = zeros(shape=[1, 96, 8, 8], dtype="int8") /* from_string */ /* ty=Tensor[(1, 96, 8, 8), int8] */;
  %545 = where(%542, %543, %544) /* from_string */ /* ty=Tensor[(1, 96, 8, 8), int8] */;
  %546 = cast(%545, dtype="int32") /* from_string */ /* ty=Tensor[(1, 96, 8, 8), int32] */;
  %547 = greater_equal(%94, -128 /* ty=int32 */) /* from_string */ /* ty=Tensor[(1, 96, 8, 8), bool] */;
  %548 = less_equal(%94, 127 /* ty=int32 */) /* from_string */ /* ty=Tensor[(1, 96, 8, 8), bool] */;
  %549 = nn.conv2d_transpose(%545, %v14_conv_1_weight, channels=96, kernel_size=[5, 5], padding=[2, 2, 2, 2], groups=96, kernel_layout="IOHW", out_dtype="int32") /* from_string */ /* ty=Tensor[(1, 96, 8, 8), int32] */;
  %550 = abs(%549) /* from_string */ /* ty=Tensor[(1, 96, 8, 8), int32] */;
  %551 = max(%550, axis=[1], keepdims=True) /* from_string */ /* ty=Tensor[(1, 1, 8, 8), int32] */;
  %552 = divide(%551, 127 /* ty=int32 */) /* from_string */ /* ty=Tensor[(1, 1, 8, 8), int32] */;
  %553 = divide(%549, %552) /* from_string */ /* ty=Tensor[(1, 96, 8, 8), int32] */;
  %554 = multiply(%547, %548) /* from_string */ /* ty=Tensor[(1, 96, 8, 8), bool] */;
  %555 = cast(%553, dtype="int8") /* from_string */ /* ty=Tensor[(1, 96, 8, 8), int8] */;
  %556 = zeros(shape=[1, 96, 8, 8], dtype="int8") /* from_string */ /* ty=Tensor[(1, 96, 8, 8), int8] */;
  %557 = where(%554, %555, %556) /* from_string */ /* ty=Tensor[(1, 96, 8, 8), int8] */;
  %558 = cast(%557, dtype="int32") /* from_string */ /* ty=Tensor[(1, 96, 8, 8), int32] */;
  %559 = strided_slice(%93, begin=[0, 0, 0, 0], end=[1, 16, 8, 8], strides=[1], axes=None) /* from_string */ /* ty=Tensor[(1, 16, 8, 8), int8] */;
  %560 = tile(%557, reps=[1, 16, 1, 1]) /* from_string */ /* ty=Tensor[(1, 1536, 8, 8), int8] */;
  %561 = reshape(%559, newshape=[1, -1, 0, 0]) /* from_string */ /* ty=Tensor[(1, 16, 8, 8), int8] */;
  %562 = reshape(%560, newshape=[-1, 1, 0, 0]) /* from_string */ /* ty=Tensor[(1536, 1, 8, 8), int8] */;
  %563 = nn.conv2d(%561, %562, padding=[0, 0, 0, 0], groups=16, out_dtype="int32") /* from_string */ /* ty=Tensor[(1, 1536, 1, 1), int32] */;
  %564 = reshape(%563, newshape=[1, 16, 96, 1, 1]) /* from_string */ /* ty=Tensor[(1, 16, 96, 1, 1), int32] */;
  %565 = sum(%564, axis=[0]) /* from_string */ /* ty=Tensor[(16, 96, 1, 1), int32] */;
  %566 = transpose(%565, axes=[1, 0, 2, 3]) /* from_string */ /* ty=Tensor[(96, 16, 1, 1), int32] */;
  %567 = abs(%566) /* from_string */ /* ty=Tensor[(96, 16, 1, 1), int32] */;
  %568 = max(%567, axis=[1], keepdims=True) /* from_string */ /* ty=Tensor[(96, 1, 1, 1), int32] */;
  %569 = divide(%568, 127 /* ty=int32 */) /* from_string */ /* ty=Tensor[(96, 1, 1, 1), int32] */;
  %570 = divide(%566, %569) /* from_string */ /* ty=Tensor[(96, 16, 1, 1), int32] */;
  %571 = greater_equal(%90, -128 /* ty=int32 */) /* from_string */ /* ty=Tensor[(1, 32, 8, 8), bool] */;
  %572 = less_equal(%90, 127 /* ty=int32 */) /* from_string */ /* ty=Tensor[(1, 32, 8, 8), bool] */;
  %573 = greater_equal(%92, meta[relay.Constant][10] /* ty=int8 */) /* from_string */ /* ty=Tensor[(1, 32, 8, 8), bool] */;
  %574 = less_equal(%92, meta[relay.Constant][11] /* ty=int8 */) /* from_string */ /* ty=Tensor[(1, 32, 8, 8), bool] */;
  %575 = nn.conv2d_transpose(%557, %v14_conv_0_weight, channels=32, kernel_size=[1, 1], padding=[0, 0, 0, 0], kernel_layout="IOHW", out_dtype="int32") /* from_string */ /* ty=Tensor[(1, 32, 8, 8), int32] */;
  %576 = abs(%575) /* from_string */ /* ty=Tensor[(1, 32, 8, 8), int32] */;
  %577 = max(%576, axis=[1], keepdims=True) /* from_string */ /* ty=Tensor[(1, 1, 8, 8), int32] */;
  %578 = divide(%577, 127 /* ty=int32 */) /* from_string */ /* ty=Tensor[(1, 1, 8, 8), int32] */;
  %579 = divide(%575, %578) /* from_string */ /* ty=Tensor[(1, 32, 8, 8), int32] */;
  %580 = multiply(%573, %574) /* from_string */ /* ty=Tensor[(1, 32, 8, 8), bool] */;
  %581 = cast(%579, dtype="int8") /* from_string */ /* ty=Tensor[(1, 32, 8, 8), int8] */;
  %582 = zeros(shape=[1, 32, 8, 8], dtype="int8") /* from_string */ /* ty=Tensor[(1, 32, 8, 8), int8] */;
  %583 = where(%580, %581, %582) /* from_string */ /* ty=Tensor[(1, 32, 8, 8), int8] */;
  %584 = cast(%583, dtype="float32") /* from_string */ /* ty=Tensor[(1, 32, 8, 8), float32] */;
  %585 = reshape(%v13_qadd_scale_y, newshape=[1, -1, 1, 1]) /* from_string */ /* ty=Tensor[(1, 1, 1, 1), float32] */;
  %586 = divide(%584, %585) /* from_string */ /* ty=Tensor[(1, 32, 8, 8), float32] */;
  %587 = reshape(%v13_qadd_scale_x2, newshape=[1, -1, 1, 1]) /* from_string */ /* ty=Tensor[(1, 1, 1, 1), float32] */;
  %588 = multiply(%586, %587) /* from_string */ /* ty=Tensor[(1, 32, 8, 8), float32] */;
  %589 = multiply(%571, %572) /* from_string */ /* ty=Tensor[(1, 32, 8, 8), bool] */;
  %590 = cast(%588, dtype="int8") /* from_string */ /* ty=Tensor[(1, 32, 8, 8), int8] */;
  %591 = zeros(shape=[1, 32, 8, 8], dtype="int8") /* from_string */ /* ty=Tensor[(1, 32, 8, 8), int8] */;
  %592 = where(%589, %590, %591) /* from_string */ /* ty=Tensor[(1, 32, 8, 8), int8] */;
  %593 = cast(%592, dtype="int32") /* from_string */ /* ty=Tensor[(1, 32, 8, 8), int32] */;
  %594 = greater_equal(%88, -128 /* ty=int32 */) /* from_string */ /* ty=Tensor[(1, 96, 8, 8), bool] */;
  %595 = less_equal(%88, 127 /* ty=int32 */) /* from_string */ /* ty=Tensor[(1, 96, 8, 8), bool] */;
  %596 = nn.conv2d_transpose(%592, %v13_conv_2_weight, channels=96, kernel_size=[1, 1], padding=[0, 0, 0, 0], kernel_layout="IOHW", out_dtype="int32") /* from_string */ /* ty=Tensor[(1, 96, 8, 8), int32] */;
  %597 = abs(%596) /* from_string */ /* ty=Tensor[(1, 96, 8, 8), int32] */;
  %598 = max(%597, axis=[1], keepdims=True) /* from_string */ /* ty=Tensor[(1, 1, 8, 8), int32] */;
  %599 = divide(%598, 127 /* ty=int32 */) /* from_string */ /* ty=Tensor[(1, 1, 8, 8), int32] */;
  %600 = divide(%596, %599) /* from_string */ /* ty=Tensor[(1, 96, 8, 8), int32] */;
  %601 = multiply(%594, %595) /* from_string */ /* ty=Tensor[(1, 96, 8, 8), bool] */;
  %602 = cast(%600, dtype="int8") /* from_string */ /* ty=Tensor[(1, 96, 8, 8), int8] */;
  %603 = zeros(shape=[1, 96, 8, 8], dtype="int8") /* from_string */ /* ty=Tensor[(1, 96, 8, 8), int8] */;
  %604 = where(%601, %602, %603) /* from_string */ /* ty=Tensor[(1, 96, 8, 8), int8] */;
  %605 = cast(%604, dtype="int32") /* from_string */ /* ty=Tensor[(1, 96, 8, 8), int32] */;
  %606 = greater_equal(%86, -128 /* ty=int32 */) /* from_string */ /* ty=Tensor[(1, 96, 8, 8), bool] */;
  %607 = less_equal(%86, 127 /* ty=int32 */) /* from_string */ /* ty=Tensor[(1, 96, 8, 8), bool] */;
  %608 = nn.conv2d_transpose(%604, %v13_conv_1_weight, channels=96, kernel_size=[5, 5], padding=[2, 2, 2, 2], groups=96, kernel_layout="IOHW", out_dtype="int32") /* from_string */ /* ty=Tensor[(1, 96, 8, 8), int32] */;
  %609 = abs(%608) /* from_string */ /* ty=Tensor[(1, 96, 8, 8), int32] */;
  %610 = max(%609, axis=[1], keepdims=True) /* from_string */ /* ty=Tensor[(1, 1, 8, 8), int32] */;
  %611 = divide(%610, 127 /* ty=int32 */) /* from_string */ /* ty=Tensor[(1, 1, 8, 8), int32] */;
  %612 = divide(%608, %611) /* from_string */ /* ty=Tensor[(1, 96, 8, 8), int32] */;
  %613 = multiply(%606, %607) /* from_string */ /* ty=Tensor[(1, 96, 8, 8), bool] */;
  %614 = cast(%612, dtype="int8") /* from_string */ /* ty=Tensor[(1, 96, 8, 8), int8] */;
  %615 = zeros(shape=[1, 96, 8, 8], dtype="int8") /* from_string */ /* ty=Tensor[(1, 96, 8, 8), int8] */;
  %616 = where(%613, %614, %615) /* from_string */ /* ty=Tensor[(1, 96, 8, 8), int8] */;
  %617 = cast(%616, dtype="int32") /* from_string */ /* ty=Tensor[(1, 96, 8, 8), int32] */;
  %618 = tile(%616, reps=[1, 32, 1, 1]) /* from_string */ /* ty=Tensor[(1, 3072, 8, 8), int8] */;
  %619 = reshape(%85, newshape=[1, -1, 0, 0]) /* from_string */ /* ty=Tensor[(1, 32, 8, 8), int8] */;
  %620 = reshape(%618, newshape=[-1, 1, 0, 0]) /* from_string */ /* ty=Tensor[(3072, 1, 8, 8), int8] */;
  %621 = nn.conv2d(%619, %620, padding=[0, 0, 0, 0], groups=32, out_dtype="int32") /* from_string */ /* ty=Tensor[(1, 3072, 1, 1), int32] */;
  %622 = reshape(%621, newshape=[1, 32, 96, 1, 1]) /* from_string */ /* ty=Tensor[(1, 32, 96, 1, 1), int32] */;
  %623 = sum(%622, axis=[0]) /* from_string */ /* ty=Tensor[(32, 96, 1, 1), int32] */;
  %624 = transpose(%623, axes=[1, 0, 2, 3]) /* from_string */ /* ty=Tensor[(96, 32, 1, 1), int32] */;
  %625 = abs(%624) /* from_string */ /* ty=Tensor[(96, 32, 1, 1), int32] */;
  %626 = max(%625, axis=[1], keepdims=True) /* from_string */ /* ty=Tensor[(96, 1, 1, 1), int32] */;
  %627 = divide(%626, 127 /* ty=int32 */) /* from_string */ /* ty=Tensor[(96, 1, 1, 1), int32] */;
  %628 = divide(%624, %627) /* from_string */ /* ty=Tensor[(96, 32, 1, 1), int32] */;
  %629 = greater_equal(%84, -128 /* ty=int32 */) /* from_string */ /* ty=Tensor[(1, 32, 8, 8), bool] */;
  %630 = less_equal(%84, 127 /* ty=int32 */) /* from_string */ /* ty=Tensor[(1, 32, 8, 8), bool] */;
  %631 = nn.conv2d_transpose(%616, %v13_conv_0_weight, channels=32, kernel_size=[1, 1], padding=[0, 0, 0, 0], kernel_layout="IOHW", out_dtype="int32") /* from_string */ /* ty=Tensor[(1, 32, 8, 8), int32] */;
  %632 = abs(%631) /* from_string */ /* ty=Tensor[(1, 32, 8, 8), int32] */;
  %633 = max(%632, axis=[1], keepdims=True) /* from_string */ /* ty=Tensor[(1, 1, 8, 8), int32] */;
  %634 = divide(%633, 127 /* ty=int32 */) /* from_string */ /* ty=Tensor[(1, 1, 8, 8), int32] */;
  %635 = divide(%631, %634) /* from_string */ /* ty=Tensor[(1, 32, 8, 8), int32] */;
  %636 = multiply(%629, %630) /* from_string */ /* ty=Tensor[(1, 32, 8, 8), bool] */;
  %637 = cast(%635, dtype="int8") /* from_string */ /* ty=Tensor[(1, 32, 8, 8), int8] */;
  %638 = zeros(shape=[1, 32, 8, 8], dtype="int8") /* from_string */ /* ty=Tensor[(1, 32, 8, 8), int8] */;
  %639 = where(%636, %637, %638) /* from_string */ /* ty=Tensor[(1, 32, 8, 8), int8] */;
  %640 = cast(%639, dtype="int32") /* from_string */ /* ty=Tensor[(1, 32, 8, 8), int32] */;
  %641 = nn.cross_entropy_with_logits(%151, %label) /* from_string */ /* ty=float32 */;
  %642 = sum(%165, axis=[1], exclude=True) /* from_string */ /* ty=Tensor[(10), int32] */;
  %643 = cast(%177, dtype="int8") /* from_string */ /* ty=Tensor[(10, 96, 1, 1), int8] */;
  %644 = sum(%194, axis=[1], exclude=True) /* from_string */ /* ty=Tensor[(96), int32] */;
  %645 = sum(%207, axis=[1], exclude=True) /* from_string */ /* ty=Tensor[(384), int32] */;
  %646 = sum(%219, axis=[1], exclude=True) /* from_string */ /* ty=Tensor[(384), int32] */;
  %647 = cast(%230, dtype="int8") /* from_string */ /* ty=Tensor[(384, 64, 1, 1), int8] */;
  %648 = sum(%253, axis=[1], exclude=True) /* from_string */ /* ty=Tensor[(64), int32] */;
  %649 = sum(%265, axis=[1], exclude=True) /* from_string */ /* ty=Tensor[(192), int32] */;
  %650 = sum(%277, axis=[1], exclude=True) /* from_string */ /* ty=Tensor[(192), int32] */;
  %651 = cast(%288, dtype="int8") /* from_string */ /* ty=Tensor[(192, 64, 1, 1), int8] */;
  %652 = sum(%311, axis=[1], exclude=True) /* from_string */ /* ty=Tensor[(64), int32] */;
  %653 = sum(%323, axis=[1], exclude=True) /* from_string */ /* ty=Tensor[(192), int32] */;
  %654 = sum(%335, axis=[1], exclude=True) /* from_string */ /* ty=Tensor[(192), int32] */;
  %655 = cast(%347, dtype="int8") /* from_string */ /* ty=Tensor[(192, 32, 1, 1), int8] */;
  %656 = sum(%370, axis=[1], exclude=True) /* from_string */ /* ty=Tensor[(64), int32] */;
  %657 = sum(%382, axis=[1], exclude=True) /* from_string */ /* ty=Tensor[(384), int32] */;
  %658 = sum(%394, axis=[1], exclude=True) /* from_string */ /* ty=Tensor[(384), int32] */;
  %659 = cast(%406, dtype="int8") /* from_string */ /* ty=Tensor[(384, 16, 1, 1), int8] */;
  %660 = sum(%418, axis=[1], exclude=True) /* from_string */ /* ty=Tensor[(64), int32] */;
  %661 = sum(%430, axis=[1], exclude=True) /* from_string */ /* ty=Tensor[(192), int32] */;
  %662 = sum(%442, axis=[1], exclude=True) /* from_string */ /* ty=Tensor[(192), int32] */;
  %663 = cast(%453, dtype="int8") /* from_string */ /* ty=Tensor[(192, 32, 1, 1), int8] */;
  %664 = sum(%476, axis=[1], exclude=True) /* from_string */ /* ty=Tensor[(32), int32] */;
  %665 = sum(%488, axis=[1], exclude=True) /* from_string */ /* ty=Tensor[(96), int32] */;
  %666 = sum(%500, axis=[1], exclude=True) /* from_string */ /* ty=Tensor[(96), int32] */;
  %667 = cast(%511, dtype="int8") /* from_string */ /* ty=Tensor[(96, 32, 1, 1), int8] */;
  %668 = sum(%534, axis=[1], exclude=True) /* from_string */ /* ty=Tensor[(32), int32] */;
  %669 = sum(%546, axis=[1], exclude=True) /* from_string */ /* ty=Tensor[(96), int32] */;
  %670 = sum(%558, axis=[1], exclude=True) /* from_string */ /* ty=Tensor[(96), int32] */;
  %671 = cast(%570, dtype="int8") /* from_string */ /* ty=Tensor[(96, 16, 1, 1), int8] */;
  %672 = sum(%593, axis=[1], exclude=True) /* from_string */ /* ty=Tensor[(32), int32] */;
  %673 = sum(%605, axis=[1], exclude=True) /* from_string */ /* ty=Tensor[(96), int32] */;
  %674 = sum(%617, axis=[1], exclude=True) /* from_string */ /* ty=Tensor[(96), int32] */;
  %675 = cast(%628, dtype="int8") /* from_string */ /* ty=Tensor[(96, 32, 1, 1), int8] */;
  %676 = sum(%640, axis=[1], exclude=True) /* from_string */ /* ty=Tensor[(32), int32] */;
  (%641, %642, %643, %644, %645, %646, %647, %648, %649, %650, %651, %652, %653, %654, %655, %656, %657, %658, %659, %660, %661, %662, %663, %664, %665, %666, %667, %668, %669, %670, %671, %672, %673, %674, %675, %676)
}
