def @main(%input: Tensor[(1, 3, 128, 128), int8], %v0_weight: Tensor[(16, 3, 3, 3), int8], %v0_bias: Tensor[(16), int32], %v0_zero_x: Tensor[(1), int8], %v0_zero_y: Tensor[(1), int8], %v0_scale: Tensor[(16), float32], %v1_conv_0_weight: Tensor[(16, 1, 3, 3), int8], %v1_conv_0_bias: Tensor[(16), int32], %v1_conv_0_zero_x: Tensor[(1), int8], %v1_conv_0_zero_y: Tensor[(1), int8], %v1_conv_0_scale: Tensor[(16), float32], %v1_conv_1_weight: Tensor[(8, 16, 1, 1), int8], %v1_conv_1_bias: Tensor[(8), int32], %v1_conv_1_zero_x: Tensor[(1), int8], %v1_conv_1_zero_y: Tensor[(1), int8], %v1_conv_1_scale: Tensor[(8), float32], %v2_conv_0_weight: Tensor[(48, 8, 1, 1), int8], %v2_conv_0_bias: Tensor[(48), int32], %v2_conv_0_zero_x: Tensor[(1), int8], %v2_conv_0_zero_y: Tensor[(1), int8], %v2_conv_0_scale: Tensor[(48), float32], %v2_conv_1_weight: Tensor[(48, 1, 3, 3), int8], %v2_conv_1_bias: Tensor[(48), int32], %v2_conv_1_zero_x: Tensor[(1), int8], %v2_conv_1_zero_y: Tensor[(1), int8], %v2_conv_1_scale: Tensor[(48), float32], %v2_conv_2_weight: Tensor[(8, 48, 1, 1), int8], %v2_conv_2_bias: Tensor[(8), int32], %v2_conv_2_zero_x: Tensor[(1), int8], %v2_conv_2_zero_y: Tensor[(1), int8], %v2_conv_2_scale: Tensor[(8), float32], %v3_conv_0_weight: Tensor[(48, 8, 1, 1), int8], %v3_conv_0_bias: Tensor[(48), int32], %v3_conv_0_zero_x: Tensor[(1), int8], %v3_conv_0_zero_y: Tensor[(1), int8], %v3_conv_0_scale: Tensor[(48), float32], %v3_conv_1_weight: Tensor[(48, 1, 3, 3), int8], %v3_conv_1_bias: Tensor[(48), int32], %v3_conv_1_zero_x: Tensor[(1), int8], %v3_conv_1_zero_y: Tensor[(1), int8], %v3_conv_1_scale: Tensor[(48), float32], %v3_conv_2_weight: Tensor[(8, 48, 1, 1), int8], %v3_conv_2_bias: Tensor[(8), int32], %v3_conv_2_zero_x: Tensor[(1), int8], %v3_conv_2_zero_y: Tensor[(1), int8], %v3_conv_2_scale: Tensor[(8), float32], %v3_qadd_zero_x1: Tensor[(1), int8], %v3_qadd_zero_x2: Tensor[(1), int8], %v3_qadd_scale_x1: Tensor[(1), float32], %v3_qadd_scale_x2: Tensor[(1), float32], %v3_qadd_zero_y: Tensor[(1), int8], %v3_qadd_scale_y: Tensor[(1), float32], %v4_conv_0_weight: Tensor[(48, 8, 1, 1), int8], %v4_conv_0_bias: Tensor[(48), int32], %v4_conv_0_zero_x: Tensor[(1), int8], %v4_conv_0_zero_y: Tensor[(1), int8], %v4_conv_0_scale: Tensor[(48), float32], %v4_conv_1_weight: Tensor[(48, 1, 3, 3), int8], %v4_conv_1_bias: Tensor[(48), int32], %v4_conv_1_zero_x: Tensor[(1), int8], %v4_conv_1_zero_y: Tensor[(1), int8], %v4_conv_1_scale: Tensor[(48), float32], %v4_conv_2_weight: Tensor[(16, 48, 1, 1), int8], %v4_conv_2_bias: Tensor[(16), int32], %v4_conv_2_zero_x: Tensor[(1), int8], %v4_conv_2_zero_y: Tensor[(1), int8], %v4_conv_2_scale: Tensor[(16), float32], %v5_conv_0_weight: Tensor[(96, 16, 1, 1), int8], %v5_conv_0_bias: Tensor[(96), int32], %v5_conv_0_zero_x: Tensor[(1), int8], %v5_conv_0_zero_y: Tensor[(1), int8], %v5_conv_0_scale: Tensor[(96), float32], %v5_conv_1_weight: Tensor[(96, 1, 3, 3), int8], %v5_conv_1_bias: Tensor[(96), int32], %v5_conv_1_zero_x: Tensor[(1), int8], %v5_conv_1_zero_y: Tensor[(1), int8], %v5_conv_1_scale: Tensor[(96), float32], %v5_conv_2_weight: Tensor[(16, 96, 1, 1), int8], %v5_conv_2_bias: Tensor[(16), int32], %v5_conv_2_zero_x: Tensor[(1), int8], %v5_conv_2_zero_y: Tensor[(1), int8], %v5_conv_2_scale: Tensor[(16), float32], %v5_qadd_zero_x1: Tensor[(1), int8], %v5_qadd_zero_x2: Tensor[(1), int8], %v5_qadd_scale_x1: Tensor[(1), float32], %v5_qadd_scale_x2: Tensor[(1), float32], %v5_qadd_zero_y: Tensor[(1), int8], %v5_qadd_scale_y: Tensor[(1), float32], %v6_conv_0_weight: Tensor[(96, 16, 1, 1), int8], %v6_conv_0_bias: Tensor[(96), int32], %v6_conv_0_zero_x: Tensor[(1), int8], %v6_conv_0_zero_y: Tensor[(1), int8], %v6_conv_0_scale: Tensor[(96), float32], %v6_conv_1_weight: Tensor[(96, 1, 3, 3), int8], %v6_conv_1_bias: Tensor[(96), int32], %v6_conv_1_zero_x: Tensor[(1), int8], %v6_conv_1_zero_y: Tensor[(1), int8], %v6_conv_1_scale: Tensor[(96), float32], %v6_conv_2_weight: Tensor[(16, 96, 1, 1), int8], %v6_conv_2_bias: Tensor[(16), int32], %v6_conv_2_zero_x: Tensor[(1), int8], %v6_conv_2_zero_y: Tensor[(1), int8], %v6_conv_2_scale: Tensor[(16), float32], %v6_qadd_zero_x1: Tensor[(1), int8], %v6_qadd_zero_x2: Tensor[(1), int8], %v6_qadd_scale_x1: Tensor[(1), float32], %v6_qadd_scale_x2: Tensor[(1), float32], %v6_qadd_zero_y: Tensor[(1), int8], %v6_qadd_scale_y: Tensor[(1), float32], %v7_conv_0_weight: Tensor[(96, 16, 1, 1), int8], %v7_conv_0_bias: Tensor[(96), int32], %v7_conv_0_zero_x: Tensor[(1), int8], %v7_conv_0_zero_y: Tensor[(1), int8], %v7_conv_0_scale: Tensor[(96), float32], %v7_conv_1_weight: Tensor[(96, 1, 3, 3), int8], %v7_conv_1_bias: Tensor[(96), int32], %v7_conv_1_zero_x: Tensor[(1), int8], %v7_conv_1_zero_y: Tensor[(1), int8], %v7_conv_1_scale: Tensor[(96), float32], %v7_conv_2_weight: Tensor[(24, 96, 1, 1), int8], %v7_conv_2_bias: Tensor[(24), int32], %v7_conv_2_zero_x: Tensor[(1), int8], %v7_conv_2_zero_y: Tensor[(1), int8], %v7_conv_2_scale: Tensor[(24), float32], %v8_conv_0_weight: Tensor[(144, 24, 1, 1), int8], %v8_conv_0_bias: Tensor[(144), int32], %v8_conv_0_zero_x: Tensor[(1), int8], %v8_conv_0_zero_y: Tensor[(1), int8], %v8_conv_0_scale: Tensor[(144), float32], %v8_conv_1_weight: Tensor[(144, 1, 3, 3), int8], %v8_conv_1_bias: Tensor[(144), int32], %v8_conv_1_zero_x: Tensor[(1), int8], %v8_conv_1_zero_y: Tensor[(1), int8], %v8_conv_1_scale: Tensor[(144), float32], %v8_conv_2_weight: Tensor[(24, 144, 1, 1), int8], %v8_conv_2_bias: Tensor[(24), int32], %v8_conv_2_zero_x: Tensor[(1), int8], %v8_conv_2_zero_y: Tensor[(1), int8], %v8_conv_2_scale: Tensor[(24), float32], %v8_qadd_zero_x1: Tensor[(1), int8], %v8_qadd_zero_x2: Tensor[(1), int8], %v8_qadd_scale_x1: Tensor[(1), float32], %v8_qadd_scale_x2: Tensor[(1), float32], %v8_qadd_zero_y: Tensor[(1), int8], %v8_qadd_scale_y: Tensor[(1), float32], %v9_conv_0_weight: Tensor[(144, 24, 1, 1), int8], %v9_conv_0_bias: Tensor[(144), int32], %v9_conv_0_zero_x: Tensor[(1), int8], %v9_conv_0_zero_y: Tensor[(1), int8], %v9_conv_0_scale: Tensor[(144), float32], %v9_conv_1_weight: Tensor[(144, 1, 3, 3), int8], %v9_conv_1_bias: Tensor[(144), int32], %v9_conv_1_zero_x: Tensor[(1), int8], %v9_conv_1_zero_y: Tensor[(1), int8], %v9_conv_1_scale: Tensor[(144), float32], %v9_conv_2_weight: Tensor[(24, 144, 1, 1), int8], %v9_conv_2_bias: Tensor[(24), int32], %v9_conv_2_zero_x: Tensor[(1), int8], %v9_conv_2_zero_y: Tensor[(1), int8], %v9_conv_2_scale: Tensor[(24), float32], %v9_qadd_zero_x1: Tensor[(1), int8], %v9_qadd_zero_x2: Tensor[(1), int8], %v9_qadd_scale_x1: Tensor[(1), float32], %v9_qadd_scale_x2: Tensor[(1), float32], %v9_qadd_zero_y: Tensor[(1), int8], %v9_qadd_scale_y: Tensor[(1), float32], %v10_conv_0_weight: Tensor[(144, 24, 1, 1), int8], %v10_conv_0_bias: Tensor[(144), int32], %v10_conv_0_zero_x: Tensor[(1), int8], %v10_conv_0_zero_y: Tensor[(1), int8], %v10_conv_0_scale: Tensor[(144), float32], %v10_conv_1_weight: Tensor[(144, 1, 3, 3), int8], %v10_conv_1_bias: Tensor[(144), int32], %v10_conv_1_zero_x: Tensor[(1), int8], %v10_conv_1_zero_y: Tensor[(1), int8], %v10_conv_1_scale: Tensor[(144), float32], %v10_conv_2_weight: Tensor[(24, 144, 1, 1), int8], %v10_conv_2_bias: Tensor[(24), int32], %v10_conv_2_zero_x: Tensor[(1), int8], %v10_conv_2_zero_y: Tensor[(1), int8], %v10_conv_2_scale: Tensor[(24), float32], %v10_qadd_zero_x1: Tensor[(1), int8], %v10_qadd_zero_x2: Tensor[(1), int8], %v10_qadd_scale_x1: Tensor[(1), float32], %v10_qadd_scale_x2: Tensor[(1), float32], %v10_qadd_zero_y: Tensor[(1), int8], %v10_qadd_scale_y: Tensor[(1), float32], %v11_conv_0_weight: Tensor[(144, 24, 1, 1), int8], %v11_conv_0_bias: Tensor[(144), int32], %v11_conv_0_zero_x: Tensor[(1), int8], %v11_conv_0_zero_y: Tensor[(1), int8], %v11_conv_0_scale: Tensor[(144), float32], %v11_conv_1_weight: Tensor[(144, 1, 3, 3), int8], %v11_conv_1_bias: Tensor[(144), int32], %v11_conv_1_zero_x: Tensor[(1), int8], %v11_conv_1_zero_y: Tensor[(1), int8], %v11_conv_1_scale: Tensor[(144), float32], %v11_conv_2_weight: Tensor[(32, 144, 1, 1), int8], %v11_conv_2_bias: Tensor[(32), int32], %v11_conv_2_zero_x: Tensor[(1), int8], %v11_conv_2_zero_y: Tensor[(1), int8], %v11_conv_2_scale: Tensor[(32), float32], %v12_conv_0_weight: Tensor[(192, 32, 1, 1), int8], %v12_conv_0_bias: Tensor[(192), int32], %v12_conv_0_zero_x: Tensor[(1), int8], %v12_conv_0_zero_y: Tensor[(1), int8], %v12_conv_0_scale: Tensor[(192), float32], %v12_conv_1_weight: Tensor[(192, 1, 3, 3), int8], %v12_conv_1_bias: Tensor[(192), int32], %v12_conv_1_zero_x: Tensor[(1), int8], %v12_conv_1_zero_y: Tensor[(1), int8], %v12_conv_1_scale: Tensor[(192), float32], %v12_conv_2_weight: Tensor[(32, 192, 1, 1), int8], %v12_conv_2_bias: Tensor[(32), int32], %v12_conv_2_zero_x: Tensor[(1), int8], %v12_conv_2_zero_y: Tensor[(1), int8], %v12_conv_2_scale: Tensor[(32), float32], %v12_qadd_zero_x1: Tensor[(1), int8], %v12_qadd_zero_x2: Tensor[(1), int8], %v12_qadd_scale_x1: Tensor[(1), float32], %v12_qadd_scale_x2: Tensor[(1), float32], %v12_qadd_zero_y: Tensor[(1), int8], %v12_qadd_scale_y: Tensor[(1), float32], %v13_conv_0_weight: Tensor[(192, 32, 1, 1), int8], %v13_conv_0_bias: Tensor[(192), int32], %v13_conv_0_zero_x: Tensor[(1), int8], %v13_conv_0_zero_y: Tensor[(1), int8], %v13_conv_0_scale: Tensor[(192), float32], %v13_conv_1_weight: Tensor[(192, 1, 3, 3), int8], %v13_conv_1_bias: Tensor[(192), int32], %v13_conv_1_zero_x: Tensor[(1), int8], %v13_conv_1_zero_y: Tensor[(1), int8], %v13_conv_1_scale: Tensor[(192), float32], %v13_conv_2_weight: Tensor[(32, 192, 1, 1), int8], %v13_conv_2_bias: Tensor[(32), int32], %v13_conv_2_zero_x: Tensor[(1), int8], %v13_conv_2_zero_y: Tensor[(1), int8], %v13_conv_2_scale: Tensor[(32), float32], %v13_qadd_zero_x1: Tensor[(1), int8], %v13_qadd_zero_x2: Tensor[(1), int8], %v13_qadd_scale_x1: Tensor[(1), float32], %v13_qadd_scale_x2: Tensor[(1), float32], %v13_qadd_zero_y: Tensor[(1), int8], %v13_qadd_scale_y: Tensor[(1), float32], %v14_conv_0_weight: Tensor[(192, 32, 1, 1), int8], %v14_conv_0_bias: Tensor[(192), int32], %v14_conv_0_zero_x: Tensor[(1), int8], %v14_conv_0_zero_y: Tensor[(1), int8], %v14_conv_0_scale: Tensor[(192), float32], %v14_conv_1_weight: Tensor[(192, 1, 3, 3), int8], %v14_conv_1_bias: Tensor[(192), int32], %v14_conv_1_zero_x: Tensor[(1), int8], %v14_conv_1_zero_y: Tensor[(1), int8], %v14_conv_1_scale: Tensor[(192), float32], %v14_conv_2_weight: Tensor[(56, 192, 1, 1), int8], %v14_conv_2_bias: Tensor[(56), int32], %v14_conv_2_zero_x: Tensor[(1), int8], %v14_conv_2_zero_y: Tensor[(1), int8], %v14_conv_2_scale: Tensor[(56), float32], %v15_conv_0_weight: Tensor[(336, 56, 1, 1), int8], %v15_conv_0_bias: Tensor[(336), int32], %v15_conv_0_zero_x: Tensor[(1), int8], %v15_conv_0_zero_y: Tensor[(1), int8], %v15_conv_0_scale: Tensor[(336), float32], %v15_conv_1_weight: Tensor[(336, 1, 3, 3), int8], %v15_conv_1_bias: Tensor[(336), int32], %v15_conv_1_zero_x: Tensor[(1), int8], %v15_conv_1_zero_y: Tensor[(1), int8], %v15_conv_1_scale: Tensor[(336), float32], %v15_conv_2_weight: Tensor[(56, 336, 1, 1), int8], %v15_conv_2_bias: Tensor[(56), int32], %v15_conv_2_zero_x: Tensor[(1), int8], %v15_conv_2_zero_y: Tensor[(1), int8], %v15_conv_2_scale: Tensor[(56), float32], %v15_qadd_zero_x1: Tensor[(1), int8], %v15_qadd_zero_x2: Tensor[(1), int8], %v15_qadd_scale_x1: Tensor[(1), float32], %v15_qadd_scale_x2: Tensor[(1), float32], %v15_qadd_zero_y: Tensor[(1), int8], %v15_qadd_scale_y: Tensor[(1), float32], %v16_conv_0_weight: Tensor[(336, 56, 1, 1), int8], %v16_conv_0_bias: Tensor[(336), int32], %v16_conv_0_zero_x: Tensor[(1), int8], %v16_conv_0_zero_y: Tensor[(1), int8], %v16_conv_0_scale: Tensor[(336), float32], %v16_conv_1_weight: Tensor[(336, 1, 3, 3), int8], %v16_conv_1_bias: Tensor[(336), int32], %v16_conv_1_zero_x: Tensor[(1), int8], %v16_conv_1_zero_y: Tensor[(1), int8], %v16_conv_1_scale: Tensor[(336), float32], %v16_conv_2_weight: Tensor[(56, 336, 1, 1), int8], %v16_conv_2_bias: Tensor[(56), int32], %v16_conv_2_zero_x: Tensor[(1), int8], %v16_conv_2_zero_y: Tensor[(1), int8], %v16_conv_2_scale: Tensor[(56), float32], %v16_qadd_zero_x1: Tensor[(1), int8], %v16_qadd_zero_x2: Tensor[(1), int8], %v16_qadd_scale_x1: Tensor[(1), float32], %v16_qadd_scale_x2: Tensor[(1), float32], %v16_qadd_zero_y: Tensor[(1), int8], %v16_qadd_scale_y: Tensor[(1), float32], %v17_conv_0_weight: Tensor[(336, 56, 1, 1), int8], %v17_conv_0_bias: Tensor[(336), int32], %v17_conv_0_zero_x: Tensor[(1), int8], %v17_conv_0_zero_y: Tensor[(1), int8], %v17_conv_0_scale: Tensor[(336), float32], %v17_conv_1_weight: Tensor[(336, 1, 3, 3), int8], %v17_conv_1_bias: Tensor[(336), int32], %v17_conv_1_zero_x: Tensor[(1), int8], %v17_conv_1_zero_y: Tensor[(1), int8], %v17_conv_1_scale: Tensor[(336), float32], %v17_conv_2_weight: Tensor[(112, 336, 1, 1), int8], %v17_conv_2_bias: Tensor[(112), int32], %v17_conv_2_zero_x: Tensor[(1), int8], %v17_conv_2_zero_y: Tensor[(1), int8], %v17_conv_2_scale: Tensor[(112), float32], %v18_weight: Tensor[(10, 112, 1, 1), int8], %v18_bias: Tensor[(10), int32], %v18_zero_x: Tensor[(1), int8], %v18_zero_y: Tensor[(1), int8], %v18_scale: Tensor[(10), float32], %label: Tensor[(1, 10), float32]) -> (float32, Tensor[(10), int32], Tensor[(10, 112, 1, 1), int8], Tensor[(112), int32], Tensor[(336), int32], Tensor[(336), int32], Tensor[(336, 56, 1, 1), int8], Tensor[(56), int32], Tensor[(336), int32], Tensor[(336), int32], Tensor[(336, 7, 1, 1), int8], Tensor[(56), int32], Tensor[(336), int32], Tensor[(336), int32], Tensor[(336, 7, 1, 1), int8], Tensor[(56), int32], Tensor[(56, 48, 1, 1), int8], Tensor[(192), int32], Tensor[(192), int32], Tensor[(192, 32, 1, 1), int8], Tensor[(32), int32], Tensor[(192), int32], Tensor[(192), int32], Tensor[(192, 16, 1, 1), int8], Tensor[(32), int32], Tensor[(192), int32], Tensor[(192), int32], Tensor[(192, 16, 1, 1), int8], Tensor[(32), int32], Tensor[(32, 18, 1, 1), int8], Tensor[(144), int32]) {
  %0 = nn.mcuconv2d(%input, %v0_weight, %v0_bias, %v0_zero_x, %v0_zero_y, %v0_scale, strides=[2, 2], padding=[1, 1, 1, 1]) /* ty=Tensor[(1, 16, 64, 64), int32] */;
  %1 = nn.mcutruncate(%0) /* ty=Tensor[(1, 16, 64, 64), int8] */;
  %2 = nn.mcuconv2d(%1, %v1_conv_0_weight, %v1_conv_0_bias, %v1_conv_0_zero_x, %v1_conv_0_zero_y, %v1_conv_0_scale, padding=[1, 1, 1, 1], groups=16) /* ty=Tensor[(1, 16, 64, 64), int32] */;
  %3 = nn.mcutruncate(%2) /* ty=Tensor[(1, 16, 64, 64), int8] */;
  %4 = nn.mcuconv2d(%3, %v1_conv_1_weight, %v1_conv_1_bias, %v1_conv_1_zero_x, %v1_conv_1_zero_y, %v1_conv_1_scale, padding=[0, 0, 0, 0]) /* ty=Tensor[(1, 8, 64, 64), int32] */;
  %5 = nn.mcutruncate(%4) /* ty=Tensor[(1, 8, 64, 64), int8] */;
  %6 = nn.mcuconv2d(%5, %v2_conv_0_weight, %v2_conv_0_bias, %v2_conv_0_zero_x, %v2_conv_0_zero_y, %v2_conv_0_scale, padding=[0, 0, 0, 0]) /* ty=Tensor[(1, 48, 64, 64), int32] */;
  %7 = nn.mcutruncate(%6) /* ty=Tensor[(1, 48, 64, 64), int8] */;
  %8 = nn.mcuconv2d(%7, %v2_conv_1_weight, %v2_conv_1_bias, %v2_conv_1_zero_x, %v2_conv_1_zero_y, %v2_conv_1_scale, strides=[2, 2], padding=[1, 1, 1, 1], groups=48) /* ty=Tensor[(1, 48, 32, 32), int32] */;
  %9 = nn.mcutruncate(%8) /* ty=Tensor[(1, 48, 32, 32), int8] */;
  %10 = nn.mcuconv2d(%9, %v2_conv_2_weight, %v2_conv_2_bias, %v2_conv_2_zero_x, %v2_conv_2_zero_y, %v2_conv_2_scale, padding=[0, 0, 0, 0]) /* ty=Tensor[(1, 8, 32, 32), int32] */;
  %11 = nn.mcutruncate(%10) /* ty=Tensor[(1, 8, 32, 32), int8] */;
  %12 = nn.mcuconv2d(%11, %v3_conv_0_weight, %v3_conv_0_bias, %v3_conv_0_zero_x, %v3_conv_0_zero_y, %v3_conv_0_scale, padding=[0, 0, 0, 0]) /* ty=Tensor[(1, 48, 32, 32), int32] */;
  %13 = nn.mcutruncate(%12) /* ty=Tensor[(1, 48, 32, 32), int8] */;
  %14 = nn.mcuconv2d(%13, %v3_conv_1_weight, %v3_conv_1_bias, %v3_conv_1_zero_x, %v3_conv_1_zero_y, %v3_conv_1_scale, padding=[1, 1, 1, 1], groups=48) /* ty=Tensor[(1, 48, 32, 32), int32] */;
  %15 = nn.mcutruncate(%14) /* ty=Tensor[(1, 48, 32, 32), int8] */;
  %16 = nn.mcuconv2d(%15, %v3_conv_2_weight, %v3_conv_2_bias, %v3_conv_2_zero_x, %v3_conv_2_zero_y, %v3_conv_2_scale, padding=[0, 0, 0, 0]) /* ty=Tensor[(1, 8, 32, 32), int32] */;
  %17 = nn.mcutruncate(%16) /* ty=Tensor[(1, 8, 32, 32), int8] */;
  %18 = nn.mcuadd(%11, %17, %v3_qadd_zero_x1, %v3_qadd_zero_x2, %v3_qadd_scale_x1, %v3_qadd_scale_x2, %v3_qadd_zero_y, %v3_qadd_scale_y, axis=0) /* ty=Tensor[(1, 8, 32, 32), int8] */;
  %19 = nn.mcutruncate(%18) /* ty=Tensor[(1, 8, 32, 32), int8] */;
  %20 = nn.mcuconv2d(%19, %v4_conv_0_weight, %v4_conv_0_bias, %v4_conv_0_zero_x, %v4_conv_0_zero_y, %v4_conv_0_scale, padding=[0, 0, 0, 0]) /* ty=Tensor[(1, 48, 32, 32), int32] */;
  %21 = nn.mcutruncate(%20) /* ty=Tensor[(1, 48, 32, 32), int8] */;
  %22 = nn.mcuconv2d(%21, %v4_conv_1_weight, %v4_conv_1_bias, %v4_conv_1_zero_x, %v4_conv_1_zero_y, %v4_conv_1_scale, strides=[2, 2], padding=[1, 1, 1, 1], groups=48) /* ty=Tensor[(1, 48, 16, 16), int32] */;
  %23 = nn.mcutruncate(%22) /* ty=Tensor[(1, 48, 16, 16), int8] */;
  %24 = nn.mcuconv2d(%23, %v4_conv_2_weight, %v4_conv_2_bias, %v4_conv_2_zero_x, %v4_conv_2_zero_y, %v4_conv_2_scale, padding=[0, 0, 0, 0]) /* ty=Tensor[(1, 16, 16, 16), int32] */;
  %25 = nn.mcutruncate(%24) /* ty=Tensor[(1, 16, 16, 16), int8] */;
  %26 = nn.mcuconv2d(%25, %v5_conv_0_weight, %v5_conv_0_bias, %v5_conv_0_zero_x, %v5_conv_0_zero_y, %v5_conv_0_scale, padding=[0, 0, 0, 0]) /* ty=Tensor[(1, 96, 16, 16), int32] */;
  %27 = nn.mcutruncate(%26) /* ty=Tensor[(1, 96, 16, 16), int8] */;
  %28 = nn.mcuconv2d(%27, %v5_conv_1_weight, %v5_conv_1_bias, %v5_conv_1_zero_x, %v5_conv_1_zero_y, %v5_conv_1_scale, padding=[1, 1, 1, 1], groups=96) /* ty=Tensor[(1, 96, 16, 16), int32] */;
  %29 = nn.mcutruncate(%28) /* ty=Tensor[(1, 96, 16, 16), int8] */;
  %30 = nn.mcuconv2d(%29, %v5_conv_2_weight, %v5_conv_2_bias, %v5_conv_2_zero_x, %v5_conv_2_zero_y, %v5_conv_2_scale, padding=[0, 0, 0, 0]) /* ty=Tensor[(1, 16, 16, 16), int32] */;
  %31 = nn.mcutruncate(%30) /* ty=Tensor[(1, 16, 16, 16), int8] */;
  %32 = nn.mcuadd(%25, %31, %v5_qadd_zero_x1, %v5_qadd_zero_x2, %v5_qadd_scale_x1, %v5_qadd_scale_x2, %v5_qadd_zero_y, %v5_qadd_scale_y, axis=0) /* ty=Tensor[(1, 16, 16, 16), int8] */;
  %33 = nn.mcutruncate(%32) /* ty=Tensor[(1, 16, 16, 16), int8] */;
  %34 = nn.mcuconv2d(%33, %v6_conv_0_weight, %v6_conv_0_bias, %v6_conv_0_zero_x, %v6_conv_0_zero_y, %v6_conv_0_scale, padding=[0, 0, 0, 0]) /* ty=Tensor[(1, 96, 16, 16), int32] */;
  %35 = nn.mcutruncate(%34) /* ty=Tensor[(1, 96, 16, 16), int8] */;
  %36 = nn.mcuconv2d(%35, %v6_conv_1_weight, %v6_conv_1_bias, %v6_conv_1_zero_x, %v6_conv_1_zero_y, %v6_conv_1_scale, padding=[1, 1, 1, 1], groups=96) /* ty=Tensor[(1, 96, 16, 16), int32] */;
  %37 = nn.mcutruncate(%36) /* ty=Tensor[(1, 96, 16, 16), int8] */;
  %38 = nn.mcuconv2d(%37, %v6_conv_2_weight, %v6_conv_2_bias, %v6_conv_2_zero_x, %v6_conv_2_zero_y, %v6_conv_2_scale, padding=[0, 0, 0, 0]) /* ty=Tensor[(1, 16, 16, 16), int32] */;
  %39 = nn.mcutruncate(%38) /* ty=Tensor[(1, 16, 16, 16), int8] */;
  %40 = nn.mcuadd(%33, %39, %v6_qadd_zero_x1, %v6_qadd_zero_x2, %v6_qadd_scale_x1, %v6_qadd_scale_x2, %v6_qadd_zero_y, %v6_qadd_scale_y, axis=0) /* ty=Tensor[(1, 16, 16, 16), int8] */;
  %41 = nn.mcutruncate(%40) /* ty=Tensor[(1, 16, 16, 16), int8] */;
  %42 = nn.mcuconv2d(%41, %v7_conv_0_weight, %v7_conv_0_bias, %v7_conv_0_zero_x, %v7_conv_0_zero_y, %v7_conv_0_scale, padding=[0, 0, 0, 0]) /* ty=Tensor[(1, 96, 16, 16), int32] */;
  %43 = nn.mcutruncate(%42) /* ty=Tensor[(1, 96, 16, 16), int8] */;
  %44 = nn.mcuconv2d(%43, %v7_conv_1_weight, %v7_conv_1_bias, %v7_conv_1_zero_x, %v7_conv_1_zero_y, %v7_conv_1_scale, strides=[2, 2], padding=[1, 1, 1, 1], groups=96) /* ty=Tensor[(1, 96, 8, 8), int32] */;
  %45 = nn.mcutruncate(%44) /* ty=Tensor[(1, 96, 8, 8), int8] */;
  %46 = nn.mcuconv2d(%45, %v7_conv_2_weight, %v7_conv_2_bias, %v7_conv_2_zero_x, %v7_conv_2_zero_y, %v7_conv_2_scale, padding=[0, 0, 0, 0]) /* ty=Tensor[(1, 24, 8, 8), int32] */;
  %47 = nn.mcutruncate(%46) /* ty=Tensor[(1, 24, 8, 8), int8] */;
  %48 = nn.mcuconv2d(%47, %v8_conv_0_weight, %v8_conv_0_bias, %v8_conv_0_zero_x, %v8_conv_0_zero_y, %v8_conv_0_scale, padding=[0, 0, 0, 0]) /* ty=Tensor[(1, 144, 8, 8), int32] */;
  %49 = nn.mcutruncate(%48) /* ty=Tensor[(1, 144, 8, 8), int8] */;
  %50 = nn.mcuconv2d(%49, %v8_conv_1_weight, %v8_conv_1_bias, %v8_conv_1_zero_x, %v8_conv_1_zero_y, %v8_conv_1_scale, padding=[1, 1, 1, 1], groups=144) /* ty=Tensor[(1, 144, 8, 8), int32] */;
  %51 = nn.mcutruncate(%50) /* ty=Tensor[(1, 144, 8, 8), int8] */;
  %52 = nn.mcuconv2d(%51, %v8_conv_2_weight, %v8_conv_2_bias, %v8_conv_2_zero_x, %v8_conv_2_zero_y, %v8_conv_2_scale, padding=[0, 0, 0, 0]) /* ty=Tensor[(1, 24, 8, 8), int32] */;
  %53 = nn.mcutruncate(%52) /* ty=Tensor[(1, 24, 8, 8), int8] */;
  %54 = nn.mcuadd(%47, %53, %v8_qadd_zero_x1, %v8_qadd_zero_x2, %v8_qadd_scale_x1, %v8_qadd_scale_x2, %v8_qadd_zero_y, %v8_qadd_scale_y, axis=0) /* ty=Tensor[(1, 24, 8, 8), int8] */;
  %55 = nn.mcutruncate(%54) /* ty=Tensor[(1, 24, 8, 8), int8] */;
  %56 = nn.mcuconv2d(%55, %v9_conv_0_weight, %v9_conv_0_bias, %v9_conv_0_zero_x, %v9_conv_0_zero_y, %v9_conv_0_scale, padding=[0, 0, 0, 0]) /* ty=Tensor[(1, 144, 8, 8), int32] */;
  %57 = nn.mcutruncate(%56) /* ty=Tensor[(1, 144, 8, 8), int8] */;
  %58 = nn.mcuconv2d(%57, %v9_conv_1_weight, %v9_conv_1_bias, %v9_conv_1_zero_x, %v9_conv_1_zero_y, %v9_conv_1_scale, padding=[1, 1, 1, 1], groups=144) /* ty=Tensor[(1, 144, 8, 8), int32] */;
  %59 = nn.mcutruncate(%58) /* ty=Tensor[(1, 144, 8, 8), int8] */;
  %60 = nn.mcuconv2d(%59, %v9_conv_2_weight, %v9_conv_2_bias, %v9_conv_2_zero_x, %v9_conv_2_zero_y, %v9_conv_2_scale, padding=[0, 0, 0, 0]) /* ty=Tensor[(1, 24, 8, 8), int32] */;
  %61 = nn.mcutruncate(%60) /* ty=Tensor[(1, 24, 8, 8), int8] */;
  %62 = nn.mcuadd(%55, %61, %v9_qadd_zero_x1, %v9_qadd_zero_x2, %v9_qadd_scale_x1, %v9_qadd_scale_x2, %v9_qadd_zero_y, %v9_qadd_scale_y, axis=0) /* ty=Tensor[(1, 24, 8, 8), int8] */;
  %63 = nn.mcutruncate(%62) /* ty=Tensor[(1, 24, 8, 8), int8] */;
  %64 = nn.mcuconv2d(%63, %v10_conv_0_weight, %v10_conv_0_bias, %v10_conv_0_zero_x, %v10_conv_0_zero_y, %v10_conv_0_scale, padding=[0, 0, 0, 0]) /* ty=Tensor[(1, 144, 8, 8), int32] */;
  %65 = nn.mcutruncate(%64) /* ty=Tensor[(1, 144, 8, 8), int8] */;
  %66 = nn.mcuconv2d(%65, %v10_conv_1_weight, %v10_conv_1_bias, %v10_conv_1_zero_x, %v10_conv_1_zero_y, %v10_conv_1_scale, padding=[1, 1, 1, 1], groups=144) /* ty=Tensor[(1, 144, 8, 8), int32] */;
  %67 = nn.mcutruncate(%66) /* ty=Tensor[(1, 144, 8, 8), int8] */;
  %68 = nn.mcuconv2d(%67, %v10_conv_2_weight, %v10_conv_2_bias, %v10_conv_2_zero_x, %v10_conv_2_zero_y, %v10_conv_2_scale, padding=[0, 0, 0, 0]) /* ty=Tensor[(1, 24, 8, 8), int32] */;
  %69 = nn.mcutruncate(%68) /* ty=Tensor[(1, 24, 8, 8), int8] */;
  %70 = nn.mcuadd(%63, %69, %v10_qadd_zero_x1, %v10_qadd_zero_x2, %v10_qadd_scale_x1, %v10_qadd_scale_x2, %v10_qadd_zero_y, %v10_qadd_scale_y, axis=0) /* ty=Tensor[(1, 24, 8, 8), int8] */;
  %71 = nn.mcutruncate(%70) /* ty=Tensor[(1, 24, 8, 8), int8] */;
  %72 = nn.mcuconv2d(%71, %v11_conv_0_weight, %v11_conv_0_bias, %v11_conv_0_zero_x, %v11_conv_0_zero_y, %v11_conv_0_scale, padding=[0, 0, 0, 0]) /* ty=Tensor[(1, 144, 8, 8), int32] */;
  %73 = nn.mcutruncate(%72) /* ty=Tensor[(1, 144, 8, 8), int8] */;
  %74 = nn.mcuconv2d(%73, %v11_conv_1_weight, %v11_conv_1_bias, %v11_conv_1_zero_x, %v11_conv_1_zero_y, %v11_conv_1_scale, padding=[1, 1, 1, 1], groups=144) /* ty=Tensor[(1, 144, 8, 8), int32] */;
  %75 = nn.mcutruncate(%74) /* ty=Tensor[(1, 144, 8, 8), int8] */;
  %76 = nn.mcuconv2d(%75, %v11_conv_2_weight, %v11_conv_2_bias, %v11_conv_2_zero_x, %v11_conv_2_zero_y, %v11_conv_2_scale, padding=[0, 0, 0, 0]) /* ty=Tensor[(1, 32, 8, 8), int32] */;
  %77 = nn.mcutruncate(%76) /* ty=Tensor[(1, 32, 8, 8), int8] */;
  %78 = nn.mcuconv2d(%77, %v12_conv_0_weight, %v12_conv_0_bias, %v12_conv_0_zero_x, %v12_conv_0_zero_y, %v12_conv_0_scale, padding=[0, 0, 0, 0]) /* ty=Tensor[(1, 192, 8, 8), int32] */;
  %79 = nn.mcutruncate(%78) /* ty=Tensor[(1, 192, 8, 8), int8] */;
  %80 = nn.mcuconv2d(%79, %v12_conv_1_weight, %v12_conv_1_bias, %v12_conv_1_zero_x, %v12_conv_1_zero_y, %v12_conv_1_scale, padding=[1, 1, 1, 1], groups=192) /* ty=Tensor[(1, 192, 8, 8), int32] */;
  %81 = nn.mcutruncate(%80) /* ty=Tensor[(1, 192, 8, 8), int8] */;
  %82 = nn.mcuconv2d(%81, %v12_conv_2_weight, %v12_conv_2_bias, %v12_conv_2_zero_x, %v12_conv_2_zero_y, %v12_conv_2_scale, padding=[0, 0, 0, 0]) /* ty=Tensor[(1, 32, 8, 8), int32] */;
  %83 = nn.mcutruncate(%82) /* ty=Tensor[(1, 32, 8, 8), int8] */;
  %84 = nn.mcuadd(%77, %83, %v12_qadd_zero_x1, %v12_qadd_zero_x2, %v12_qadd_scale_x1, %v12_qadd_scale_x2, %v12_qadd_zero_y, %v12_qadd_scale_y, axis=0) /* ty=Tensor[(1, 32, 8, 8), int8] */;
  %85 = nn.mcutruncate(%84) /* ty=Tensor[(1, 32, 8, 8), int8] */;
  %86 = nn.mcuconv2d(%85, %v13_conv_0_weight, %v13_conv_0_bias, %v13_conv_0_zero_x, %v13_conv_0_zero_y, %v13_conv_0_scale, padding=[0, 0, 0, 0]) /* ty=Tensor[(1, 192, 8, 8), int32] */;
  %87 = nn.mcutruncate(%86) /* ty=Tensor[(1, 192, 8, 8), int8] */;
  %88 = nn.mcuconv2d(%87, %v13_conv_1_weight, %v13_conv_1_bias, %v13_conv_1_zero_x, %v13_conv_1_zero_y, %v13_conv_1_scale, padding=[1, 1, 1, 1], groups=192) /* ty=Tensor[(1, 192, 8, 8), int32] */;
  %89 = nn.mcutruncate(%88) /* ty=Tensor[(1, 192, 8, 8), int8] */;
  %90 = nn.mcuconv2d(%89, %v13_conv_2_weight, %v13_conv_2_bias, %v13_conv_2_zero_x, %v13_conv_2_zero_y, %v13_conv_2_scale, padding=[0, 0, 0, 0]) /* ty=Tensor[(1, 32, 8, 8), int32] */;
  %91 = nn.mcutruncate(%90) /* ty=Tensor[(1, 32, 8, 8), int8] */;
  %92 = nn.mcuadd(%85, %91, %v13_qadd_zero_x1, %v13_qadd_zero_x2, %v13_qadd_scale_x1, %v13_qadd_scale_x2, %v13_qadd_zero_y, %v13_qadd_scale_y, axis=0) /* ty=Tensor[(1, 32, 8, 8), int8] */;
  %93 = nn.mcutruncate(%92) /* ty=Tensor[(1, 32, 8, 8), int8] */;
  %94 = nn.mcuconv2d(%93, %v14_conv_0_weight, %v14_conv_0_bias, %v14_conv_0_zero_x, %v14_conv_0_zero_y, %v14_conv_0_scale, padding=[0, 0, 0, 0]) /* ty=Tensor[(1, 192, 8, 8), int32] */;
  %95 = nn.mcutruncate(%94) /* ty=Tensor[(1, 192, 8, 8), int8] */;
  %96 = nn.mcuconv2d(%95, %v14_conv_1_weight, %v14_conv_1_bias, %v14_conv_1_zero_x, %v14_conv_1_zero_y, %v14_conv_1_scale, strides=[2, 2], padding=[1, 1, 1, 1], groups=192) /* ty=Tensor[(1, 192, 4, 4), int32] */;
  %97 = nn.mcutruncate(%96) /* ty=Tensor[(1, 192, 4, 4), int8] */;
  %98 = nn.mcuconv2d(%97, %v14_conv_2_weight, %v14_conv_2_bias, %v14_conv_2_zero_x, %v14_conv_2_zero_y, %v14_conv_2_scale, padding=[0, 0, 0, 0]) /* ty=Tensor[(1, 56, 4, 4), int32] */;
  %99 = nn.mcutruncate(%98) /* ty=Tensor[(1, 56, 4, 4), int8] */;
  %100 = nn.mcuconv2d(%99, %v15_conv_0_weight, %v15_conv_0_bias, %v15_conv_0_zero_x, %v15_conv_0_zero_y, %v15_conv_0_scale, padding=[0, 0, 0, 0]) /* ty=Tensor[(1, 336, 4, 4), int32] */;
  %101 = nn.mcutruncate(%100) /* ty=Tensor[(1, 336, 4, 4), int8] */;
  %102 = nn.mcuconv2d(%101, %v15_conv_1_weight, %v15_conv_1_bias, %v15_conv_1_zero_x, %v15_conv_1_zero_y, %v15_conv_1_scale, padding=[1, 1, 1, 1], groups=336) /* ty=Tensor[(1, 336, 4, 4), int32] */;
  %103 = nn.mcutruncate(%102) /* ty=Tensor[(1, 336, 4, 4), int8] */;
  %104 = nn.mcuconv2d(%103, %v15_conv_2_weight, %v15_conv_2_bias, %v15_conv_2_zero_x, %v15_conv_2_zero_y, %v15_conv_2_scale, padding=[0, 0, 0, 0]) /* ty=Tensor[(1, 56, 4, 4), int32] */;
  %105 = nn.mcutruncate(%104) /* ty=Tensor[(1, 56, 4, 4), int8] */;
  %106 = nn.mcuadd(%99, %105, %v15_qadd_zero_x1, %v15_qadd_zero_x2, %v15_qadd_scale_x1, %v15_qadd_scale_x2, %v15_qadd_zero_y, %v15_qadd_scale_y, axis=0) /* ty=Tensor[(1, 56, 4, 4), int8] */;
  %107 = nn.mcutruncate(%106) /* ty=Tensor[(1, 56, 4, 4), int8] */;
  %108 = nn.mcuconv2d(%107, %v16_conv_0_weight, %v16_conv_0_bias, %v16_conv_0_zero_x, %v16_conv_0_zero_y, %v16_conv_0_scale, padding=[0, 0, 0, 0]) /* ty=Tensor[(1, 336, 4, 4), int32] */;
  %109 = nn.mcutruncate(%108) /* ty=Tensor[(1, 336, 4, 4), int8] */;
  %110 = nn.mcuconv2d(%109, %v16_conv_1_weight, %v16_conv_1_bias, %v16_conv_1_zero_x, %v16_conv_1_zero_y, %v16_conv_1_scale, padding=[1, 1, 1, 1], groups=336) /* ty=Tensor[(1, 336, 4, 4), int32] */;
  %111 = nn.mcutruncate(%110) /* ty=Tensor[(1, 336, 4, 4), int8] */;
  %112 = nn.mcuconv2d(%111, %v16_conv_2_weight, %v16_conv_2_bias, %v16_conv_2_zero_x, %v16_conv_2_zero_y, %v16_conv_2_scale, padding=[0, 0, 0, 0]) /* ty=Tensor[(1, 56, 4, 4), int32] */;
  %113 = nn.mcutruncate(%112) /* ty=Tensor[(1, 56, 4, 4), int8] */;
  %114 = nn.mcuadd(%107, %113, %v16_qadd_zero_x1, %v16_qadd_zero_x2, %v16_qadd_scale_x1, %v16_qadd_scale_x2, %v16_qadd_zero_y, %v16_qadd_scale_y, axis=0) /* ty=Tensor[(1, 56, 4, 4), int8] */;
  %115 = nn.mcutruncate(%114) /* ty=Tensor[(1, 56, 4, 4), int8] */;
  %116 = nn.mcuconv2d(%115, %v17_conv_0_weight, %v17_conv_0_bias, %v17_conv_0_zero_x, %v17_conv_0_zero_y, %v17_conv_0_scale, padding=[0, 0, 0, 0]) /* ty=Tensor[(1, 336, 4, 4), int32] */;
  %117 = nn.mcutruncate(%116) /* ty=Tensor[(1, 336, 4, 4), int8] */;
  %118 = nn.mcuconv2d(%117, %v17_conv_1_weight, %v17_conv_1_bias, %v17_conv_1_zero_x, %v17_conv_1_zero_y, %v17_conv_1_scale, padding=[1, 1, 1, 1], groups=336) /* ty=Tensor[(1, 336, 4, 4), int32] */;
  %119 = nn.mcutruncate(%118) /* ty=Tensor[(1, 336, 4, 4), int8] */;
  %120 = nn.mcuconv2d(%119, %v17_conv_2_weight, %v17_conv_2_bias, %v17_conv_2_zero_x, %v17_conv_2_zero_y, %v17_conv_2_scale, padding=[0, 0, 0, 0]) /* ty=Tensor[(1, 112, 4, 4), int32] */;
  %121 = nn.mcutruncate(%120) /* ty=Tensor[(1, 112, 4, 4), int8] */;
  %122 = mcumean(%121, axis=[2, 3], keepdims=True) /* ty=Tensor[(1, 112, 1, 1), int8] */;
  %123 = nn.mcuconv2d(%122, %v18_weight, %v18_bias, %v18_zero_x, %v18_zero_y, %v18_scale, padding=[0, 0, 0, 0]) /* ty=Tensor[(1, 10, 1, 1), int32] */;
  %124 = nn.mcutruncate(%123) /* ty=Tensor[(1, 10, 1, 1), int8] */;
  %125 = reshape(%124, newshape=[0, 0]) /* ty=Tensor[(1, 10), int8] */;
  %126 = cast(%125, dtype="float32") /* ty=Tensor[(1, 10), float32] */;
  %127 = nn.log_softmax(%126) /* ty=Tensor[(1, 10), float32] */;
  %128 = greater_equal(%123, -128 /* ty=int32 */) /* ty=Tensor[(1, 10, 1, 1), bool] */;
  %129 = less_equal(%123, 127 /* ty=int32 */) /* ty=Tensor[(1, 10, 1, 1), bool] */;
  %130 = ones(shape=[], dtype="float32") /* ty=float32 */;
  %131 = negative(%130) /* ty=float32 */;
  %132 = multiply(%131, %label) /* ty=Tensor[(1, 10), float32] */;
  %133 = sum(%132, axis=[-1], keepdims=True) /* ty=Tensor[(1, 1), float32] */;
  %134 = exp(%127) /* ty=Tensor[(1, 10), float32] */;
  %135 = multiply(%133, %134) /* ty=Tensor[(1, 10), float32] */;
  %136 = subtract(%132, %135) /* ty=Tensor[(1, 10), float32] */;
  %137 = multiply(%128, %129) /* ty=Tensor[(1, 10, 1, 1), bool] */;
  %138 = reshape(%136, newshape=[1, 10, 1, 1]) /* ty=Tensor[(1, 10, 1, 1), float32] */;
  %139 = zeros(shape=[1, 10, 1, 1], dtype="float32") /* ty=Tensor[(1, 10, 1, 1), float32] */;
  %140 = where(%137, %138, %139) /* ty=Tensor[(1, 10, 1, 1), float32] */;
  %141 = cast(%140, dtype="int32") /* ty=Tensor[(1, 10, 1, 1), int32] */;
  %142 = reshape(%122, newshape=[1, -1, 0, 0]) /* ty=Tensor[(1, 112, 1, 1), int8] */;
  %143 = tile(%140, reps=[1, 112, 1, 1]) /* ty=Tensor[(1, 1120, 1, 1), float32] */;
  %144 = cast(%142, dtype="float32") /* ty=Tensor[(1, 112, 1, 1), float32] */;
  %145 = reshape(%143, newshape=[-1, 1, 0, 0]) /* ty=Tensor[(1120, 1, 1, 1), float32] */;
  %146 = nn.conv2d(%144, %145, padding=[0, 0, 0, 0], groups=112, out_dtype="float32") /* ty=Tensor[(1, 1120, 1, 1), float32] */;
  %147 = reshape(%146, newshape=[1, 112, 10, 1, 1]) /* ty=Tensor[(1, 112, 10, 1, 1), float32] */;
  %148 = sum(%147, axis=[0]) /* ty=Tensor[(112, 10, 1, 1), float32] */;
  %149 = transpose(%148, axes=[1, 0, 2, 3]) /* ty=Tensor[(10, 112, 1, 1), float32] */;
  %150 = abs(%149) /* ty=Tensor[(10, 112, 1, 1), float32] */;
  %151 = max(%150, axis=[1], keepdims=True) /* ty=Tensor[(10, 1, 1, 1), float32] */;
  %152 = divide(%151, 127f /* ty=float32 */) /* ty=Tensor[(10, 1, 1, 1), float32] */;
  %153 = divide(%149, %152) /* ty=Tensor[(10, 112, 1, 1), float32] */;
  %154 = greater_equal(%120, -128 /* ty=int32 */) /* ty=Tensor[(1, 112, 4, 4), bool] */;
  %155 = less_equal(%120, 127 /* ty=int32 */) /* ty=Tensor[(1, 112, 4, 4), bool] */;
  %156 = cast(%v18_weight, dtype="float32") /* ty=Tensor[(10, 112, 1, 1), float32] */;
  %157 = nn.conv2d_transpose(%140, %156, channels=112, kernel_size=[1, 1], padding=[0, 0, 0, 0], kernel_layout="IOHW", out_dtype="float32") /* ty=Tensor[(1, 112, 1, 1), float32] */;
  %158 = abs(%157) /* ty=Tensor[(1, 112, 1, 1), float32] */;
  %159 = max(%158, axis=[1], keepdims=True) /* ty=Tensor[(1, 1, 1, 1), float32] */;
  %160 = divide(%159, 127f /* ty=float32 */) /* ty=Tensor[(1, 1, 1, 1), float32] */;
  %161 = divide(%157, %160) /* ty=Tensor[(1, 112, 1, 1), float32] */;
  %162 = cast(%161, dtype="int8") /* ty=Tensor[(1, 112, 1, 1), int8] */;
  %163 = cast(%162, dtype="float32") /* ty=Tensor[(1, 112, 1, 1), float32] */;
  %164 = multiply(%163, 0.0625f /* ty=float32 */) /* ty=Tensor[(1, 112, 1, 1), float32] */;
  %165 = ones(shape=[1, 112, 4, 4], dtype="float32") /* ty=Tensor[(1, 112, 4, 4), float32] */;
  %166 = multiply(%154, %155) /* ty=Tensor[(1, 112, 4, 4), bool] */;
  %167 = multiply(%164, %165) /* ty=Tensor[(1, 112, 4, 4), float32] */;
  %168 = zeros(shape=[1, 112, 4, 4], dtype="float32") /* ty=Tensor[(1, 112, 4, 4), float32] */;
  %169 = where(%166, %167, %168) /* ty=Tensor[(1, 112, 4, 4), float32] */;
  %170 = cast(%169, dtype="int32") /* ty=Tensor[(1, 112, 4, 4), int32] */;
  %171 = greater_equal(%118, -128 /* ty=int32 */) /* ty=Tensor[(1, 336, 4, 4), bool] */;
  %172 = less_equal(%118, 127 /* ty=int32 */) /* ty=Tensor[(1, 336, 4, 4), bool] */;
  %173 = cast(%v17_conv_2_weight, dtype="float32") /* ty=Tensor[(112, 336, 1, 1), float32] */;
  %174 = nn.conv2d_transpose(%169, %173, channels=336, kernel_size=[1, 1], padding=[0, 0, 0, 0], kernel_layout="IOHW", out_dtype="float32") /* ty=Tensor[(1, 336, 4, 4), float32] */;
  %175 = abs(%174) /* ty=Tensor[(1, 336, 4, 4), float32] */;
  %176 = max(%175, axis=[1], keepdims=True) /* ty=Tensor[(1, 1, 4, 4), float32] */;
  %177 = divide(%176, 127f /* ty=float32 */) /* ty=Tensor[(1, 1, 4, 4), float32] */;
  %178 = divide(%174, %177) /* ty=Tensor[(1, 336, 4, 4), float32] */;
  %179 = multiply(%171, %172) /* ty=Tensor[(1, 336, 4, 4), bool] */;
  %180 = cast(%178, dtype="int8") /* ty=Tensor[(1, 336, 4, 4), int8] */;
  %181 = zeros(shape=[1, 336, 4, 4], dtype="int8") /* ty=Tensor[(1, 336, 4, 4), int8] */;
  %182 = where(%179, %180, %181) /* ty=Tensor[(1, 336, 4, 4), int8] */;
  %183 = cast(%182, dtype="int32") /* ty=Tensor[(1, 336, 4, 4), int32] */;
  %184 = greater_equal(%116, -128 /* ty=int32 */) /* ty=Tensor[(1, 336, 4, 4), bool] */;
  %185 = less_equal(%116, 127 /* ty=int32 */) /* ty=Tensor[(1, 336, 4, 4), bool] */;
  %186 = nn.conv2d_transpose(%182, %v17_conv_1_weight, channels=336, kernel_size=[3, 3], padding=[1, 1, 1, 1], groups=336, kernel_layout="IOHW", out_dtype="int32") /* ty=Tensor[(1, 336, 4, 4), int32] */;
  %187 = abs(%186) /* ty=Tensor[(1, 336, 4, 4), int32] */;
  %188 = max(%187, axis=[1], keepdims=True) /* ty=Tensor[(1, 1, 4, 4), int32] */;
  %189 = divide(%188, 127 /* ty=int32 */) /* ty=Tensor[(1, 1, 4, 4), int32] */;
  %190 = divide(%186, %189) /* ty=Tensor[(1, 336, 4, 4), int32] */;
  %191 = multiply(%184, %185) /* ty=Tensor[(1, 336, 4, 4), bool] */;
  %192 = cast(%190, dtype="int8") /* ty=Tensor[(1, 336, 4, 4), int8] */;
  %193 = zeros(shape=[1, 336, 4, 4], dtype="int8") /* ty=Tensor[(1, 336, 4, 4), int8] */;
  %194 = where(%191, %192, %193) /* ty=Tensor[(1, 336, 4, 4), int8] */;
  %195 = cast(%194, dtype="int32") /* ty=Tensor[(1, 336, 4, 4), int32] */;
  %196 = tile(%194, reps=[1, 56, 1, 1]) /* ty=Tensor[(1, 18816, 4, 4), int8] */;
  %197 = reshape(%115, newshape=[1, -1, 0, 0]) /* ty=Tensor[(1, 56, 4, 4), int8] */;
  %198 = reshape(%196, newshape=[-1, 1, 0, 0]) /* ty=Tensor[(18816, 1, 4, 4), int8] */;
  %199 = nn.conv2d(%197, %198, padding=[0, 0, 0, 0], groups=56, out_dtype="int32") /* ty=Tensor[(1, 18816, 1, 1), int32] */;
  %200 = reshape(%199, newshape=[1, 56, 336, 1, 1]) /* ty=Tensor[(1, 56, 336, 1, 1), int32] */;
  %201 = sum(%200, axis=[0]) /* ty=Tensor[(56, 336, 1, 1), int32] */;
  %202 = transpose(%201, axes=[1, 0, 2, 3]) /* ty=Tensor[(336, 56, 1, 1), int32] */;
  %203 = abs(%202) /* ty=Tensor[(336, 56, 1, 1), int32] */;
  %204 = max(%203, axis=[1], keepdims=True) /* ty=Tensor[(336, 1, 1, 1), int32] */;
  %205 = divide(%204, 127 /* ty=int32 */) /* ty=Tensor[(336, 1, 1, 1), int32] */;
  %206 = divide(%202, %205) /* ty=Tensor[(336, 56, 1, 1), int32] */;
  %207 = greater_equal(%112, -128 /* ty=int32 */) /* ty=Tensor[(1, 56, 4, 4), bool] */;
  %208 = less_equal(%112, 127 /* ty=int32 */) /* ty=Tensor[(1, 56, 4, 4), bool] */;
  %209 = greater_equal(%114, meta[relay.Constant][0] /* ty=int8 */) /* ty=Tensor[(1, 56, 4, 4), bool] */;
  %210 = less_equal(%114, meta[relay.Constant][1] /* ty=int8 */) /* ty=Tensor[(1, 56, 4, 4), bool] */;
  %211 = nn.conv2d_transpose(%194, %v17_conv_0_weight, channels=56, kernel_size=[1, 1], padding=[0, 0, 0, 0], kernel_layout="IOHW", out_dtype="int32") /* ty=Tensor[(1, 56, 4, 4), int32] */;
  %212 = abs(%211) /* ty=Tensor[(1, 56, 4, 4), int32] */;
  %213 = max(%212, axis=[1], keepdims=True) /* ty=Tensor[(1, 1, 4, 4), int32] */;
  %214 = divide(%213, 127 /* ty=int32 */) /* ty=Tensor[(1, 1, 4, 4), int32] */;
  %215 = divide(%211, %214) /* ty=Tensor[(1, 56, 4, 4), int32] */;
  %216 = multiply(%209, %210) /* ty=Tensor[(1, 56, 4, 4), bool] */;
  %217 = cast(%215, dtype="int8") /* ty=Tensor[(1, 56, 4, 4), int8] */;
  %218 = zeros(shape=[1, 56, 4, 4], dtype="int8") /* ty=Tensor[(1, 56, 4, 4), int8] */;
  %219 = where(%216, %217, %218) /* ty=Tensor[(1, 56, 4, 4), int8] */;
  %220 = cast(%219, dtype="float32") /* ty=Tensor[(1, 56, 4, 4), float32] */;
  %221 = reshape(%v16_qadd_scale_y, newshape=[1, -1, 1, 1]) /* ty=Tensor[(1, 1, 1, 1), float32] */;
  %222 = divide(%220, %221) /* ty=Tensor[(1, 56, 4, 4), float32] */;
  %223 = reshape(%v16_qadd_scale_x2, newshape=[1, -1, 1, 1]) /* ty=Tensor[(1, 1, 1, 1), float32] */;
  %224 = multiply(%222, %223) /* ty=Tensor[(1, 56, 4, 4), float32] */;
  %225 = multiply(%207, %208) /* ty=Tensor[(1, 56, 4, 4), bool] */;
  %226 = cast(%224, dtype="int8") /* ty=Tensor[(1, 56, 4, 4), int8] */;
  %227 = zeros(shape=[1, 56, 4, 4], dtype="int8") /* ty=Tensor[(1, 56, 4, 4), int8] */;
  %228 = where(%225, %226, %227) /* ty=Tensor[(1, 56, 4, 4), int8] */;
  %229 = cast(%228, dtype="int32") /* ty=Tensor[(1, 56, 4, 4), int32] */;
  %230 = greater_equal(%110, -128 /* ty=int32 */) /* ty=Tensor[(1, 336, 4, 4), bool] */;
  %231 = less_equal(%110, 127 /* ty=int32 */) /* ty=Tensor[(1, 336, 4, 4), bool] */;
  %232 = nn.conv2d_transpose(%228, %v16_conv_2_weight, channels=336, kernel_size=[1, 1], padding=[0, 0, 0, 0], kernel_layout="IOHW", out_dtype="int32") /* ty=Tensor[(1, 336, 4, 4), int32] */;
  %233 = abs(%232) /* ty=Tensor[(1, 336, 4, 4), int32] */;
  %234 = max(%233, axis=[1], keepdims=True) /* ty=Tensor[(1, 1, 4, 4), int32] */;
  %235 = divide(%234, 127 /* ty=int32 */) /* ty=Tensor[(1, 1, 4, 4), int32] */;
  %236 = divide(%232, %235) /* ty=Tensor[(1, 336, 4, 4), int32] */;
  %237 = multiply(%230, %231) /* ty=Tensor[(1, 336, 4, 4), bool] */;
  %238 = cast(%236, dtype="int8") /* ty=Tensor[(1, 336, 4, 4), int8] */;
  %239 = zeros(shape=[1, 336, 4, 4], dtype="int8") /* ty=Tensor[(1, 336, 4, 4), int8] */;
  %240 = where(%237, %238, %239) /* ty=Tensor[(1, 336, 4, 4), int8] */;
  %241 = cast(%240, dtype="int32") /* ty=Tensor[(1, 336, 4, 4), int32] */;
  %242 = greater_equal(%108, -128 /* ty=int32 */) /* ty=Tensor[(1, 336, 4, 4), bool] */;
  %243 = less_equal(%108, 127 /* ty=int32 */) /* ty=Tensor[(1, 336, 4, 4), bool] */;
  %244 = nn.conv2d_transpose(%240, %v16_conv_1_weight, channels=336, kernel_size=[3, 3], padding=[1, 1, 1, 1], groups=336, kernel_layout="IOHW", out_dtype="int32") /* ty=Tensor[(1, 336, 4, 4), int32] */;
  %245 = abs(%244) /* ty=Tensor[(1, 336, 4, 4), int32] */;
  %246 = max(%245, axis=[1], keepdims=True) /* ty=Tensor[(1, 1, 4, 4), int32] */;
  %247 = divide(%246, 127 /* ty=int32 */) /* ty=Tensor[(1, 1, 4, 4), int32] */;
  %248 = divide(%244, %247) /* ty=Tensor[(1, 336, 4, 4), int32] */;
  %249 = multiply(%242, %243) /* ty=Tensor[(1, 336, 4, 4), bool] */;
  %250 = cast(%248, dtype="int8") /* ty=Tensor[(1, 336, 4, 4), int8] */;
  %251 = zeros(shape=[1, 336, 4, 4], dtype="int8") /* ty=Tensor[(1, 336, 4, 4), int8] */;
  %252 = where(%249, %250, %251) /* ty=Tensor[(1, 336, 4, 4), int8] */;
  %253 = cast(%252, dtype="int32") /* ty=Tensor[(1, 336, 4, 4), int32] */;
  %254 = strided_slice(%107, begin=[0, 0, 0, 0], end=[1, 7, 4, 4], strides=[1], axes=None) /* ty=Tensor[(1, 7, 4, 4), int8] */;
  %255 = tile(%252, reps=[1, 7, 1, 1]) /* ty=Tensor[(1, 2352, 4, 4), int8] */;
  %256 = reshape(%254, newshape=[1, -1, 0, 0]) /* ty=Tensor[(1, 7, 4, 4), int8] */;
  %257 = reshape(%255, newshape=[-1, 1, 0, 0]) /* ty=Tensor[(2352, 1, 4, 4), int8] */;
  %258 = nn.conv2d(%256, %257, padding=[0, 0, 0, 0], groups=7, out_dtype="int32") /* ty=Tensor[(1, 2352, 1, 1), int32] */;
  %259 = reshape(%258, newshape=[1, 7, 336, 1, 1]) /* ty=Tensor[(1, 7, 336, 1, 1), int32] */;
  %260 = sum(%259, axis=[0]) /* ty=Tensor[(7, 336, 1, 1), int32] */;
  %261 = transpose(%260, axes=[1, 0, 2, 3]) /* ty=Tensor[(336, 7, 1, 1), int32] */;
  %262 = abs(%261) /* ty=Tensor[(336, 7, 1, 1), int32] */;
  %263 = max(%262, axis=[1], keepdims=True) /* ty=Tensor[(336, 1, 1, 1), int32] */;
  %264 = divide(%263, 127 /* ty=int32 */) /* ty=Tensor[(336, 1, 1, 1), int32] */;
  %265 = divide(%261, %264) /* ty=Tensor[(336, 7, 1, 1), int32] */;
  %266 = greater_equal(%104, -128 /* ty=int32 */) /* ty=Tensor[(1, 56, 4, 4), bool] */;
  %267 = less_equal(%104, 127 /* ty=int32 */) /* ty=Tensor[(1, 56, 4, 4), bool] */;
  %268 = greater_equal(%106, meta[relay.Constant][2] /* ty=int8 */) /* ty=Tensor[(1, 56, 4, 4), bool] */;
  %269 = less_equal(%106, meta[relay.Constant][3] /* ty=int8 */) /* ty=Tensor[(1, 56, 4, 4), bool] */;
  %270 = nn.conv2d_transpose(%252, %v16_conv_0_weight, channels=56, kernel_size=[1, 1], padding=[0, 0, 0, 0], kernel_layout="IOHW", out_dtype="int32") /* ty=Tensor[(1, 56, 4, 4), int32] */;
  %271 = abs(%270) /* ty=Tensor[(1, 56, 4, 4), int32] */;
  %272 = max(%271, axis=[1], keepdims=True) /* ty=Tensor[(1, 1, 4, 4), int32] */;
  %273 = divide(%272, 127 /* ty=int32 */) /* ty=Tensor[(1, 1, 4, 4), int32] */;
  %274 = divide(%270, %273) /* ty=Tensor[(1, 56, 4, 4), int32] */;
  %275 = multiply(%268, %269) /* ty=Tensor[(1, 56, 4, 4), bool] */;
  %276 = cast(%274, dtype="int8") /* ty=Tensor[(1, 56, 4, 4), int8] */;
  %277 = zeros(shape=[1, 56, 4, 4], dtype="int8") /* ty=Tensor[(1, 56, 4, 4), int8] */;
  %278 = where(%275, %276, %277) /* ty=Tensor[(1, 56, 4, 4), int8] */;
  %279 = cast(%278, dtype="float32") /* ty=Tensor[(1, 56, 4, 4), float32] */;
  %280 = reshape(%v15_qadd_scale_y, newshape=[1, -1, 1, 1]) /* ty=Tensor[(1, 1, 1, 1), float32] */;
  %281 = divide(%279, %280) /* ty=Tensor[(1, 56, 4, 4), float32] */;
  %282 = reshape(%v15_qadd_scale_x2, newshape=[1, -1, 1, 1]) /* ty=Tensor[(1, 1, 1, 1), float32] */;
  %283 = multiply(%281, %282) /* ty=Tensor[(1, 56, 4, 4), float32] */;
  %284 = multiply(%266, %267) /* ty=Tensor[(1, 56, 4, 4), bool] */;
  %285 = cast(%283, dtype="int8") /* ty=Tensor[(1, 56, 4, 4), int8] */;
  %286 = zeros(shape=[1, 56, 4, 4], dtype="int8") /* ty=Tensor[(1, 56, 4, 4), int8] */;
  %287 = where(%284, %285, %286) /* ty=Tensor[(1, 56, 4, 4), int8] */;
  %288 = cast(%287, dtype="int32") /* ty=Tensor[(1, 56, 4, 4), int32] */;
  %289 = greater_equal(%102, -128 /* ty=int32 */) /* ty=Tensor[(1, 336, 4, 4), bool] */;
  %290 = less_equal(%102, 127 /* ty=int32 */) /* ty=Tensor[(1, 336, 4, 4), bool] */;
  %291 = nn.conv2d_transpose(%287, %v15_conv_2_weight, channels=336, kernel_size=[1, 1], padding=[0, 0, 0, 0], kernel_layout="IOHW", out_dtype="int32") /* ty=Tensor[(1, 336, 4, 4), int32] */;
  %292 = abs(%291) /* ty=Tensor[(1, 336, 4, 4), int32] */;
  %293 = max(%292, axis=[1], keepdims=True) /* ty=Tensor[(1, 1, 4, 4), int32] */;
  %294 = divide(%293, 127 /* ty=int32 */) /* ty=Tensor[(1, 1, 4, 4), int32] */;
  %295 = divide(%291, %294) /* ty=Tensor[(1, 336, 4, 4), int32] */;
  %296 = multiply(%289, %290) /* ty=Tensor[(1, 336, 4, 4), bool] */;
  %297 = cast(%295, dtype="int8") /* ty=Tensor[(1, 336, 4, 4), int8] */;
  %298 = zeros(shape=[1, 336, 4, 4], dtype="int8") /* ty=Tensor[(1, 336, 4, 4), int8] */;
  %299 = where(%296, %297, %298) /* ty=Tensor[(1, 336, 4, 4), int8] */;
  %300 = cast(%299, dtype="int32") /* ty=Tensor[(1, 336, 4, 4), int32] */;
  %301 = greater_equal(%100, -128 /* ty=int32 */) /* ty=Tensor[(1, 336, 4, 4), bool] */;
  %302 = less_equal(%100, 127 /* ty=int32 */) /* ty=Tensor[(1, 336, 4, 4), bool] */;
  %303 = nn.conv2d_transpose(%299, %v15_conv_1_weight, channels=336, kernel_size=[3, 3], padding=[1, 1, 1, 1], groups=336, kernel_layout="IOHW", out_dtype="int32") /* ty=Tensor[(1, 336, 4, 4), int32] */;
  %304 = abs(%303) /* ty=Tensor[(1, 336, 4, 4), int32] */;
  %305 = max(%304, axis=[1], keepdims=True) /* ty=Tensor[(1, 1, 4, 4), int32] */;
  %306 = divide(%305, 127 /* ty=int32 */) /* ty=Tensor[(1, 1, 4, 4), int32] */;
  %307 = divide(%303, %306) /* ty=Tensor[(1, 336, 4, 4), int32] */;
  %308 = multiply(%301, %302) /* ty=Tensor[(1, 336, 4, 4), bool] */;
  %309 = cast(%307, dtype="int8") /* ty=Tensor[(1, 336, 4, 4), int8] */;
  %310 = zeros(shape=[1, 336, 4, 4], dtype="int8") /* ty=Tensor[(1, 336, 4, 4), int8] */;
  %311 = where(%308, %309, %310) /* ty=Tensor[(1, 336, 4, 4), int8] */;
  %312 = cast(%311, dtype="int32") /* ty=Tensor[(1, 336, 4, 4), int32] */;
  %313 = strided_slice(%99, begin=[0, 0, 0, 0], end=[1, 7, 4, 4], strides=[1], axes=None) /* ty=Tensor[(1, 7, 4, 4), int8] */;
  %314 = tile(%311, reps=[1, 7, 1, 1]) /* ty=Tensor[(1, 2352, 4, 4), int8] */;
  %315 = reshape(%313, newshape=[1, -1, 0, 0]) /* ty=Tensor[(1, 7, 4, 4), int8] */;
  %316 = reshape(%314, newshape=[-1, 1, 0, 0]) /* ty=Tensor[(2352, 1, 4, 4), int8] */;
  %317 = nn.conv2d(%315, %316, padding=[0, 0, 0, 0], groups=7, out_dtype="int32") /* ty=Tensor[(1, 2352, 1, 1), int32] */;
  %318 = reshape(%317, newshape=[1, 7, 336, 1, 1]) /* ty=Tensor[(1, 7, 336, 1, 1), int32] */;
  %319 = sum(%318, axis=[0]) /* ty=Tensor[(7, 336, 1, 1), int32] */;
  %320 = transpose(%319, axes=[1, 0, 2, 3]) /* ty=Tensor[(336, 7, 1, 1), int32] */;
  %321 = abs(%320) /* ty=Tensor[(336, 7, 1, 1), int32] */;
  %322 = max(%321, axis=[1], keepdims=True) /* ty=Tensor[(336, 1, 1, 1), int32] */;
  %323 = divide(%322, 127 /* ty=int32 */) /* ty=Tensor[(336, 1, 1, 1), int32] */;
  %324 = divide(%320, %323) /* ty=Tensor[(336, 7, 1, 1), int32] */;
  %325 = greater_equal(%98, -128 /* ty=int32 */) /* ty=Tensor[(1, 56, 4, 4), bool] */;
  %326 = less_equal(%98, 127 /* ty=int32 */) /* ty=Tensor[(1, 56, 4, 4), bool] */;
  %327 = nn.conv2d_transpose(%311, %v15_conv_0_weight, channels=56, kernel_size=[1, 1], padding=[0, 0, 0, 0], kernel_layout="IOHW", out_dtype="int32") /* ty=Tensor[(1, 56, 4, 4), int32] */;
  %328 = abs(%327) /* ty=Tensor[(1, 56, 4, 4), int32] */;
  %329 = max(%328, axis=[1], keepdims=True) /* ty=Tensor[(1, 1, 4, 4), int32] */;
  %330 = divide(%329, 127 /* ty=int32 */) /* ty=Tensor[(1, 1, 4, 4), int32] */;
  %331 = divide(%327, %330) /* ty=Tensor[(1, 56, 4, 4), int32] */;
  %332 = multiply(%325, %326) /* ty=Tensor[(1, 56, 4, 4), bool] */;
  %333 = cast(%331, dtype="int8") /* ty=Tensor[(1, 56, 4, 4), int8] */;
  %334 = zeros(shape=[1, 56, 4, 4], dtype="int8") /* ty=Tensor[(1, 56, 4, 4), int8] */;
  %335 = where(%332, %333, %334) /* ty=Tensor[(1, 56, 4, 4), int8] */;
  %336 = cast(%335, dtype="int32") /* ty=Tensor[(1, 56, 4, 4), int32] */;
  %337 = strided_slice(%97, begin=[0, 0, 0, 0], end=[1, 48, 4, 4], strides=[1], axes=None) /* ty=Tensor[(1, 48, 4, 4), int8] */;
  %338 = tile(%335, reps=[1, 48, 1, 1]) /* ty=Tensor[(1, 2688, 4, 4), int8] */;
  %339 = reshape(%337, newshape=[1, -1, 0, 0]) /* ty=Tensor[(1, 48, 4, 4), int8] */;
  %340 = reshape(%338, newshape=[-1, 1, 0, 0]) /* ty=Tensor[(2688, 1, 4, 4), int8] */;
  %341 = nn.conv2d(%339, %340, padding=[0, 0, 0, 0], groups=48, out_dtype="int32") /* ty=Tensor[(1, 2688, 1, 1), int32] */;
  %342 = reshape(%341, newshape=[1, 48, 56, 1, 1]) /* ty=Tensor[(1, 48, 56, 1, 1), int32] */;
  %343 = sum(%342, axis=[0]) /* ty=Tensor[(48, 56, 1, 1), int32] */;
  %344 = transpose(%343, axes=[1, 0, 2, 3]) /* ty=Tensor[(56, 48, 1, 1), int32] */;
  %345 = abs(%344) /* ty=Tensor[(56, 48, 1, 1), int32] */;
  %346 = max(%345, axis=[1], keepdims=True) /* ty=Tensor[(56, 1, 1, 1), int32] */;
  %347 = divide(%346, 127 /* ty=int32 */) /* ty=Tensor[(56, 1, 1, 1), int32] */;
  %348 = divide(%344, %347) /* ty=Tensor[(56, 48, 1, 1), int32] */;
  %349 = greater_equal(%96, -128 /* ty=int32 */) /* ty=Tensor[(1, 192, 4, 4), bool] */;
  %350 = less_equal(%96, 127 /* ty=int32 */) /* ty=Tensor[(1, 192, 4, 4), bool] */;
  %351 = nn.conv2d_transpose(%335, %v14_conv_2_weight, channels=192, kernel_size=[1, 1], padding=[0, 0, 0, 0], kernel_layout="IOHW", out_dtype="int32") /* ty=Tensor[(1, 192, 4, 4), int32] */;
  %352 = abs(%351) /* ty=Tensor[(1, 192, 4, 4), int32] */;
  %353 = max(%352, axis=[1], keepdims=True) /* ty=Tensor[(1, 1, 4, 4), int32] */;
  %354 = divide(%353, 127 /* ty=int32 */) /* ty=Tensor[(1, 1, 4, 4), int32] */;
  %355 = divide(%351, %354) /* ty=Tensor[(1, 192, 4, 4), int32] */;
  %356 = multiply(%349, %350) /* ty=Tensor[(1, 192, 4, 4), bool] */;
  %357 = cast(%355, dtype="int8") /* ty=Tensor[(1, 192, 4, 4), int8] */;
  %358 = zeros(shape=[1, 192, 4, 4], dtype="int8") /* ty=Tensor[(1, 192, 4, 4), int8] */;
  %359 = where(%356, %357, %358) /* ty=Tensor[(1, 192, 4, 4), int8] */;
  %360 = cast(%359, dtype="int32") /* ty=Tensor[(1, 192, 4, 4), int32] */;
  %361 = greater_equal(%94, -128 /* ty=int32 */) /* ty=Tensor[(1, 192, 8, 8), bool] */;
  %362 = less_equal(%94, 127 /* ty=int32 */) /* ty=Tensor[(1, 192, 8, 8), bool] */;
  %363 = nn.conv2d_transpose(%359, %v14_conv_1_weight, channels=192, kernel_size=[3, 3], strides=[2, 2], output_padding=[1, 1], padding=[1, 1, 1, 1], groups=192, kernel_layout="IOHW", out_dtype="int32") /* ty=Tensor[(1, 192, 8, 8), int32] */;
  %364 = abs(%363) /* ty=Tensor[(1, 192, 8, 8), int32] */;
  %365 = max(%364, axis=[1], keepdims=True) /* ty=Tensor[(1, 1, 8, 8), int32] */;
  %366 = divide(%365, 127 /* ty=int32 */) /* ty=Tensor[(1, 1, 8, 8), int32] */;
  %367 = divide(%363, %366) /* ty=Tensor[(1, 192, 8, 8), int32] */;
  %368 = multiply(%361, %362) /* ty=Tensor[(1, 192, 8, 8), bool] */;
  %369 = cast(%367, dtype="int8") /* ty=Tensor[(1, 192, 8, 8), int8] */;
  %370 = zeros(shape=[1, 192, 8, 8], dtype="int8") /* ty=Tensor[(1, 192, 8, 8), int8] */;
  %371 = where(%368, %369, %370) /* ty=Tensor[(1, 192, 8, 8), int8] */;
  %372 = cast(%371, dtype="int32") /* ty=Tensor[(1, 192, 8, 8), int32] */;
  %373 = tile(%371, reps=[1, 32, 1, 1]) /* ty=Tensor[(1, 6144, 8, 8), int8] */;
  %374 = reshape(%93, newshape=[1, -1, 0, 0]) /* ty=Tensor[(1, 32, 8, 8), int8] */;
  %375 = reshape(%373, newshape=[-1, 1, 0, 0]) /* ty=Tensor[(6144, 1, 8, 8), int8] */;
  %376 = nn.conv2d(%374, %375, padding=[0, 0, 0, 0], groups=32, out_dtype="int32") /* ty=Tensor[(1, 6144, 1, 1), int32] */;
  %377 = reshape(%376, newshape=[1, 32, 192, 1, 1]) /* ty=Tensor[(1, 32, 192, 1, 1), int32] */;
  %378 = sum(%377, axis=[0]) /* ty=Tensor[(32, 192, 1, 1), int32] */;
  %379 = transpose(%378, axes=[1, 0, 2, 3]) /* ty=Tensor[(192, 32, 1, 1), int32] */;
  %380 = abs(%379) /* ty=Tensor[(192, 32, 1, 1), int32] */;
  %381 = max(%380, axis=[1], keepdims=True) /* ty=Tensor[(192, 1, 1, 1), int32] */;
  %382 = divide(%381, 127 /* ty=int32 */) /* ty=Tensor[(192, 1, 1, 1), int32] */;
  %383 = divide(%379, %382) /* ty=Tensor[(192, 32, 1, 1), int32] */;
  %384 = greater_equal(%90, -128 /* ty=int32 */) /* ty=Tensor[(1, 32, 8, 8), bool] */;
  %385 = less_equal(%90, 127 /* ty=int32 */) /* ty=Tensor[(1, 32, 8, 8), bool] */;
  %386 = greater_equal(%92, meta[relay.Constant][4] /* ty=int8 */) /* ty=Tensor[(1, 32, 8, 8), bool] */;
  %387 = less_equal(%92, meta[relay.Constant][5] /* ty=int8 */) /* ty=Tensor[(1, 32, 8, 8), bool] */;
  %388 = nn.conv2d_transpose(%371, %v14_conv_0_weight, channels=32, kernel_size=[1, 1], padding=[0, 0, 0, 0], kernel_layout="IOHW", out_dtype="int32") /* ty=Tensor[(1, 32, 8, 8), int32] */;
  %389 = abs(%388) /* ty=Tensor[(1, 32, 8, 8), int32] */;
  %390 = max(%389, axis=[1], keepdims=True) /* ty=Tensor[(1, 1, 8, 8), int32] */;
  %391 = divide(%390, 127 /* ty=int32 */) /* ty=Tensor[(1, 1, 8, 8), int32] */;
  %392 = divide(%388, %391) /* ty=Tensor[(1, 32, 8, 8), int32] */;
  %393 = multiply(%386, %387) /* ty=Tensor[(1, 32, 8, 8), bool] */;
  %394 = cast(%392, dtype="int8") /* ty=Tensor[(1, 32, 8, 8), int8] */;
  %395 = zeros(shape=[1, 32, 8, 8], dtype="int8") /* ty=Tensor[(1, 32, 8, 8), int8] */;
  %396 = where(%393, %394, %395) /* ty=Tensor[(1, 32, 8, 8), int8] */;
  %397 = cast(%396, dtype="float32") /* ty=Tensor[(1, 32, 8, 8), float32] */;
  %398 = reshape(%v13_qadd_scale_y, newshape=[1, -1, 1, 1]) /* ty=Tensor[(1, 1, 1, 1), float32] */;
  %399 = divide(%397, %398) /* ty=Tensor[(1, 32, 8, 8), float32] */;
  %400 = reshape(%v13_qadd_scale_x2, newshape=[1, -1, 1, 1]) /* ty=Tensor[(1, 1, 1, 1), float32] */;
  %401 = multiply(%399, %400) /* ty=Tensor[(1, 32, 8, 8), float32] */;
  %402 = multiply(%384, %385) /* ty=Tensor[(1, 32, 8, 8), bool] */;
  %403 = cast(%401, dtype="int8") /* ty=Tensor[(1, 32, 8, 8), int8] */;
  %404 = zeros(shape=[1, 32, 8, 8], dtype="int8") /* ty=Tensor[(1, 32, 8, 8), int8] */;
  %405 = where(%402, %403, %404) /* ty=Tensor[(1, 32, 8, 8), int8] */;
  %406 = cast(%405, dtype="int32") /* ty=Tensor[(1, 32, 8, 8), int32] */;
  %407 = greater_equal(%88, -128 /* ty=int32 */) /* ty=Tensor[(1, 192, 8, 8), bool] */;
  %408 = less_equal(%88, 127 /* ty=int32 */) /* ty=Tensor[(1, 192, 8, 8), bool] */;
  %409 = nn.conv2d_transpose(%405, %v13_conv_2_weight, channels=192, kernel_size=[1, 1], padding=[0, 0, 0, 0], kernel_layout="IOHW", out_dtype="int32") /* ty=Tensor[(1, 192, 8, 8), int32] */;
  %410 = abs(%409) /* ty=Tensor[(1, 192, 8, 8), int32] */;
  %411 = max(%410, axis=[1], keepdims=True) /* ty=Tensor[(1, 1, 8, 8), int32] */;
  %412 = divide(%411, 127 /* ty=int32 */) /* ty=Tensor[(1, 1, 8, 8), int32] */;
  %413 = divide(%409, %412) /* ty=Tensor[(1, 192, 8, 8), int32] */;
  %414 = multiply(%407, %408) /* ty=Tensor[(1, 192, 8, 8), bool] */;
  %415 = cast(%413, dtype="int8") /* ty=Tensor[(1, 192, 8, 8), int8] */;
  %416 = zeros(shape=[1, 192, 8, 8], dtype="int8") /* ty=Tensor[(1, 192, 8, 8), int8] */;
  %417 = where(%414, %415, %416) /* ty=Tensor[(1, 192, 8, 8), int8] */;
  %418 = cast(%417, dtype="int32") /* ty=Tensor[(1, 192, 8, 8), int32] */;
  %419 = greater_equal(%86, -128 /* ty=int32 */) /* ty=Tensor[(1, 192, 8, 8), bool] */;
  %420 = less_equal(%86, 127 /* ty=int32 */) /* ty=Tensor[(1, 192, 8, 8), bool] */;
  %421 = nn.conv2d_transpose(%417, %v13_conv_1_weight, channels=192, kernel_size=[3, 3], padding=[1, 1, 1, 1], groups=192, kernel_layout="IOHW", out_dtype="int32") /* ty=Tensor[(1, 192, 8, 8), int32] */;
  %422 = abs(%421) /* ty=Tensor[(1, 192, 8, 8), int32] */;
  %423 = max(%422, axis=[1], keepdims=True) /* ty=Tensor[(1, 1, 8, 8), int32] */;
  %424 = divide(%423, 127 /* ty=int32 */) /* ty=Tensor[(1, 1, 8, 8), int32] */;
  %425 = divide(%421, %424) /* ty=Tensor[(1, 192, 8, 8), int32] */;
  %426 = multiply(%419, %420) /* ty=Tensor[(1, 192, 8, 8), bool] */;
  %427 = cast(%425, dtype="int8") /* ty=Tensor[(1, 192, 8, 8), int8] */;
  %428 = zeros(shape=[1, 192, 8, 8], dtype="int8") /* ty=Tensor[(1, 192, 8, 8), int8] */;
  %429 = where(%426, %427, %428) /* ty=Tensor[(1, 192, 8, 8), int8] */;
  %430 = cast(%429, dtype="int32") /* ty=Tensor[(1, 192, 8, 8), int32] */;
  %431 = strided_slice(%85, begin=[0, 0, 0, 0], end=[1, 16, 8, 8], strides=[1], axes=None) /* ty=Tensor[(1, 16, 8, 8), int8] */;
  %432 = tile(%429, reps=[1, 16, 1, 1]) /* ty=Tensor[(1, 3072, 8, 8), int8] */;
  %433 = reshape(%431, newshape=[1, -1, 0, 0]) /* ty=Tensor[(1, 16, 8, 8), int8] */;
  %434 = reshape(%432, newshape=[-1, 1, 0, 0]) /* ty=Tensor[(3072, 1, 8, 8), int8] */;
  %435 = nn.conv2d(%433, %434, padding=[0, 0, 0, 0], groups=16, out_dtype="int32") /* ty=Tensor[(1, 3072, 1, 1), int32] */;
  %436 = reshape(%435, newshape=[1, 16, 192, 1, 1]) /* ty=Tensor[(1, 16, 192, 1, 1), int32] */;
  %437 = sum(%436, axis=[0]) /* ty=Tensor[(16, 192, 1, 1), int32] */;
  %438 = transpose(%437, axes=[1, 0, 2, 3]) /* ty=Tensor[(192, 16, 1, 1), int32] */;
  %439 = abs(%438) /* ty=Tensor[(192, 16, 1, 1), int32] */;
  %440 = max(%439, axis=[1], keepdims=True) /* ty=Tensor[(192, 1, 1, 1), int32] */;
  %441 = divide(%440, 127 /* ty=int32 */) /* ty=Tensor[(192, 1, 1, 1), int32] */;
  %442 = divide(%438, %441) /* ty=Tensor[(192, 16, 1, 1), int32] */;
  %443 = greater_equal(%82, -128 /* ty=int32 */) /* ty=Tensor[(1, 32, 8, 8), bool] */;
  %444 = less_equal(%82, 127 /* ty=int32 */) /* ty=Tensor[(1, 32, 8, 8), bool] */;
  %445 = greater_equal(%84, meta[relay.Constant][6] /* ty=int8 */) /* ty=Tensor[(1, 32, 8, 8), bool] */;
  %446 = less_equal(%84, meta[relay.Constant][7] /* ty=int8 */) /* ty=Tensor[(1, 32, 8, 8), bool] */;
  %447 = nn.conv2d_transpose(%429, %v13_conv_0_weight, channels=32, kernel_size=[1, 1], padding=[0, 0, 0, 0], kernel_layout="IOHW", out_dtype="int32") /* ty=Tensor[(1, 32, 8, 8), int32] */;
  %448 = abs(%447) /* ty=Tensor[(1, 32, 8, 8), int32] */;
  %449 = max(%448, axis=[1], keepdims=True) /* ty=Tensor[(1, 1, 8, 8), int32] */;
  %450 = divide(%449, 127 /* ty=int32 */) /* ty=Tensor[(1, 1, 8, 8), int32] */;
  %451 = divide(%447, %450) /* ty=Tensor[(1, 32, 8, 8), int32] */;
  %452 = multiply(%445, %446) /* ty=Tensor[(1, 32, 8, 8), bool] */;
  %453 = cast(%451, dtype="int8") /* ty=Tensor[(1, 32, 8, 8), int8] */;
  %454 = zeros(shape=[1, 32, 8, 8], dtype="int8") /* ty=Tensor[(1, 32, 8, 8), int8] */;
  %455 = where(%452, %453, %454) /* ty=Tensor[(1, 32, 8, 8), int8] */;
  %456 = cast(%455, dtype="float32") /* ty=Tensor[(1, 32, 8, 8), float32] */;
  %457 = reshape(%v12_qadd_scale_y, newshape=[1, -1, 1, 1]) /* ty=Tensor[(1, 1, 1, 1), float32] */;
  %458 = divide(%456, %457) /* ty=Tensor[(1, 32, 8, 8), float32] */;
  %459 = reshape(%v12_qadd_scale_x2, newshape=[1, -1, 1, 1]) /* ty=Tensor[(1, 1, 1, 1), float32] */;
  %460 = multiply(%458, %459) /* ty=Tensor[(1, 32, 8, 8), float32] */;
  %461 = multiply(%443, %444) /* ty=Tensor[(1, 32, 8, 8), bool] */;
  %462 = cast(%460, dtype="int8") /* ty=Tensor[(1, 32, 8, 8), int8] */;
  %463 = zeros(shape=[1, 32, 8, 8], dtype="int8") /* ty=Tensor[(1, 32, 8, 8), int8] */;
  %464 = where(%461, %462, %463) /* ty=Tensor[(1, 32, 8, 8), int8] */;
  %465 = cast(%464, dtype="int32") /* ty=Tensor[(1, 32, 8, 8), int32] */;
  %466 = greater_equal(%80, -128 /* ty=int32 */) /* ty=Tensor[(1, 192, 8, 8), bool] */;
  %467 = less_equal(%80, 127 /* ty=int32 */) /* ty=Tensor[(1, 192, 8, 8), bool] */;
  %468 = nn.conv2d_transpose(%464, %v12_conv_2_weight, channels=192, kernel_size=[1, 1], padding=[0, 0, 0, 0], kernel_layout="IOHW", out_dtype="int32") /* ty=Tensor[(1, 192, 8, 8), int32] */;
  %469 = abs(%468) /* ty=Tensor[(1, 192, 8, 8), int32] */;
  %470 = max(%469, axis=[1], keepdims=True) /* ty=Tensor[(1, 1, 8, 8), int32] */;
  %471 = divide(%470, 127 /* ty=int32 */) /* ty=Tensor[(1, 1, 8, 8), int32] */;
  %472 = divide(%468, %471) /* ty=Tensor[(1, 192, 8, 8), int32] */;
  %473 = multiply(%466, %467) /* ty=Tensor[(1, 192, 8, 8), bool] */;
  %474 = cast(%472, dtype="int8") /* ty=Tensor[(1, 192, 8, 8), int8] */;
  %475 = zeros(shape=[1, 192, 8, 8], dtype="int8") /* ty=Tensor[(1, 192, 8, 8), int8] */;
  %476 = where(%473, %474, %475) /* ty=Tensor[(1, 192, 8, 8), int8] */;
  %477 = cast(%476, dtype="int32") /* ty=Tensor[(1, 192, 8, 8), int32] */;
  %478 = greater_equal(%78, -128 /* ty=int32 */) /* ty=Tensor[(1, 192, 8, 8), bool] */;
  %479 = less_equal(%78, 127 /* ty=int32 */) /* ty=Tensor[(1, 192, 8, 8), bool] */;
  %480 = nn.conv2d_transpose(%476, %v12_conv_1_weight, channels=192, kernel_size=[3, 3], padding=[1, 1, 1, 1], groups=192, kernel_layout="IOHW", out_dtype="int32") /* ty=Tensor[(1, 192, 8, 8), int32] */;
  %481 = abs(%480) /* ty=Tensor[(1, 192, 8, 8), int32] */;
  %482 = max(%481, axis=[1], keepdims=True) /* ty=Tensor[(1, 1, 8, 8), int32] */;
  %483 = divide(%482, 127 /* ty=int32 */) /* ty=Tensor[(1, 1, 8, 8), int32] */;
  %484 = divide(%480, %483) /* ty=Tensor[(1, 192, 8, 8), int32] */;
  %485 = multiply(%478, %479) /* ty=Tensor[(1, 192, 8, 8), bool] */;
  %486 = cast(%484, dtype="int8") /* ty=Tensor[(1, 192, 8, 8), int8] */;
  %487 = zeros(shape=[1, 192, 8, 8], dtype="int8") /* ty=Tensor[(1, 192, 8, 8), int8] */;
  %488 = where(%485, %486, %487) /* ty=Tensor[(1, 192, 8, 8), int8] */;
  %489 = cast(%488, dtype="int32") /* ty=Tensor[(1, 192, 8, 8), int32] */;
  %490 = strided_slice(%77, begin=[0, 0, 0, 0], end=[1, 16, 8, 8], strides=[1], axes=None) /* ty=Tensor[(1, 16, 8, 8), int8] */;
  %491 = tile(%488, reps=[1, 16, 1, 1]) /* ty=Tensor[(1, 3072, 8, 8), int8] */;
  %492 = reshape(%490, newshape=[1, -1, 0, 0]) /* ty=Tensor[(1, 16, 8, 8), int8] */;
  %493 = reshape(%491, newshape=[-1, 1, 0, 0]) /* ty=Tensor[(3072, 1, 8, 8), int8] */;
  %494 = nn.conv2d(%492, %493, padding=[0, 0, 0, 0], groups=16, out_dtype="int32") /* ty=Tensor[(1, 3072, 1, 1), int32] */;
  %495 = reshape(%494, newshape=[1, 16, 192, 1, 1]) /* ty=Tensor[(1, 16, 192, 1, 1), int32] */;
  %496 = sum(%495, axis=[0]) /* ty=Tensor[(16, 192, 1, 1), int32] */;
  %497 = transpose(%496, axes=[1, 0, 2, 3]) /* ty=Tensor[(192, 16, 1, 1), int32] */;
  %498 = abs(%497) /* ty=Tensor[(192, 16, 1, 1), int32] */;
  %499 = max(%498, axis=[1], keepdims=True) /* ty=Tensor[(192, 1, 1, 1), int32] */;
  %500 = divide(%499, 127 /* ty=int32 */) /* ty=Tensor[(192, 1, 1, 1), int32] */;
  %501 = divide(%497, %500) /* ty=Tensor[(192, 16, 1, 1), int32] */;
  %502 = greater_equal(%76, -128 /* ty=int32 */) /* ty=Tensor[(1, 32, 8, 8), bool] */;
  %503 = less_equal(%76, 127 /* ty=int32 */) /* ty=Tensor[(1, 32, 8, 8), bool] */;
  %504 = nn.conv2d_transpose(%488, %v12_conv_0_weight, channels=32, kernel_size=[1, 1], padding=[0, 0, 0, 0], kernel_layout="IOHW", out_dtype="int32") /* ty=Tensor[(1, 32, 8, 8), int32] */;
  %505 = abs(%504) /* ty=Tensor[(1, 32, 8, 8), int32] */;
  %506 = max(%505, axis=[1], keepdims=True) /* ty=Tensor[(1, 1, 8, 8), int32] */;
  %507 = divide(%506, 127 /* ty=int32 */) /* ty=Tensor[(1, 1, 8, 8), int32] */;
  %508 = divide(%504, %507) /* ty=Tensor[(1, 32, 8, 8), int32] */;
  %509 = multiply(%502, %503) /* ty=Tensor[(1, 32, 8, 8), bool] */;
  %510 = cast(%508, dtype="int8") /* ty=Tensor[(1, 32, 8, 8), int8] */;
  %511 = zeros(shape=[1, 32, 8, 8], dtype="int8") /* ty=Tensor[(1, 32, 8, 8), int8] */;
  %512 = where(%509, %510, %511) /* ty=Tensor[(1, 32, 8, 8), int8] */;
  %513 = cast(%512, dtype="int32") /* ty=Tensor[(1, 32, 8, 8), int32] */;
  %514 = strided_slice(%75, begin=[0, 0, 0, 0], end=[1, 18, 8, 8], strides=[1], axes=None) /* ty=Tensor[(1, 18, 8, 8), int8] */;
  %515 = tile(%512, reps=[1, 18, 1, 1]) /* ty=Tensor[(1, 576, 8, 8), int8] */;
  %516 = reshape(%514, newshape=[1, -1, 0, 0]) /* ty=Tensor[(1, 18, 8, 8), int8] */;
  %517 = reshape(%515, newshape=[-1, 1, 0, 0]) /* ty=Tensor[(576, 1, 8, 8), int8] */;
  %518 = nn.conv2d(%516, %517, padding=[0, 0, 0, 0], groups=18, out_dtype="int32") /* ty=Tensor[(1, 576, 1, 1), int32] */;
  %519 = reshape(%518, newshape=[1, 18, 32, 1, 1]) /* ty=Tensor[(1, 18, 32, 1, 1), int32] */;
  %520 = sum(%519, axis=[0]) /* ty=Tensor[(18, 32, 1, 1), int32] */;
  %521 = transpose(%520, axes=[1, 0, 2, 3]) /* ty=Tensor[(32, 18, 1, 1), int32] */;
  %522 = abs(%521) /* ty=Tensor[(32, 18, 1, 1), int32] */;
  %523 = max(%522, axis=[1], keepdims=True) /* ty=Tensor[(32, 1, 1, 1), int32] */;
  %524 = divide(%523, 127 /* ty=int32 */) /* ty=Tensor[(32, 1, 1, 1), int32] */;
  %525 = divide(%521, %524) /* ty=Tensor[(32, 18, 1, 1), int32] */;
  %526 = greater_equal(%74, -128 /* ty=int32 */) /* ty=Tensor[(1, 144, 8, 8), bool] */;
  %527 = less_equal(%74, 127 /* ty=int32 */) /* ty=Tensor[(1, 144, 8, 8), bool] */;
  %528 = nn.conv2d_transpose(%512, %v11_conv_2_weight, channels=144, kernel_size=[1, 1], padding=[0, 0, 0, 0], kernel_layout="IOHW", out_dtype="int32") /* ty=Tensor[(1, 144, 8, 8), int32] */;
  %529 = abs(%528) /* ty=Tensor[(1, 144, 8, 8), int32] */;
  %530 = max(%529, axis=[1], keepdims=True) /* ty=Tensor[(1, 1, 8, 8), int32] */;
  %531 = divide(%530, 127 /* ty=int32 */) /* ty=Tensor[(1, 1, 8, 8), int32] */;
  %532 = divide(%528, %531) /* ty=Tensor[(1, 144, 8, 8), int32] */;
  %533 = multiply(%526, %527) /* ty=Tensor[(1, 144, 8, 8), bool] */;
  %534 = cast(%532, dtype="int8") /* ty=Tensor[(1, 144, 8, 8), int8] */;
  %535 = zeros(shape=[1, 144, 8, 8], dtype="int8") /* ty=Tensor[(1, 144, 8, 8), int8] */;
  %536 = where(%533, %534, %535) /* ty=Tensor[(1, 144, 8, 8), int8] */;
  %537 = cast(%536, dtype="int32") /* ty=Tensor[(1, 144, 8, 8), int32] */;
  %538 = nn.cross_entropy_with_logits(%127, %label) /* ty=float32 */;
  %539 = sum(%141, axis=[1], exclude=True) /* ty=Tensor[(10), int32] */;
  %540 = cast(%153, dtype="int8") /* ty=Tensor[(10, 112, 1, 1), int8] */;
  %541 = sum(%170, axis=[1], exclude=True) /* ty=Tensor[(112), int32] */;
  %542 = sum(%183, axis=[1], exclude=True) /* ty=Tensor[(336), int32] */;
  %543 = sum(%195, axis=[1], exclude=True) /* ty=Tensor[(336), int32] */;
  %544 = cast(%206, dtype="int8") /* ty=Tensor[(336, 56, 1, 1), int8] */;
  %545 = sum(%229, axis=[1], exclude=True) /* ty=Tensor[(56), int32] */;
  %546 = sum(%241, axis=[1], exclude=True) /* ty=Tensor[(336), int32] */;
  %547 = sum(%253, axis=[1], exclude=True) /* ty=Tensor[(336), int32] */;
  %548 = cast(%265, dtype="int8") /* ty=Tensor[(336, 7, 1, 1), int8] */;
  %549 = sum(%288, axis=[1], exclude=True) /* ty=Tensor[(56), int32] */;
  %550 = sum(%300, axis=[1], exclude=True) /* ty=Tensor[(336), int32] */;
  %551 = sum(%312, axis=[1], exclude=True) /* ty=Tensor[(336), int32] */;
  %552 = cast(%324, dtype="int8") /* ty=Tensor[(336, 7, 1, 1), int8] */;
  %553 = sum(%336, axis=[1], exclude=True) /* ty=Tensor[(56), int32] */;
  %554 = cast(%348, dtype="int8") /* ty=Tensor[(56, 48, 1, 1), int8] */;
  %555 = sum(%360, axis=[1], exclude=True) /* ty=Tensor[(192), int32] */;
  %556 = sum(%372, axis=[1], exclude=True) /* ty=Tensor[(192), int32] */;
  %557 = cast(%383, dtype="int8") /* ty=Tensor[(192, 32, 1, 1), int8] */;
  %558 = sum(%406, axis=[1], exclude=True) /* ty=Tensor[(32), int32] */;
  %559 = sum(%418, axis=[1], exclude=True) /* ty=Tensor[(192), int32] */;
  %560 = sum(%430, axis=[1], exclude=True) /* ty=Tensor[(192), int32] */;
  %561 = cast(%442, dtype="int8") /* ty=Tensor[(192, 16, 1, 1), int8] */;
  %562 = sum(%465, axis=[1], exclude=True) /* ty=Tensor[(32), int32] */;
  %563 = sum(%477, axis=[1], exclude=True) /* ty=Tensor[(192), int32] */;
  %564 = sum(%489, axis=[1], exclude=True) /* ty=Tensor[(192), int32] */;
  %565 = cast(%501, dtype="int8") /* ty=Tensor[(192, 16, 1, 1), int8] */;
  %566 = sum(%513, axis=[1], exclude=True) /* ty=Tensor[(32), int32] */;
  %567 = cast(%525, dtype="int8") /* ty=Tensor[(32, 18, 1, 1), int8] */;
  %568 = sum(%537, axis=[1], exclude=True) /* ty=Tensor[(144), int32] */;
  (%538, %539, %540, %541, %542, %543, %544, %545, %546, %547, %548, %549, %550, %551, %552, %553, %554, %555, %556, %557, %558, %559, %560, %561, %562, %563, %564, %565, %566, %567, %568)
}

